Skynet/volley_actor_v3_new.pth (torch, 12503 bytes, 5 tensors)

affine1.weight f4 [128, 12]
00000000: b820 fa3e f2dd 863e b6d3 d9bd b577 8c3e
00000010: 41c9 b8be b450 cebd 8da3 4d3e 66cd b0be
00000020: 1cf4 5fbd 3b32 12be 318b cb3d 8764 cfbd
00000030: bb1c bebe d9a7 ff3d b32b 123e ec65 4e3e
00000040: 2343 4ebe 22dc 7abe 5355 f2bc 1209 5ebe
00000050: 8c3f 9a3e d29c f23d cf6f 06be 8d03 6d3e
00000060: 25f9 93be b86a 0dbe 91fd 483d 7dac b8bd
00000070: 4741 98be 84d9 b7be 30fb b43e b4da 273d
00000080: 31b2 84be 32c2 af3d d7dc 11bd 9663 013e
00000090: ef71 973e 7bb7 813e f7a0 0d3e da41 59be
000000a0: 4f59 b2bd 274d 00be 0750 13be 1d2f e73e
000000b0: 66f3 7fbe 4e21 3bbe 9bce a7bd f6ba c1bd
000000c0: ea76 bbbe ecb0 eabd f09d efbc 22f0 4b3e
000000d0: edbc fa3b 9dae 283e 2a3b ea3d 7339 f7be
000000e0: 7f06 b9bd 364a b13e ac26 1abe 35de 203e
000000f0: a6dc f13e 27a4 6b3d a530 0dbe cc18 8cbb
00000100: d9b8 b0be c8bf d73d e3ed a53d 907d 8bbe
00000110: 56ac 82b9 55ed 873e 2e4f 083d a502 53be
00000120: 8baf 8e3e dd36 7d3e 05da 9ebd 778b b4be
00000130: c59f 323e 57a3 e3b9 1489 983c 26fd 26be
00000140: 3186 89bd fc76 803e acee fd3c 35e2 033b
00000150: e116 373e 4d7d b8bd 6fda 693c 4281 20bb
00000160: 0675 983e 7ce0 843e f041 b7be 9363 473d
00000170: eeeb 4abc a3ca 463e df91 1ebb 1038 4abd
00000180: 2e9e f3bd 30aa 123e 1f54 97bb 4685 323d
00000190: 4d19 903e eb5d bc3e 8954 87be 0c96 36bd
000001a0: 42e6 57bd a67a d23e f001 823d e7b3 d93b
000001b0: 2665 88be 2e3d 45be 128d 31bd 43e5 a4be
000001c0: f5a7 1d3e c17e ac3e 5216 723e 2956 ae3d
000001d0: 8bc5 843d b814 b43e d4ad 25be 5ed4 493e
000001e0: 16d4 f43e 1233 70bd effd 1ebe 63e7 2bbe
000001f0: 26fb 17bd 0d0e 233e 0f37 29be 06ff 86bd
00000200: d7e4 c0be 078a 433e fa7f 69bd c0bc 8d3e
00000210: 0a04 b6bc 9f6a d7bc b316 11be a117 fb3c
00000220: 5d4b 0a3f 5f7b ddbc 9066 983d ac89 bfbd
00000230: 97bb 843e 2fe2 633e be51 923d 3952 d0bd
00000240: 2afb e2bd 1452 87be b460 51bd 7781 053e
00000250: 24ec af3e 7cfe 683e 192c 5bbb 3695 e3be
00000260: 0f4a f8bd 9698 b2be 5fea 4f3c 7c44 27bd
00000270: 9cb6 afbe d8d4 d1bd a958 a53d ab5f 04be
00000280: afc2 6c3e f138 d53c 7ad2 b03e 0cc6 8abc
00000290: 9847 333e 980a 9e3e fcbd ef3e a48b d3bd
000002a0: c672 babd 94d5 9b3e 8ced 893d e38b 023d
000002b0: 7fb0 c5be f64c ba3d 9d89 113e 9df7 d9be
000002c0: aa41 4b3d a4df 06be ce54 bc3d f4aa 0abb
000002d0: 0d08 9e3e 2992 09be f4c5 fd3d 8702 c93c
000002e0: 30f4 c4bd df1e 8d3e dc10 2a3e 6214 37bc
000002f0: 0657 393e b139 8e3e 3c77 52be 76f0 bb3d
00000300: d678 c4be 6ba4 433d ebf2 973c e111 75be
00000310: 2346 66be 757a 5b3d 9e50 123c 5507 86be
00000320: ae57 323e d318 9dbe c8f1 dabd 6f3a 8ebe
00000330: 0ec9 c83d 032e 473e 3d86 0bbd 46a6 2cbd
00000340: 140d 62be 4b24 883e 7fb8 dfbe f560 80bc
00000350: a8ca 28bd fa43 e0bd feb9 1d3e b708 ccbc
00000360: 10c4 6dbe 8d91 85bd 86b8 79be 460a a73b
00000370: a2e5 f3bd af66 853e 5e12 f8bc c84b e93d
00000380: 18ae c0bc e22a acbd 8a3c 94be 9030 193d
00000390: 0214 7f3e 8cb6 c53d 5bce 5abd 9d90 9dbd
000003a0: 8008 293e 722c 1f3e 5f65 adbe d42e cb3e
000003b0: ba33 edbe 0d53 93be 9d9a c3bb a26b 7dbc
000003c0: 3765 afbe 1865 f7bd c7d8 713e e7a1 ddbd
000003d0: 63b5 2c3e aec7 9f3e dcf7 383d 2704 80be
000003e0: e848 253e 58c0 083e 117e 153e 9f49 b4bd
000003f0: e0e2 61be df22 3a3e d9dd 3dbc e139 d23d
0.48853087 0.26341206 -0.10636084 0.2743508 -0.36091045 -0.10073987 0.20081921 -0.34531707
-0.05467616 -0.14276974 0.09938658 -0.10126596 -0.37131295 0.12483186 0.14274482 0.20156068
-0.20142798 -0.24498037 -0.029581701 -0.21683148 0.30126607 0.11846317 -0.13128589 0.23145886
-0.2890102 -0.13810241 0.049069945 -0.090172745 -0.29737303 -0.3590814 0.3534789 0.040980056
-0.259172 0.08581962 -0.035611 0.12635645 0.29579112 0.25335297 0.13830934 -0.21216527
-0.087084405 -0.12529431 -0.14385997 0.45153132 -0.24995193 -0.18274423 -0.08193704 -0.09459488
-0.36614162 -0.114595264 -0.029250115 0.19915822 0.0076519162 0.1647286 0.11437066 -0.48286018
-0.09034442 0.3462693 -0.15053815 0.15709765 0.47238654 0.057529595 -0.13788088 -0.004275417
-0.34516028 0.10534626 0.08102014 -0.27244234 -0.00024923933 0.26548257 0.033278637 -0.20606478
0.27868304 0.2472796 -0.07756428 -0.35262653 0.1744376 -0.00043418512 0.018620051 -0.16307506
-0.06715048 0.25090778 0.030997597 0.0020123844 0.17879821 -0.09008274 0.01427327 -0.0024491106
0.29776782 0.25952518 -0.35792494 0.048678946 -0.012385352 0.19413237 -0.0024195833 -0.04936987
-0.11895405 0.14322734 -0.0046181823 0.04358413 0.28144303 0.36790404 -0.26431683 -0.04457669
-0.052709825 0.41109198 0.06348026 0.0066437605 -0.2663967 -0.1926162 -0.043347426 -0.32206163
0.15396102 0.33690456 0.23641327 0.085125275 0.06482991 0.35172057 -0.16179591 0.19709918
0.4781806 -0.058642454 -0.15526555 -0.16787486 -0.03710475 0.15923329 -0.1652491 -0.065916106
-0.3767459 0.19095622 -0.057006814 0.27683067 -0.022218723 -0.026295958 -0.14168815 0.030650916
0.54021245 -0.027036367 0.07441437 -0.09352431 0.2592437 0.22254251 0.07144497 -0.10171933
-0.11083062 -0.26429808 -0.051117614 0.13037668 0.34359848 0.22753328 -0.0033443032 -0.44449776
-0.121235006 -0.3488204 0.012690156 -0.040836796 -0.34319007 -0.10245675 0.08073551 -0.1292712
0.23121141 0.026028128 0.3453558 -0.01694014 0.1750778 0.30867457 0.46824634 -0.10329369
-0.091039225 0.30436385 0.067347616 0.031871688 -0.38611218 0.090967104 0.14212652 -0.42571726
0.04962317 -0.1317125 0.09195863 -0.0021159025 0.30865517 -0.13434662 0.12391272 0.024537338
-0.096168876 0.27562615 0.16607994 -0.011174293 0.18099603 0.2777839 -0.20553297 0.09176724
-0.3837344 0.047764223 0.01854845 -0.23932602 -0.22487693 0.05358358 0.008930353 -0.2617747
0.1741626 -0.30683002 -0.10690647 -0.27778956 0.09803973 0.19451146 -0.034063566 -0.04215076
-0.22075301 0.2659019 -0.43695447 -0.015671233 -0.041208893 -0.109504655 0.15402982 -0.0249065
-0.23219323 -0.06521902 -0.24386796 0.0050976602 -0.11909033 0.26054904 -0.030282196 0.11391407
-0.023520514 -0.08406617 -0.28952438 0.03739983 0.24909976 0.09653959 -0.053419452 -0.076935984
0.16507149 0.15544298 -0.33866403 0.39684165 -0.46328527 -0.287743 -0.005969359 -0.015467556
-0.34256908 -0.12079829 0.2361785 -0.10821896 0.16866069 0.3120703 0.045158252 -0.25003168
0.16141093 0.13354623 0.14598872 -0.088031046 -0.22059202 0.18177365 -0.011588537 0.10264946

affine1.bias f4 [128]
00000000: aa69 b53d 453a 1abe 5258 a13d 2112 d13d
00000010: 72dd 35be d483 ec3d 82ad 02bd 4dfd 8ebc
00000020: bde2 1c3d 1566 d2bb aa94 75bd 88fd 2ebe
00000030: d364 97be 5f32 073e 906e 993d 0959 d8bd
00000040: 1acb 61bc f22a 8f3e 6f85 c9bd b3e3 24be
00000050: d635 21bd 56ff dabb 2b6b 94bd b0cd ba3d
00000060: dea4 123e c730 cbbd d87f 113e 29e2 27be
00000070: 34bb 073e abf5 65be d633 123d 85fb 0fbd
00000080: 0d7d f03d 2dd4 13be 66c0 c4bd ee6e 66bc
00000090: 7201 313c 1854 1abe 3645 d0bd 0b3d 92be
000000a0: 69c2 2bbb 6b95 54be e7b7 e4bd 4a69 b9be
000000b0: a102 c43c a4c1 843e 968b a9be 5ff2 b43d
000000c0: fdb9 803e f13d b3be 1806 763e 6c46 093d
000000d0: f06c 1fbe 4271 55b9 7c3d ccbd 4610 fb3d
000000e0: c082 8f3e a3c6 b6be f7d6 18be 7850 0f3e
000000f0: 6510 333e d157 60be 6bb4 443e 8892 2dbc
00000100: 3169 883e 5bba 4f3e 4d2a 943d 75e4 1d3e
00000110: f5ef c3be ca9d a13d 8f0c b13e b2e1 04bd
00000120: 1522 323e a55f f53d 61e5 95bd 88db 3e3e
00000130: 06a7 f5bb eea0 8e3e 7f25 65be fcf1 84be
00000140: d871 6f3e 6a53 513e f330 37be ab11 fc3c
00000150: 5069 79be 6fe8 253e 211b b0be 1ec0 98bd
00000160: 2e44 dcbe 1d13 4abd f717 5f3e 8553 583e
00000170: a43e 4a3e fbb0 78be 341c 87be ff3a 46be
00000180: be6d 01bd a871 ccbd 86ae 803e 57e5 c4bd
00000190: b1ab 8b3e 6fa7 12bd c77e b7be 9804 f23d
000001a0: 5af5 753e 98ac e33d 4044 87be 317f 9cbd
000001b0: 21c7 41be 1500 e3bc 4e05 a3be 889c 483e
000001c0: 6617 75be fa11 fb3c cae1 2ebe a434 8bbe
000001d0: f936 5e3e 022b 48be 4ca4 353e 7e03 7abe
000001e0: faed 493e 564e 4e3e 6a85 a5bd 4bfc 88be
000001f0: 0892 923d 3af6 b0bd 6569 943d 7ed7 3cbe
0.088580444 -0.1506129 0.07878174 0.10208536 -0.17760256 0.11548582 -0.03190375 -0.017454768
0.038302172 -0.0064208605 -0.05995623 -0.17088902 -0.2956911 0.13202809 0.07491791 -0.10563857
-0.013781333 0.27962452 -0.098399036 -0.16102485 -0.039357983 -0.0066832704 -0.07247003 0.09121263
0.14320704 -0.09921413 0.14208925 -0.16394867 0.13255006 -0.22456996 0.035693966 -0.035151977
0.117426015 -0.14436407 -0.096070096 -0.014064534 0.010803567 -0.15071142 -0.10169451 -0.28562197
-0.0026208407 -0.20760123 -0.11167889 -0.36213142 0.023927035 0.25928986 -0.33114308 0.08835291
0.25141898 -0.35008195 0.24025762 0.033514425 -0.155689 -0.00020355455 -0.09972665 0.12258963
0.28029442 -0.35698423 -0.14925753 0.1399554 0.17486723 -0.219085 0.19209449 -0.010594018
0.26642755 0.20285933 0.07234631 0.1541918 -0.3826901 0.07891424 0.34579894 -0.032441802
0.17395814 0.11981133 -0.07319141 0.18638432 -0.0074967174 0.27857155 -0.22377585 -0.2596587
0.23383272 0.20441976 -0.17889766 0.030770143 -0.2435658 0.16201948 -0.34395698 -0.074585184
-0.43020767 -0.049334634 0.21786486 0.2112561 0.19750458 -0.24286263 -0.26388705 -0.19358443
-0.0315988 -0.09982616 0.2513315 -0.096140556 0.27279428 -0.03580421 -0.3583891 0.118172824
0.24019375 0.11116904 -0.26419258 -0.07641447 -0.18923618 -0.02771 -0.31839985 0.19590962
-0.23934707 0.03064822 -0.17078319 -0.271886 0.21700658 -0.19547656 0.17738456 -0.24415395
0.19719687 0.2014707 -0.08082087 -0.26754984 0.071567595 -0.08640714 0.07246665 -0.18441579

action_head.weight f4 [6, 128]
00000000: b942 7ebd 9957 633d 5c81 6fbd b6be d4bd
00000010: 48e9 2bbe d887 17bd a55a 98bd 68a0 87bd
00000020: ab82 91bd 8875 03be 92a1 14be 8d76 b7bd
00000030: 02f7 09be 072b 15bd 1168 5bbd d5f4 eabd
00000040: 1407 6bbc 8128 10be 5edc 83bd 2cf5 b0bd
00000050: 895d 00bc 5ff3 05bd 59e0 973a 3228 efbd
00000060: b615 cabd 1d9c bebd 26b4 4fbd 7215 7f3c
00000070: ea11 10be 2fea 7f3c 0564 c5bc f8ed 42bd
00000080: 51a9 3ebc 25b7 2abe 9e06 85bd be40 00be
00000090: 60dc 6cbc 8971 95bd ab38 41bd dd4f f2bd
000000a0: 11ad 15be ffa2 23be 3b32 c9bd 8fdb 4fbd
000000b0: 30bc 77bd 2b8c fbbd 1e2a e33c 8bc5 bcbd
000000c0: 6b89 c3bd 5c88 923c abf8 1fbe ccf4 aeba
000000d0: d9a0 40be 06ce 68bd 44c2 54bd f40a 0bbe
000000e0: 3eb2 1dbe de6d 4ebd 79fa 24be f6a1 2fbd
000000f0: 0e3c cbbc 3b3e 87bc ee19 a7bc 1605 bebd
00000100: d8fb 96bd 322d 3ebb e455 52bd ae5a 17be
00000110: 501f b5bd a266 d8bd f5c9 f4bb 5b4e 12be
00000120: 3b9b c3bd 04d6 e5bd 8cc7 13be a479 b0bd
00000130: 649e 02bd 5c4d 02be 63be 13bd 7d76 31be
00000140: e1bc 94bd 72e5 99bd c1ff 42be e44a dcbc
00000150: 225f a9bc a9f4 a4bd 9081 4dbd 1c62 16bd
00000160: 6948 0cbd 2d17 adbd a0f5 35bd fd30 03be
00000170: 0e12 febd b063 bcbd 13ae 29be 1bb4 0c3d
00000180: de85 b5bd 5428 8bbb 4a08 38be b772 36be
00000190: 26fa 37be 6bbf a4bd 6149 933d 3e12 48bd
000001a0: f3cc 1abd d1b7 76bd 0ec3 07bb b632 57bd
000001b0: 166f babd 5500 f5bd ea26 27be b38e 21be
000001c0: 6ad5 7a3d 7aeb 4bbe 85dd 9cbd 0ba4 1dbe
000001d0: fcf0 07be e7ac a0bd e9c2 3cbe 4a1f e0bd
000001e0: 12c7 29bd 133a 9fbd 9386 21bd 7013 26be
000001f0: e152 afbd 2ac7 1fbe 9aa8 2fbe dba7 1ebe
00000200: ed4a 05be 0bf4 acbc 8477 e6bd 8f7a fd3d
00000210: c614 16be 69aa 33bd dd78 11be d0c7 1ebe
00000220: 0e33 c0bd 9cde 24be 0a6b 48be 88cc 82be
00000230: 4a96 f5bd d266 7abd 381b ee3c 2b4d 0cb9
00000240: 1219 9abb 893b 4e3d 5f74 01be 75bb 633c
00000250: 242f c3bd e4de 23be 9671 2fbe 6d57 92be
00000260: ccb5 963d 3e7d aebe 2270 96be 2fd1 073d
00000270: 7888 0fbc d541 b6bd af9e d3bd 746d 15be
00000280: 6b55 24be ead1 c6bc 3c9b 27be 0ab0 b33d
00000290: 7136 f8bd 46f3 0bbe 177b b83b 1e86 f63c
000002a0: 3341 26be 3799 68bd 8a57 08be 96f5 20bd
000002b0: 7871 2cbe a000 31be e421 95bd a23c 5e3d
000002c0: b6b3 1bbe 26e3 c6bd eaae e3bd 1587 64bd
000002d0: e81f fe39 0e28 3bbe f1cd 10be 5bf9 c83d
000002e0: c9aa c9bd 4a20 6bbd d869 5ebe 6411 a93b
000002f0: ef3a fcbc 1fd8 653b e78a 47bd fe54 773d
00000300: 15fc 90bd d04a 19be e6d7 03be bb34 75bd
00000310: e7c7 a13d bc69 59bd 415b 11bd ef54 82bc
00000320: b523 663d d008 6fbd e4b2 88bd 6ef4 0fbe
00000330: 0b9c d1bd abdf bdbd 5174 5bbd 01db 2cbc
00000340: 0cc3 57be 42ff 1cbd 1fbb 5bbe 876d ddbd
00000350: 49f2 0bbd 8da2 11bd f607 bbbd 791a 79bc
00000360: 23e3 8e3b 013f 9fbc bd2f 043c 8474 3cbe
00000370: 374d 3cbe ba68 55bd bdc7 68be 3a75 ffbd
00000380: 139a dcbd 187d 01bd 3370 d2bd befa bbbd
00000390: 32cc 07be 432d ddbd 45ee 0abd 29bd 0abc
000003a0: 67e4 b4bd bba2 58be f211 eebd 0cff 0dbe
000003b0: 3815 46be 5465 b2bd c8c4 2abe a63c 003c
000003c0: 6ed2 a33d afba 81bd 5328 0bbe ddba 5c3c
000003d0: 2425 c6bd bc85 9dbd 0aec 09be 320a 88bd
000003e0: 4ff9 05be 426d 0cbe eaf1 64be 0d83 84bd
000003f0: cc95 3fbe 1738 683c 4808 11be 7de8 363d
-0.06207535 0.05550346 -0.058472976 -0.10387938 -0.16788208 -0.036994785 -0.07439164 -0.06622392
-0.07105001 -0.12837803 -0.14514759 -0.08958159 -0.13473132 -0.036417987 -0.053566042 -0.11472479
-0.014344949 -0.14077951 -0.06438516 -0.08640513 -0.0078348005 -0.0327028 0.0011587247 -0.116775885
-0.09867422 -0.0930712 -0.050708912 0.015569078 -0.14069334 0.015619799 -0.024095545 -0.047590226
-0.011637048 -0.16671427 -0.06495403 -0.12524697 -0.014456838 -0.07297046 -0.047173183 -0.11831639
-0.14616801 -0.15980147 -0.09824034 -0.050746497 -0.060482204 -0.12282594 0.027730044 -0.09217366
-0.09547695 0.017887287 -0.15622203 -0.0013348102 -0.18811359 -0.056837104 -0.05194308 -0.13578397
-0.15400025 -0.050397746 -0.16111173 -0.042879067 -0.02480891 -0.016509166 -0.020398106 -0.09278314
-0.07372254 -0.0029018638 -0.051351443 -0.14780685 -0.08843863 -0.10566451 -0.007470364 -0.14287703
-0.09551092 -0.11222461 -0.1443159 -0.08616951 -0.031889334 -0.12724823 -0.03607024 -0.17330356
-0.07262588 -0.07514466 -0.19042875 -0.02689118 -0.020675246 -0.08054478 -0.05017239 -0.03671466
-0.034248743 -0.08451686 -0.0444237 -0.12811656 -0.124057874 -0.091987014 -0.1657031 0.03435145
-0.08863424 -0.004246751 -0.17971912 -0.17817198 -0.17966518 -0.080443226 0.0719173 -0.048845522
-0.03779311 -0.060233895 -0.0020715627 -0.052538596 -0.09103219 -0.11962954 -0.16323438 -0.15777092
0.061238684 -0.19914046 -0.07659439 -0.15394609 -0.13275522 -0.078454785 -0.18433727 -0.10943468
-0.041449614 -0.07774749 -0.03943498 -0.16218352 -0.0856073 -0.15603319 -0.1715416 -0.1549372
-0.13016863 -0.021112463 -0.112532645 0.12376892 -0.14656362 -0.043863688 -0.14206262 -0.1550591
-0.09384738 -0.16100544 -0.19572082 -0.2554667 -0.11991556 -0.061133213 0.029065713 -0.00013380188
-0.0047026956 0.050349746 -0.12642048 0.013899674 -0.09530476 -0.16002995 -0.17133173 -0.28582326
0.07358894 -0.34079927 -0.29382426 0.033158477 -0.008760564 -0.08899275 -0.10333001 -0.14592534
-0.1604821 -0.024270017 -0.16367811 0.08773811 -0.12119759 -0.1366702 0.005629908 0.030093249
-0.16235809 -0.056786742 -0.13314644 -0.03929671 -0.1684016 -0.17285395 -0.07281855 0.054257043
-0.15205273 -0.09711294 -0.111173466 -0.055792887 0.00048470427 -0.18276998 -0.1414106 0.09813186
-0.09847028 -0.05740384 -0.21720064 0.005159544 -0.03078982 0.0035071445 -0.048716452 0.06038379
-0.07079331 -0.14969945 -0.12875327 -0.05986474 0.078994565 -0.05307935 -0.035487417 -0.01590964
0.056186397 -0.058358014 -0.06674746 -0.14058086 -0.10234841 -0.09271177 -0.053577725 -0.0105502615
-0.21070498 -0.03832937 -0.214581 -0.10811906 -0.034166608 -0.03555541 -0.09132378 -0.0152040655
0.004360573 -0.019439222 0.008068022 -0.18403822 -0.1838883 -0.05210183 -0.22732444 -0.12473531
-0.10771575 -0.03161344 -0.102753066 -0.09178685 -0.13261488 -0.107996486 -0.033918638 -0.008467951
-0.08832627 -0.21155827 -0.116245165 -0.13866824 -0.19344032 -0.08710733 -0.16676629 0.00782696
0.07999121 -0.06334435 -0.13589601 0.013472286 -0.09675053 -0.076915234 -0.13468948 -0.066425696
-0.13083385 -0.13713554 -0.22357908 -0.064703085 -0.18709487 0.014173529 -0.14163315 0.04465531

action_head.bias f4 [6]
00000000: c224 7dbd 33b4 d2bd c5d6 073e 6440 b6bd
00000010: a606 0d3e ded6 27be
-0.061802633 -0.102882765 0.13265522 -0.08899 0.13772067 -0.16390559

value_head.weight f4 [1, 128]
00000000: e0e7 81bd a1db 73bd d5dc 953d 076d 143e
00000010: 8863 963d 0ade 9dbc 9515 d2bc 77d4 e93d
00000020: f58c 163e daf0 e9bb 0293 89bc 10a2 4dbd
00000030: 4b1c 5a3e ec93 24bd 51fe 3f3e df1e 6bbd
00000040: 2cda a13c d6e4 0a3d 72d9 bb3d 1726 47be
00000050: 6eb8 c5bd 6df5 4b3e 8c3d 133e 1412 f9bd
00000060: 73a5 e73d 0ef9 0abd 8623 0fbe 47f6 793d
00000070: b85a c73d f058 31bf 348e 87bf fdf0 b9be
00000080: ce52 23be e87f 423c a233 063d e685 823d
00000090: fe3b bfbf 7097 bbbd 5efe 383e f722 633a
000000a0: 8ad7 7fbd ff5a 28be 7d4d 2fbe effb a93d
000000b0: 0c5e b43d 7107 32bd 1c86 e5bd eb8c bd3c
000000c0: 37d6 ddbf 6db5 1b3f 0aba 6ebc 55a0 803d
000000d0: 652e 68bc 76d4 09be d88d 093e e772 a93d
000000e0: a65d f53c 7cff 40be 412c a7bc c7b7 c23b
000000f0: 6488 0b3e 4cb1 083e f18e 803d 6cbc 5c3d
00000100: de2d c7bd a936 babd 0897 98bd 9a78 9c3d
00000110: 5e0d 7fbf d697 0b3e 26a5 a1bd afe2 3c3d
00000120: c61e e8bd 5370 633d ec95 be3d 852d 93bd
00000130: 69f1 99bd d6a9 983d 5cd8 e33d ce3b e33c
00000140: 4d42 35bd 568a 8abf e657 3cbd 3529 77bd
00000150: d327 b3bf 540d 133e ff65 103e 852c f33d
00000160: c0ed 7f3f aa68 703d c276 833c a68c 28bc
00000170: 34a0 56bd c051 70bd 6101 723e fd46 04bf
00000180: e23f b03d 182c 87be abd9 d93d a6ad 8dbc
00000190: e28b 8abd 6ff7 ccbd 893a d33d c145 fc3a
000001a0: aaad 9bbc 97fd d8bc c408 eabb e7ac 983a
000001b0: 28cd fcbc 84f5 8bbf d215 8e3e d337 90bd
000001c0: e5ff a73d 2395 70bd ffd9 c8bf d9ca 373e
000001d0: 5526 873d 0570 76bd b621 6ebd 2794 c5be
000001e0: e4a7 c4be 8fcc 8d3d b30d f7bc 61a8 f23d
000001f0: a936 68bd 8e2c e1bc bf47 963d 8053 99bc
-0.06343055 -0.059535626 0.07317511 0.14494716 0.07343203 -0.019270916 -0.025645057 0.114174776
0.14702208 -0.0071393074 -0.016793732 -0.050203383 0.21299855 -0.04018013 0.18749358 -0.057402488
0.019757353 0.03390964 0.09172334 -0.19448124 -0.09654318 0.19917841 0.14378947 -0.12161651
0.11310854 -0.033928923 -0.13978395 0.061025884 0.097341 -0.6927633 -1.0590272 -0.36316672
-0.15949556 0.011871316 0.032764085 0.06373195 -1.4940183 -0.09159744 0.18065783 0.0008664573
-0.062461413 -0.16440962 -0.17119403 0.08300006 0.088070005 -0.043464128 -0.1120722 0.023138484
-1.7330998 0.6082371 -0.014570722 0.06280581 -0.014171218 -0.13459954 0.13433015 0.08273869
0.029951882 -0.1884746 -0.020406844 0.005942318 0.13626248 0.13348883 0.06277264 0.05389063
-0.09725545 -0.09092457 -0.07450682 0.076401904 -0.9962977 0.1363214 -0.07892828 0.04611462
-0.113339946 0.055527043 0.09305939 -0.071864165 -0.075167485 0.07454269 0.11125252 0.027738478
-0.044252682 -1.0823467 -0.045982264 -0.060342032 -1.3996528 0.14360553 0.14101408 0.11873726
0.9997215 0.058693565 0.01604784 -0.010287439 -0.052398875 -0.058671713 0.23633339 -0.5167082
0.08605935 -0.26400828 0.1063722 -0.017294716 -0.06764962 -0.10008132 0.10313899 0.0019246863
-0.019003708 -0.026488109 -0.007142158 0.0011648209 -0.030859545 -1.09343 0.27751023 -0.070418976
0.08203105 -0.058735978 -1.5691527 0.17948474 0.06599108 -0.060165424 -0.058137618 -0.38589594
-0.3840934 0.06923782 -0.0301579 0.11848522 -0.056692753 -0.027487066 0.07337903 -0.018716574
