Skynet/volley_actor_v3_sh_old_r.pth (torch, 12503 bytes, 5 tensors)

affine1.weight f4 [128, 12]
00000000: 5c6b f03d 2cf1 ac3d 2c31 3c3e 4175 0bbc
00000010: 8c4a 80bd ff96 413e 7400 9bbe 7b09 9a3e
00000020: 1563 0ebe 7586 f53d 3001 b3bc 52e3 e93d
00000030: 9365 59be a25d 0b3e 1189 703c d12f 2d3d
00000040: f747 82be 871b 5fbd 8702 43bd 9817 0d3e
00000050: 2d46 183e 7335 733e e6cd b7bd 6805 e0bb
00000060: c4a5 4c3e 25f6 47bd 4878 4dbe 020a 283e
00000070: 9722 c7bd b7b5 c23c 3911 a8be 7a6b 993e
00000080: 040b 82be 64d7 2bbe 23df 8fbe a698 72be
00000090: 3acf 363e 64d1 74bb 2650 0c3e 406e 62be
000000a0: b92a a53e af97 f9bd b533 5c3e e421 92bd
000000b0: a285 dbbd f074 42be 4bfb 0a3d 0797 313e
000000c0: 51b7 2f3e 17d7 233e d3ec 8f3e 5e09 743e
000000d0: b3db f33d 1de4 203e 2e06 803d 5d30 303d
000000e0: 178a 52bd b960 4f3c 8dbf 4dbe 0c84 9b3e
000000f0: ff04 f93d cd2a 60bd 814f 6dbc 67d3 59bc
00000100: 8d75 9f3e f2f7 ce3c 7ccb a9be ff86 d4bd
00000110: 4e85 a33d e8bc a1bd fddb 4b3d dd32 343e
00000120: 73d9 6d3e 7381 0cbe c84d 1bbd 9a09 07be
00000130: 45d9 6a3d ca9b 85be 11c0 82bd a2eb 0d3e
00000140: 10a2 753e 672a 7bbc e5fa 3b3e 24fb 90bd
00000150: ceab 793e 2c3b 2abe db68 763d 3005 843b
00000160: e798 813e 8770 573e b8cb 923e 26b6 c83d
00000170: fc2a 9f3d 6d29 843e 64b7 50be ceeb 963b
00000180: 5f03 38be 9f91 d83d 7e42 ad3d 2146 dbbd
00000190: 90fb 2dbd 6f54 24be 146e 37be 2001 833e
000001a0: 75ff 2ebd f6c1 9bbc 0820 cc3d a416 593c
000001b0: 5549 02be 39ea 6ebc 8dd3 1abe 7141 253e
000001c0: f04b 42be de94 e8bd bd9f 813e 6618 7a3e
000001d0: 21b9 bc3d 7a29 1a3e 4e81 dabd 9b8e 4bbd
000001e0: 2a60 f63d 7a2d 9d3e 44dd 9ebe a502 7abd
000001f0: bcfc 543e 0326 6fbd 219a 49be 99cd 863e
00000200: 8827 1c3e 5ea8 51be a7fb a3be f187 f43d
00000210: d7b3 a3be cd2e 34be 2774 abbd 3aad 823e
00000220: f0fb 463e 1bca b8bd 8b67 253e 7841 ef3d
00000230: cc09 613c cb5e 5e3e 2a66 313e 4f7c 353e
00000240: 5f5b 8e3e 022c ebbc eb4a 3d3e 1382 a3bd
00000250: 1131 4f3e a392 0e3e 9126 903e 8740 103e
00000260: 9e58 f73c 316b c63d fe13 903e db2c 0bbe
00000270: ed5c f7bd 66cc a83e b839 7f3e a838 c83d
00000280: f55d 4e3e e8da 1dbe eca5 7abc 5b8c b53d
00000290: 28b7 15be 898a cf3d 04ee 0abe 01cf 6d3e
000002a0: ef4c bbbd 9fe6 b1bd 3d77 20bd dbcf 2e3e
000002b0: 5cd4 0c3d 6dbb 4dbe 5423 9bbe 14ea 47be
000002c0: 3fab b0be d5f8 963d ccdf 393d 4a24 f0bd
000002d0: a1d2 173e da57 f63d 2b97 7f3c 461f ca3d
000002e0: d52f 063e 5768 e73d 2f34 94be eea3 23bd
000002f0: 4318 8a3e 9ffe 83be 03fe e13c a17e 933d
00000300: 6ef0 6a3e a855 4a3e fa7a 76be f94c 3fbe
00000310: 37c5 913e 5cfd 09be b297 6b3e b215 d63d
00000320: fb14 68be 1473 01bd 60fa 67be 29c4 09be
00000330: 966e 57be 6a85 6cbe b3ac 16bd c468 a43c
00000340: a5ea df3d 8d9a 71bc 4224 62be 525b fdbd
00000350: b474 d5bd 32a5 37be 0c57 a3bd 9bd6 a93c
00000360: 940b 5f3e 44a4 023e 1f53 713e 0e2d c33c
00000370: a3e7 5d3e 2a36 4f3e 9b77 06be 7e40 98be
00000380: 9fa5 283e 9b58 0f3e 17bf b03d d45a aa3d
00000390: f889 6e3e becd 1ebe d8c7 a53d 412f 3dbe
000003a0: 9cb6 2dbe be0c a63e fc09 38be 6bdf 823e
000003b0: d6ee 8f3e 4140 893d 28d1 003e f931 ef3d
000003c0: a067 efbc 0ae4 27be fd56 733e 2301 a63d
000003d0: f5b7 95bb 5d38 3f3e 3380 13be 62a0 9b3d
000003e0: c8ac c8b9 4dc9 32bc a15e d5bd a211 b0bd
000003f0: 5f5a 833c 45d0 7b3e f0e0 023d adc5 2cbd
0.11739227 0.084444374 0.18378133 -0.008511842 -0.06264219 0.18905257 -0.30273783 0.30085358
-0.13904984 0.11988536 -0.021851152 0.11420311 -0.21230154 0.13609937 0.014681117 0.04228193
-0.2544553 -0.05446961 -0.047609832 0.13778532 0.1487052 0.23750858 -0.08974819 -0.006836582
0.1998511 -0.048818726 -0.20065415 0.16410068 -0.09723394 0.023768289 -0.3282564 0.2996481
-0.2539903 -0.16781384 -0.28099927 -0.23691043 0.17852488 -0.0037356252 0.13702449 -0.2211237
0.32259157 -0.121871345 0.215041 -0.071353704 -0.10718848 -0.1898992 0.033931058 0.17342769
0.17159773 0.16000019 0.2811037 0.23831698 0.11907139 0.15712018 0.06251179 0.043014873
-0.051401224 0.012657338 -0.20092602 0.3037418 0.12159156 -0.054728318 -0.014484287 -0.013295031
0.31144372 0.025264714 -0.3316306 -0.10377311 0.0798441 -0.07897359 0.049770344 0.17597528
0.23227482 -0.13721256 -0.037915975 -0.13187256 0.05733611 -0.2609542 -0.0638429 0.13859418
0.23987603 -0.015329934 0.18357427 -0.07079151 0.24381945 -0.16624135 0.06015859 0.0040289387
0.25311968 0.2103902 0.2867105 0.09800367 0.077718705 0.25812855 -0.20382458 0.004605747
-0.17970036 0.1057465 0.08459948 -0.107067354 -0.042476237 -0.16047834 -0.17913085 0.25586796
-0.04272409 -0.019013386 0.09967047 0.013250027 -0.12723286 -0.01458221 -0.15119763 0.16138245
-0.1897428 -0.11356519 0.25317183 0.2442337 0.09214998 0.15054885 -0.10669194 -0.049696546
0.120300606 0.30698758 -0.31028187 -0.06103768 0.20799536 -0.05838586 -0.19687702 0.26328734
0.15249455 -0.20474383 -0.32027933 0.11939991 -0.31973144 -0.17595978 -0.08371764 0.25522786
0.19432044 -0.090229236 0.1615278 0.11682409 0.013735246 0.21715848 0.17324129 0.17723201
0.27804086 -0.028707508 0.1848561 -0.07983794 0.20233561 0.13923125 0.28154424 0.14087115
0.030193623 0.09688414 0.28140253 -0.1359133 -0.12078271 0.32968444 0.24924362 0.09776431
0.2015303 -0.15415537 -0.015298348 0.08864661 -0.1462065 0.10133845 -0.13567358 0.23223497
-0.09145533 -0.086865656 -0.039176214 0.17071478 0.03438221 -0.20091029 -0.3030039 -0.19522887
-0.3450565 0.0737168 0.045379445 -0.117256716 0.14826442 0.12028475 0.015600006 0.09869246
0.13104184 0.11299198 -0.28946063 -0.039951257 0.26971635 -0.25780198 0.027586943 0.07201887
0.22943279 0.19759238 -0.2407035 -0.18681706 0.28470775 -0.13475555 0.23007086 0.10453357
-0.22664253 -0.031603888 -0.22654104 -0.13453735 -0.21038279 -0.23097768 -0.036785793 0.020069487
0.10933427 -0.01474632 -0.22084144 -0.123709336 -0.1042265 -0.17934111 -0.07975587 0.020732215
0.2178176 0.12757975 0.23566864 0.023825195 0.21670394 0.20235506 -0.13131563 -0.29736704
0.1646943 0.13998644 0.086301975 0.08318105 0.23294818 -0.15508172 0.08094758 -0.18475057
-0.16964191 0.32431597 -0.17972559 0.2556108 0.28111905 0.067017086 0.12579787 0.116794534
-0.029224217 -0.16395584 0.23763652 0.081056856 -0.0045690485 0.18673845 -0.14404373 0.0759895
-0.00038275705 -0.010912252 -0.1041844 -0.08597113 0.016034303 0.24591167 0.0319528 -0.042180706

affine1.bias f4 [128]
00000000: 0a2f 22be 5643 70be bd30 62be 2886 cd3e
00000010: 4b45 8dbe 31a1 053e de0d 73be cb34 11be
00000020: 645f 843e 9dee cebc e835 163d 5741 4bbe
00000030: 4499 8b3e 07ab 953e 4637 f33c 445d 503d
00000040: 34a9 483e e40c fe3d 2bf9 50be 5afb 81be
00000050: 859e 9f3d 7b79 713e 2e5c ae3e f9d6 c8bd
00000060: f5b7 a23d 88e1 d43d 2dd2 333e ba6c e2bd
00000070: 47c0 f6bd 779b 28be 7df6 073c df6d 133e
00000080: f03f 6d3e f16a 16be 508d 0cbd 1f42 473e
00000090: 45ab 823e b59f 3abe 3cd2 163e 4548 80bc
000000a0: f4fb d93c c82c 44be c6a4 aa3d 7e67 3e3e
000000b0: b927 44bd d63e 0abe e0bc bbbd 77fb 43be
000000c0: 73e7 523e b617 7e3e e1e8 26bd 2ad1 7bbd
000000d0: 91f5 64bd 7324 af3d 9d83 3f3e aa10 31be
000000e0: 77d3 f2bd f1b1 f33d 8fa8 29be ad4e a03e
000000f0: 3d69 dbbd 4de0 4ebe 5a92 8c3e 5c8d 7b3e
00000100: e791 5f3c 7390 63bd 4161 313e 760c fd3d
00000110: d970 5cbe 914e 143d 7bd3 b93e 66b2 8abe
00000120: a6d9 3b3d d39c dfbb c9a2 89be 3e15 afbc
00000130: d9be 843e 8693 7639 ae32 813e c2d6 423e
00000140: aeed 1c3e 43af 57be 9df3 d03e 227c bc3e
00000150: 98af ba3e 90ef 113e fb12 a0bc 2cb0 b83b
00000160: 0f46 18be 10f6 033e 6ec4 41be 1fa2 be3c
00000170: 0746 2bbd 4cbb 793e 9525 ffbd 1c9a 5fbc
00000180: 07e7 dabd 4167 443e 401c 8a3e c5d0 233e
00000190: 8cbc aabc c657 0f3e 4109 983d 81a2 59be
000001a0: 2586 05be 6e6d 083e 2bfa e53e c731 76bd
000001b0: 5f08 6e3e 0fff d3bd feb2 b23d 1725 4ebe
000001c0: e782 d43c e0a6 16be b8ce d73b 41d1 fc3d
000001d0: 8e21 87be 684b db3d 03a2 42be 33d3 903e
000001e0: df18 183d c51a 573e 6c9b 99bd 0ea0 6abd
000001f0: 37f1 ce3d 9afe 3bbe de7f d2bd 4a2e de3d
-0.15838256 -0.23463187 -0.22088905 0.40141416 -0.2759193 0.13049771 -0.23735759 -0.14180295
0.25854027 -0.025260264 0.036672503 -0.19849144 0.2726537 0.29232046 0.029689442 0.050870195
0.19595796 0.124048024 -0.2040755 -0.2538708 0.07793907 0.23581497 0.34054703 -0.09806628
0.07945243 0.10394579 0.17560644 -0.11055894 -0.12048393 -0.16465555 0.0082985135 0.14397381
0.23168921 -0.14689232 -0.034314454 0.19458817 0.25521293 -0.18224986 0.14728636 -0.01565946
0.026609398 -0.19157708 0.08332209 0.18594167 -0.047889445 -0.13500533 -0.091668844 -0.19138895
0.20596103 0.24813733 -0.040749434 -0.06147877 -0.055898253 0.08551874 0.1870255 -0.17291513
-0.1185674 0.11899174 -0.16568206 0.31310025 -0.10713432 -0.20202751 0.27455407 0.24565643
0.013645626 -0.05555768 0.17322256 0.12355892 -0.21527423 0.03620774 0.3629416 -0.27089232
0.045861863 -0.006824115 -0.26882008 -0.021372434 0.25926855 0.00023515345 0.25233978 0.19027236
0.15325043 -0.21062951 0.40810862 0.36813456 0.36462092 0.14251542 -0.0195403 0.0056362357
-0.14870475 0.12886834 -0.18922588 0.023270665 -0.04181483 0.24387854 -0.1245834 -0.013647582
-0.10688596 0.19180013 0.26974678 0.15997608 -0.02084186 0.13998327 0.0742364 -0.21253397
-0.13039453 0.13322994 0.44917426 -0.060106065 0.23245381 -0.10351383 0.08725546 -0.20131336
0.025941325 -0.14712095 0.006585922 0.123445995 -0.26392788 0.10707742 -0.19007115 0.28286132
0.037133094 0.21006306 -0.075003475 -0.057281546 0.10104602 -0.18358842 -0.10278295 0.10848673

action_head.weight f4 [6, 128]
00000000: cb7e 7abd 2193 203d 743c 63bd 1854 06bd
00000010: 3018 fa3c 82b8 543d 511d 94bd cd67 7cbd
00000020: 864a 67bc aa5a 3dbd 5574 aa3c 721d 8fbd
00000030: 6615 01bc 3007 593c 6356 553d 4c71 83bc
00000040: 7217 debc 2c5b e7bb 4049 7f3d 5466 17bd
00000050: d8e0 383c 6424 283d 1c12 903c 8161 e73c
00000060: 6ad1 b73d 1072 9cbd 4d6b 93bc c2cf 1fbd
00000070: 8ede ddba 1fd4 2d3d 2cd7 d23d bda0 e9bc
00000080: 22e1 b3bc 2a60 a73d b9a8 87bd 6efb 20bc
00000090: 655d 3a3d edbd a8bd 4906 4e3c 519c f33c
000000a0: c007 733d 93b6 b23c eb7b f23c 4c12 4f3d
000000b0: b575 89bd f96d 6abd ed42 82bc 2511 febc
000000c0: e0ac 6e3d 0494 5e3d 81a7 133d db0b 873d
000000d0: aecc 8c3d 427c d53c f7d9 973c 64b4 15bd
000000e0: d709 543d 9903 5ebd 4f20 313d e957 43bc
000000f0: 1482 703c 5580 a23d d7af 903d c288 523d
00000100: 12ac 7cbd c5d4 1b3d 9855 b33d 7828 a7bd
00000110: 6545 99bd b2bf 79bd e843 4c3d 96f1 12bd
00000120: dd7d d43c 83b0 7fbd 100c a53d 0856 633d
00000130: b5de 983c 51f7 953d 41af 8f3c 1bf5 77bd
00000140: cc2c d13d 00b5 5f3d adc7 943d a20a 1f3d
00000150: e477 ab3c 1123 fcbb dc0f 8ebc e138 7dbd
00000160: d7d2 cdbc 19c8 3bbd 585f 313d 96c6 3abc
00000170: 9137 96bd ffef 293d d8f3 2e39 f7fe 543d
00000180: d9be b1bd c1b0 5fbd 4296 b53d 2940 82bd
00000190: ec05 0dbd 8861 b63d 13ad 0c3b 4ec5 81bd
000001a0: 1bbf 2e3d 4413 ae3d b0a3 aa3c 2ecc 3ebd
000001b0: fd45 fa3c 05fc 8dbd 3e46 e83c 0d0b 493d
000001c0: 323b 87b8 746f 863d 3969 ebbc e8ae 6a3d
000001d0: 55f5 8dbd 66c6 263d 0702 1ebd 808c 3a3d
000001e0: aeb3 6c3d 44f3 383d 610b 633c 9d1d 2fbd
000001f0: 1213 1dbd 618f bd3d 59a6 adbc ddf7 a03c
00000200: 3ad8 973d 7298 373d 7303 bb3c db6a 95bd
00000210: 506d 863d f314 a93c 97f2 c4bd a9d6 94bd
00000220: 157c 6abd fcb4 4cbd 6f39 d2bc 8f18 2d3c
00000230: 0240 e93c 53b0 12bc 3864 8b3b 32a9 7dbc
00000240: a155 a8ba d88f 3dbc e0b7 8dba b037 873d
00000250: a103 67bb 99e9 babc fc07 b63c 88c5 4b3c
00000260: 8141 63bc c0b9 d43c e4ab 9039 76b1 ebbb
00000270: dadf dc3c 10d8 d3bc b808 b23d cfb3 81bd
00000280: 3cf0 a2bd be52 8b3d 86b1 1d3d 41f5 6f3c
00000290: 6851 5abb 7bb3 7dbd febe ed3c 47b8 a2bc
000002a0: d41f ca3d feb1 38bd 0baf a63d a0ae 72bd
000002b0: c12c 963a 9c8b c5bb 00ad a93d 1003 fb3c
000002c0: c204 3f3c 8132 a3bc c6c3 8ebd 6bea 45bd
000002d0: d6ef 013d 08be 4dbd 7fd7 aa3c 0377 a13d
000002e0: c8f8 d9bb fc22 383d d6eb 2cbd 6ec4 3c3d
000002f0: a91a 2b3d 75c5 a83d d8dc 873d b723 6abc
00000300: 9f9d 123d d273 ebbc 23aa c1bd 8afa 74bb
00000310: e2b9 b03d e48f 87bb 568f 1ebd 0513 e8bb
00000320: 5e55 88bd 1f30 253d 359d 1cbd 13b1 bd3c
00000330: e338 6c3d 2058 aebb 5e1f 2e3d cf91 983d
00000340: eeb6 5d3d 2c1a 75bd f29c 36bd f6b1 5c3d
00000350: cd29 0bbd b583 a7bd 5aec dfbb 4258 62bd
00000360: 62ae 8fbb f031 0cbd aa46 eabc 64a8 2fbd
00000370: e417 a73d eb0d ae3d d991 7c3d c6de b63d
00000380: 6fff 3b3c b154 a63c e25a 72bd 8bdc 74bd
00000390: 1724 78bd 7d7c c4bc 5cc1 b7bc 540a b7bd
000003a0: d3e9 09bc 7028 ddbc 49c3 f83c 1ea2 6a3d
000003b0: b31b 16bd b134 33bc ab1f 5a3d 0ad7 c1bc
000003c0: 494c 7cbc 8c0e 0ebd 12eb c6bc 6a27 3ebc
000003d0: 826d 353d b9e6 853c d5aa a0bd b032 803c
000003e0: 9c87 14bc a281 d63a 1255 2c3d 1b13 1d3d
000003f0: 3082 7e3c 0c1c 78bc 1098 4ebd d84c 9abc
-0.061156075 0.039202813 -0.055477574 -0.03279504 0.030529112 0.051933773 -0.07232154 -0.06162243
-0.014116889 -0.046229042 0.020807425 -0.06988038 -0.007878637 0.013246343 0.052084338 -0.016045235
-0.027110789 -0.007060429 0.062325716 -0.036962822 0.011284076 0.04105033 0.01758676 0.028244736
0.089754894 -0.07638943 -0.017995501 -0.039016493 -0.0016927288 0.042438623 0.10294947 -0.028519029
-0.021957938 0.08172639 -0.06623978 -0.0098255705 0.045499224 -0.082393505 0.012574741 0.029737623
0.059333563 0.021815574 0.029600104 0.05055456 -0.06711904 -0.057233784 -0.015901053 -0.031014035
0.058270335 0.054340377 0.036048416 0.06594058 0.06874977 0.026060227 0.01853655 -0.036548987
0.051767197 -0.05420265 0.043243703 -0.011922815 0.014679451 0.07934634 0.07064789 0.051399954
-0.061687537 0.03804471 0.0875656 -0.08162016 -0.07483939 -0.06097383 0.049869448 -0.035874926
0.025938923 -0.062424194 0.08058941 0.055501968 0.018660882 0.073225625 0.017539622 -0.060536485
0.102136225 0.054615974 0.07264648 0.0388285 0.020931192 -0.00769461 -0.017341547 -0.061821822
-0.02512495 -0.045845125 0.043303818 -0.011399886 -0.07334817 0.041488644 0.00016684772 0.052000966
-0.086789794 -0.054611925 0.0886655 -0.06359894 -0.034429476 0.08905321 0.0021465465 -0.06336461
0.04266272 0.084997684 0.020830005 -0.04658144 0.030550951 -0.069328345 0.028353807 0.049082804
-6.4483276e-05 0.06564227 -0.028736698 0.05729571 -0.06931559 0.04071655 -0.038576152 0.045544147
0.057788543 0.04515387 0.013857693 -0.04275285 -0.038348265 0.09255863 -0.021197485 0.01964944
0.07414289 0.044823118 0.022828793 -0.07295772 0.065638185 0.020639872 -0.09616583 -0.07267506
-0.05724724 -0.049977288 -0.025662152 0.010564937 0.028472904 -0.008953172 0.0042538904 -0.015482234
-0.0012842902 -0.01156994 -0.0010812245 0.066024184 -0.0035249966 -0.022816466 0.022220604 0.012437232
-0.013870598 0.025967479 0.0002759389 -0.007192786 0.02696221 -0.025859863 0.08693069 -0.06333124
-0.07955977 0.06802891 0.038499378 0.014645875 -0.0033312682 -0.061938744 0.029021736 -0.01986326
0.09869352 -0.04509162 0.081388555 -0.059248567 0.001145743 -0.0060286056 0.0828495 0.030641109
0.011658849 -0.019921543 -0.069709346 -0.04831926 0.031722866 -0.050230056 0.02085471 0.07884028
-0.0066519715 0.04495524 -0.0422171 0.046085767 0.041773472 0.08240787 0.066339195 -0.014290742
0.03579485 -0.02874175 -0.09456279 -0.0037380778 0.08629204 -0.004137026 -0.038710915 -0.0070823454
-0.066569075 0.040329095 -0.03823586 0.023155725 0.05767144 -0.005320564 0.042510383 0.07449686
0.054129533 -0.059839413 -0.04458327 0.053880654 -0.03397541 -0.08179418 -0.006833595 -0.05525995
-0.0043848017 -0.03422731 -0.028598148 -0.0428852 0.08158854 0.084987484 0.06166253 0.089292094
0.011474474 0.020304056 -0.059168704 -0.05978064 -0.060581293 -0.023985142 -0.022431068 -0.08937517
-0.008417564 -0.026996821 0.030366557 0.057283513 -0.03664751 -0.010937856 0.053252857 -0.023662109
-0.015399047 -0.03468184 -0.024282012 -0.011606077 0.044293888 0.016345369 -0.078450836 0.01564917
-0.009065535 0.0016365538 0.042073317 0.0383483 0.015533969 -0.015143406 -0.050437987 -0.01883547

action_head.bias f4 [6]
00000000: 3080 04bd 81ba 3cbc 2ccd 5fba b258 b43c
00000010: 38d5 e63c 788f 293d
-0.03234881 -0.011519075 -0.0008537348 0.02201495 0.028177842 0.041396588

value_head.weight f4 [1, 128]
00000000: c1e2 653d bec2 1bbe 574b c33d 6cba bebd
00000010: 2028 d73d 8618 a93d c87b 02be 5324 70bd
00000020: 373d a43d 3281 9a3d 8c9d 50bd 4020 e9bd
00000030: d3a6 7abd f819 cdbd 5a17 c7bc 8162 b83d
00000040: 4f9b a5bd c70c 0bbe 553a f73c 5658 833d
00000050: af2c d5bc 42e8 a33d 96c2 84bd 09b9 25be
00000060: 9573 b63d 5837 e13c b472 a2bc dffa 1abe
00000070: fa01 733d 25e3 2b3d a9dc b6bd 2f89 48bd
00000080: 0cba 7ebd a390 293d b4e4 3b3d fb39 15be
00000090: 8eaf 86bd 835a ff3d e539 033c 7e34 94bd
000000a0: 848f 1d3e 4a59 eb3d 424b a7bb d82a fdbd
000000b0: 64b0 4f3c 258f 743c 4ae3 babd d924 a7bc
000000c0: 30ab 343b 756e 24bd 8e86 da3d 978d 9abd
000000d0: 8305 783d 1d85 6a3b b4fe 283d c791 613e
000000e0: 311f 383c 2b59 b8bc 6679 4dbd f41b 15be
000000f0: 6e6e 0a3e ae7f bf3d a967 83bd a977 dbbc
00000100: 400e 0f3e fbac 15bd 9c4d f53c a3a6 d3bd
00000110: 8dbd 63bd 72b7 8c3d d68c d6bd e776 003e
00000120: c72f 1dbd 7983 83be 2d59 713e 1166 5abe
00000130: 39ae 8fbd 04e1 4d3d f72e c6bd 41c9 823c
00000140: 4cc3 49bd 95bf 113d c92f 3fbe 852f aebd
00000150: 0994 05be f5f9 c9bd 73c1 54bd c307 6abd
00000160: d59e a6bc 1a0b 0d3d 89f2 993d 9c2f 143e
00000170: 6031 ac3d 8eb3 b53d 5d89 903d faef ab3d
00000180: f642 403e e9c0 5dbc 945f f5bd 7045 083d
00000190: de3e 8b3d 0a08 adbc 865f 613d 7df1 22be
000001a0: 0d6b b23d a621 783d 9358 16be dee1 883c
000001b0: dc14 05be 3594 313e e948 c2ba f983 41bd
000001c0: 05ae bc3d dbc2 073e 9016 b53c 43e5 033e
000001d0: 351c 3a3d 5ef6 f1bd 8d95 04be 99d7 25bd
000001e0: 3627 0f3e 227b c3bd 378b c43d fdac 263e
000001f0: c5f9 2cbd 1fa6 533d 3566 84bd e1e1 5b3d
0.056124453 -0.15211007 0.09535854 -0.09312901 0.105057 0.082566306 -0.12742531 -0.05862839
0.08019488 0.07544173 -0.0509315 -0.11383104 -0.061194252 -0.10014719 -0.024303127 0.09003163
-0.080862634 -0.13579093 0.030179182 0.06413333 -0.026022283 0.08003284 -0.06482427 -0.16183867
0.08908764 0.02749221 -0.019830085 -0.15134762 0.059328057 0.04196467 -0.08928806 -0.048958953
-0.062189147 0.041397702 0.045872405 -0.14572899 -0.06576453 0.124684356 0.008009409 -0.072365746
0.15386778 0.1149164 -0.005105407 -0.123616874 0.012676332 0.014926706 -0.09125383 -0.020403313
0.0027567856 -0.040144403 0.106701955 -0.07546537 0.06055213 0.0035784908 0.04125853 0.22028266
0.011237905 -0.022503456 -0.050164603 -0.14561445 0.13518688 0.09350525 -0.06416256 -0.026790457
0.1397028 -0.03654192 0.029944234 -0.10334518 -0.05560069 0.06870927 -0.10476081 0.12545358
-0.038375642 -0.25686243 0.23569174 -0.21327998 -0.07015652 0.05026342 -0.096769266 0.015965106
-0.049258515 0.035583097 -0.18670572 -0.085051574 -0.13044752 -0.09862129 -0.0519423 -0.05713631
-0.020339409 0.034434415 0.07516963 0.14471287 0.08407855 0.08872138 0.0705745 0.08395381
0.18775544 -0.013534763 -0.11981121 0.033269346 0.067991 -0.021121997 0.05502274 -0.15912433
0.087118246 0.060578965 -0.14682226 0.016709264 -0.12996238 0.17341693 -0.0014822754 -0.047245
0.09212879 0.13257925 0.022105485 0.12880425 0.045437057 -0.11814569 -0.12947674 -0.040488813
0.13979802 -0.0954497 0.095968656 0.16276927 -0.042230386 0.051672097 -0.06464807 0.05368221
