Skynet/yongsun_agent_left.pth (torch, 154511 bytes, 11 tensors)

actor.net.0.weight f4 [128, 12]
000000 9f 31 8f 3e 2b 10 3d 3c ef 88 13 3e 98 04 e8 3c
       0.27967545 0.011539499 0.14407705 0.028322503
000010 03 f9 08 be be 8f bb 3d d0 b1 09 bf e7 75 bc 3d
       -0.1337624 0.09158276 -0.53786945 0.092021756
000020 28 c6 42 ba 51 61 25 be d7 f6 95 bd 4b 94 3c bd
       -0.000743004 -0.16150405 -0.073224716 -0.04603986
000030 e6 93 93 be d9 be 77 bd f2 5e 17 bd cf a0 12 bd
       -0.28823775 -0.06048474 -0.03695578 -0.03579789
000040 29 59 a6 3e 66 3a 4c bd af c4 ad 3e 51 c0 31 3d
       0.324899 -0.04986038 0.3393912 0.043396298
000050 02 25 09 be 2f 36 a0 bd 7b 1f e7 3c 51 e4 1c 3d
       -0.13393024 -0.07822835 0.028213253 0.038303677
000060 a3 5c f3 3e 49 7f c9 be 0c e7 17 3e c7 47 86 bc
       0.47531614 -0.39354923 0.14834231 -0.016391648
000070 86 71 d0 be fb 26 2d be 41 8b c5 be 19 5f d3 bd
       -0.40711612 -0.16909401 -0.38582805 -0.10320873
000080 e6 09 4c bb 01 7d 43 3d d8 9b bb 3c 88 7f cf bd
       -0.003113383 0.047726635 0.02290146 -0.101317465
000090 52 74 f1 be 20 17 03 3d 93 c2 a9 bc aa 67 06 bd
       -0.47159058 0.032004476 -0.020722663 -0.032813706
0000a0 c6 0e 06 3f 71 58 b7 bb 23 0b 30 3e 06 5f 27 bb
       0.5236629 -0.00559526 0.17191748 -0.0025538816
0000b0 bf 5a 2f bd 4e 41 0c be 06 56 79 3c c8 1b 85 bc
       -0.04281115 -0.13696787 0.0152182635 -0.016248599
0000c0 1a 54 89 3e ca 38 84 be 2b 40 2b 3e 23 db 0a 3d
       0.26821977 -0.25824577 0.16723697 0.03390039
0000d0 65 87 6e be d6 a1 99 3d b3 1f e2 be d3 d6 58 bd
       -0.23293836 0.07501571 -0.4416481 -0.052939247
0000e0 b3 83 77 bd fe 87 54 be 8e 0d 7d 3d 05 4a 6d bd
       -0.060428333 -0.20755002 0.061780505 -0.05793192
0000f0 27 93 cc 3e 79 69 81 3d a5 b7 f5 3d e6 08 95 3c
       0.39956018 0.063189454 0.11997918 0.01819272
000100 93 5a 75 be 2e a1 71 3d 2b e2 fa be 9b df 8b 3d
       -0.23960333 0.058991604 -0.49000677 0.06829759
000110 05 8a 15 3d 73 82 2d bd 3a b7 89 bd d5 60 8c bd
       0.03650858 -0.042360734 -0.06724401 -0.06854407
000120 69 f7 03 bf 6d 96 bd 3c 61 3b e0 bb 70 f5 79 bc
       -0.5154939 0.023143018 -0.006843016 -0.015256271
000130 f6 90 fe 3e 63 01 09 bd 63 40 db 3d 88 42 e7 3b
       0.4971997 -0.033448588 0.1070564 0.0070574917
000140 7e 58 80 bd c8 12 01 3e 65 14 82 3c ac d5 0f 3d
       -0.062668785 0.1260482 0.015878865 0.035115883
000150 53 09 b9 be 08 b0 d2 bd 4a a9 47 bd c9 2a b2 bd
       -0.36139926 -0.102874815 -0.04874543 -0.08699567
000160 38 10 fb 3e bf 01 a2 3d 05 01 3b 3e 7e bd 51 3d
       0.4903581 0.07910489 0.18262108 0.051206104
000170 13 11 c0 bd 97 97 86 3d 36 5a 38 3c 9f 7e 4d 3c
       -0.09378257 0.06571882 0.011251977 0.012542396
000180 ca 8d da 3e fe a8 98 be f2 4e ce 3d fd a8 c0 3d
       0.426863 -0.2981643 0.100736514 0.09407232
000190 81 02 af be 6e 7a 2d 3d b9 36 39 be db ae 0f bd
       -0.34181598 0.042353086 -0.18087281 -0.035078865
0001a0 70 34 1a be d3 9a 19 be b8 cb 02 3e c9 c7 13 3d
       -0.15059066 -0.15000467 0.12773025 0.0360792
0001b0 b7 e1 1c 3f af ef a3 3d 55 c6 13 3d 71 a0 53 3c
       0.61281914 0.080047004 0.036077816 0.01291667
0001c0 cd 59 12 bf 0f 56 95 be 3b 03 66 bd c8 0e b8 bd
       -0.57168275 -0.2916722 -0.056155425 -0.08987194
0001d0 45 4c 2b bd 4a 14 51 3d 7a 3e d7 3d 45 5c 10 bc
       -0.041820783 0.05104474 0.10509963 -0.008811061
0001e0 80 89 c3 be 8b ca 38 be 64 77 01 3c bb 25 52 3c
       -0.38190842 -0.18046014 0.007902 0.012826378
0001f0 20 0b 96 3e c6 62 1b be 0a 95 3c 3e fb 6f a8 3d
       0.29305363 -0.15174398 0.18416229 0.082244836
000200 c0 1c 04 be b7 cc 0e be 4c 82 98 3d 6a b0 ab bd
       -0.12901592 -0.1394528 0.07446727 -0.08383258
000210 95 e0 9e be 7e 7b a5 be 6e 58 10 3c fe 95 01 3e
       -0.31030717 -0.3232078 0.008810146 0.12654874
000220 a4 29 fa 3d 50 71 d9 bd 29 1c a9 3d 5b 7d 65 bd
       0.122149736 -0.10617316 0.08257324 -0.05602775
000230 4e 67 f9 bd 16 7f 9b be a2 92 75 3e fd 45 b7 bd
       -0.12177907 -0.30370396 0.23981717 -0.08948896
000240 7a 40 65 be 52 bf c5 3d 5c 02 2e be ce 5b f8 bd
       -0.22387877 0.09655632 -0.16993088 -0.12126885
000250 3f 7c e8 3d 59 ae 36 be 3d 41 91 3e 64 a2 34 3d
       0.11351823 -0.17839946 0.28370085 0.04410018
000260 d7 fd d0 bd e1 33 1c bd 05 d2 99 bc 62 64 96 bd
       -0.10204666 -0.038135413 -0.018776903 -0.07343365
000270 ab 2e 30 be d2 d0 a2 be 8e 52 98 3c c5 4b b6 bd
       -0.17205302 -0.31799942 0.018594053 -0.08901171
000280 c6 3b f3 bc 54 65 44 bd 91 fc 3c 3d 96 3c 2e bd
       -0.029691588 -0.047948197 0.046139304 -0.042538248
000290 a7 54 fa bd a8 d2 8f bd 6d a5 53 3e 99 ed 2d be
       -0.122231774 -0.07022601 0.20668574 -0.16985168
0002a0 ff 7e ce be 2e 20 30 3c 11 61 35 bd e4 6a 8d bd
       -0.40331265 0.01074986 -0.044282023 -0.069051534
0002b0 7c f6 f1 3e a9 24 2e bd 50 84 09 3e 10 9c 61 bc
       0.47258365 -0.04251543 0.1342938 -0.013770118
0002c0 60 c9 4c bd ea aa f4 3d f2 eb 10 3d 28 dc 91 ba
       -0.049996734 0.11946662 0.035381265 -0.0011128234
0002d0 36 60 e8 3e d0 f2 8f bc 05 10 8c bd c0 08 e6 3c
       0.45385903 -0.017571837 -0.06838993 0.028080344
0002e0 6b 47 cd be c8 99 dc be f7 f6 e0 3d 57 82 fe bd
       -0.4009355 -0.43086076 0.10984605 -0.12427204
0002f0 fa ad 10 be b1 e7 fa 3d 76 b5 cc bb ec 1a 01 3d
       -0.14128867 0.12251223 -0.0062472178 0.031519815
000300 a5 81 91 3e 0f ed 16 3e a9 5c 8a bd 3d 00 8d bc
       0.28419223 0.14738868 -0.06755955 -0.017212028
000310 15 0b d6 be 8d e7 c7 be a8 a3 32 3e 51 58 c9 bd
       -0.4180533 -0.39043847 0.17445242 -0.09831298
000320 c4 72 c4 3d 47 8a 02 be 89 ca 09 be aa fe a2 3b
       0.09592202 -0.12748061 -0.13456167 0.004974206
000330 e3 cb 07 be 70 d9 87 be 5c 4b 61 bd 87 ac f5 3b
       -0.1326137 -0.2653308 -0.05500351 0.0074973735
000340 ce 6a 05 be cc f6 4e be c5 ca 2a 3e 93 14 19 3d
       -0.13029024 -0.20211333 0.16678913 0.037373137
000350 c5 6c e1 bb 21 28 81 be 2c 4c b5 3d 92 7a d1 bd
       -0.0068794214 -0.25225928 0.08852419 -0.102284566
000360 9d 8f fb 3d 5d 1f 09 be cc 36 b1 3d 28 d5 d0 bd
       0.122832514 -0.1339087 0.0865303 -0.10196906
000370 e2 1f 92 be 07 a0 22 be 4a 2d ba be ed 27 8b 3d
       -0.2853995 -0.15881358 -0.36362678 0.067947246
000380 a7 33 ee bc fb 7b 35 be 87 f9 38 3d 69 1c 89 bc
       -0.029077364 -0.17723076 0.045159843 -0.01673718
000390 23 01 be be 8f 0a c5 bd c8 25 fc bd c5 49 c4 3d
       -0.37110242 -0.096211545 -0.12311894 0.09584383
0003a0 1a c7 93 3e b1 c0 5c be ef 87 1e 3d 8c c4 e5 3b
       0.2886284 -0.21557881 0.038703855 0.0070119556
0003b0 d5 a2 d3 bc ce a2 4a 3e 3b b1 44 3b 9f 06 de bb
       -0.02583448 0.19788668 0.0030012864 -0.0067756916
0003c0 32 e4 df be 0d d4 db 3c 95 ee e3 3d 30 1c 8d 3d
       -0.43728787 0.026834512 0.1112949 0.06890142
0003d0 fd 4d c1 3e b5 7c 7d 39 cb dc c8 3d 79 37 04 3d
       0.37754813 0.00024174417 0.09807738 0.032279465
0003e0 a3 25 8a bc 44 7a a7 bd d9 f5 84 bd 26 56 35 bc
       -0.01686365 -0.08177617 -0.06492204 -0.011067903
0003f0 48 d5 9b be 13 de 99 be 24 06 1c 3d 1c 1c d0 bc
       -0.30436158 -0.30052242 0.038091794 -0.025404029

actor.net.0.bias f4 [128]
000000 aa ef 95 bd 19 3c 0e be b6 16 3b be 27 b0 36 3d
       -0.07321103 -0.13890113 -0.18270382 0.044601586
000010 31 0a 95 be 3e 5c 09 bd 7e a1 b9 bb f9 4b 0e be
       -0.29109338 -0.033535235 -0.0056650033 -0.13896169
000020 1d c3 71 bd 27 93 a7 bc dc 31 3a be 68 e8 01 be
       -0.059023965 -0.02045591 -0.18183082 -0.12686312
000030 22 b7 03 be cd 59 d7 bd f1 da d8 3c b3 ed 52 bd
       -0.12862828 -0.10515175 0.026471587 -0.05149622
000040 5f 89 e3 bc c4 9a 23 be 11 62 3d be 85 96 86 bd
       -0.027775465 -0.15977007 -0.1849444 -0.06571678
000050 99 6e ba bd 35 4e 1e be 8c 65 0f be 49 3e 3c be
       -0.09103126 -0.15459521 -0.14003581 -0.18383135
000060 5b 19 a1 bd a7 fb 88 bd 2f 7b 24 be 03 5d 2c 3d
       -0.07866164 -0.06688624 -0.16062616 0.04208089
000070 a9 29 5f bd 10 8c 0a be fb 0e 3d be ae 16 50 3d
       -0.05448309 -0.13529992 -0.18462746 0.05080288
000080 83 b3 d5 bd c3 f8 62 be 2d 0f 7e be 68 6e ee bd
       -0.1043463 -0.22165208 -0.24810477 -0.11642152
000090 32 c4 a3 bd 6f e8 5b bd 08 29 a5 bc 6d 3e 14 bc
       -0.07996406 -0.053688463 -0.020161167 -0.009048087
0000a0 1b d7 61 be f2 af b7 bd 9a d6 26 bb 38 b5 ba bd
       -0.22054712 -0.08969106 -0.0025457502 -0.09116596
0000b0 ff 03 71 bd 56 66 69 be 9a 8a 90 bc 86 55 64 be
       -0.0588417 -0.22792944 -0.017644215 -0.2229825
0000c0 62 8a f0 bd 50 a0 05 be 9f a9 a7 bd b0 a7 6b bd
       -0.117451444 -0.13049436 -0.081866495 -0.057532966
0000d0 b7 61 1b be 45 6f 5e bc 97 c6 ba bd 6b a1 44 3d
       -0.15173994 -0.013576333 -0.09119909 0.048005503
0000e0 49 d3 33 be 24 02 78 bd f0 74 c9 bd 27 f9 f0 bc
       -0.17561068 -0.060548916 -0.09836757 -0.02941568
0000f0 33 af ed bc 98 e6 e3 bd 51 cb ca bd 63 b5 89 be
       -0.029014206 -0.11127967 -0.09902061 -0.268962
000100 66 73 02 be 18 b9 64 bd bd 31 92 bd 28 c1 36 be
       -0.12739334 -0.05584058 -0.07138393 -0.17847121
000110 79 23 e4 bd 69 4e 0c bd e4 bb 09 be e4 fb 1a be
       -0.11139578 -0.034254465 -0.13450581 -0.15135151
000120 ca 73 20 be a6 26 10 bd 52 64 4a be 2a 4b 5e be
       -0.1566917 -0.035193108 -0.19764832 -0.2170836
000130 f9 ff 09 bd b6 24 67 bd a9 80 5f bd 4b bd c3 bc
       -0.03369138 -0.056431495 -0.05456606 -0.023893973
000140 a4 df 1b bd 28 d2 11 be 93 66 26 be 68 7f ee bd
       -0.038055077 -0.14240324 -0.16250066 -0.116453946
000150 4c d4 c3 bd 40 9d f0 bd a1 9e 26 bd 75 af f0 bd
       -0.09561977 -0.11748743 -0.040678624 -0.11752216
000160 b5 ea ac bd e3 79 05 bd ae d5 de bd dd a8 dc bd
       -0.08443204 -0.032586943 -0.108806 -0.107743956
000170 4f 1e 02 be ed 9a e4 bd 5e c8 05 bd ce 9e 70 bd
       -0.12706874 -0.11162362 -0.03266179 -0.058745198
000180 11 7d cf bc ef cb 3e be ad e2 a8 bd 93 bd e0 bd
       -0.025328191 -0.18632482 -0.0824636 -0.109736584
000190 76 3d 82 3d c0 1c a6 be 68 61 08 be 76 63 dc bd
       0.06359379 -0.3244381 -0.13318408 -0.10761158
0001a0 1e 05 37 be 39 45 ae bd 3b a2 a2 bc 52 f2 46 be
       -0.17873046 -0.08509297 -0.019852748 -0.19428375
0001b0 8e d9 6a bd ed d2 1a be ae 51 55 3d 94 fe 82 3c
       -0.057336383 -0.15119524 0.05207985 0.015990533
0001c0 46 cc 79 be 26 a2 33 bd 82 bb 36 be 56 78 2d be
       -0.2439433 -0.04385581 -0.17844966 -0.16940436
0001d0 3a 17 3d be 9b 54 1a be 51 9d 96 bc d3 8d d4 bd
       -0.18465891 -0.15071337 -0.018385561 -0.10378613
0001e0 fa d4 36 be ae d4 28 bd a5 46 fc 3c 68 ce 44 bc
       -0.17854682 -0.041218452 0.030795405 -0.012012102
0001f0 3c c7 1f bd 8d a2 61 be 9b f5 4e bd dc 16 36 3d
       -0.039008364 -0.22034664 -0.050527196 0.044455394

actor.net.3.weight f4 [128, 128]
000000 1f e6 16 bf fe 06 b3 3c aa d5 8a bd 77 2c 0b be
       -0.58944887 0.02185392 -0.067790344 -0.1359118
000010 8b c7 46 be 60 5c 21 bf 59 b6 06 3e 2c 1c b1 3d
       -0.19412057 -0.6303158 0.13155498 0.086479515
000020 08 bc 0f be 4b 5c 5d bf 83 eb a4 bd f6 92 16 3e
       -0.14036572 -0.8646895 -0.08052733 0.14704499
000030 04 b3 98 bd 7a c2 95 bc 69 41 b6 3d 3b ba bc be
       -0.074560195 -0.01828121 0.08899195 -0.36860833
000040 4a 0c d9 be 4a ce cf 3c c4 21 de bc 95 30 e1 3b
       -0.42392188 0.025366921 -0.02711571 0.0068722465
000050 6a 73 de 3d c0 a3 99 3d af 05 16 be bb 81 05 3e
       0.10861857 0.07501936 -0.14650606 0.1303777
000060 cc b1 8b bd ef 09 a9 bc 96 c6 95 3c ad 03 40 3f
       -0.068210214 -0.02063462 0.01828317 0.7500561
000070 cb 80 34 bd 8f 1e 2b bd e9 98 95 3d 80 81 51 3e
       -0.04406814 -0.04177719 0.07304556 0.20459557
000080 c2 38 8d 3d c2 51 86 bd 3e 18 77 3e 7f e4 78 3e
       0.06895591 -0.06558563 0.24130341 0.24305914
000090 83 8a b1 3c 0b 0e 4b 3d 8d 5d a9 3d 2f 58 29 3d
       0.021672493 0.04957394 0.082697965 0.041343864
0000a0 03 b8 1a 3e 79 a3 c0 bd 5e 6b 22 bf c1 e6 93 bc
       0.15109257 -0.0940618 -0.6344508 -0.018054368
0000b0 c3 dc 4d 3e e9 4b 7d bc 9f 5f a1 be 5d 16 2e 3e
       0.20103745 -0.015459993 -0.31518266 0.17000718
0000c0 92 27 5a 3e 8a 7d a5 bd 9c ab 98 bd 29 ab 9e 3d
       0.21304157 -0.08080585 -0.07454607 0.0774749
0000d0 15 98 d4 bc 9c 8f 41 bf fe aa 81 3e b8 20 53 3e
       -0.025951425 -0.75609756 0.2532577 0.2061795
0000e0 9f b3 be be da 76 55 bd b0 79 b5 be da 5d 24 be
       -0.37246415 -0.0521153 -0.35444403 -0.16051427
0000f0 46 a6 89 be 5f 88 81 be fc 5e c7 3d a8 2b 5c be
       -0.2688467 -0.25299355 0.09734914 -0.21501029
000100 10 48 36 bd ed 5e 9b be 40 23 23 be be af 53 3d
       -0.044502318 -0.3034586 -0.15931416 0.051681273
000110 dc 21 82 bd 8e f8 ab be 58 46 15 bd d6 39 8b bd
       -0.063541144 -0.3358807 -0.03644404 -0.06798141
000120 a9 67 9b 3d ce 7a ef 3c 7a f7 27 be 3f 70 0e be
       0.07588131 0.029233363 -0.16402999 -0.13910006
000130 92 11 5c 3c 44 4a ca be a9 df 71 be ee 69 3d bf
       0.013431923 -0.39509785 -0.23620476 -0.7398976
000140 f0 05 96 3c 79 26 ad 3e f4 e0 29 bd eb c7 d0 be
       0.018313378 0.33818415 -0.041474298 -0.40777525
000150 24 50 55 be a3 ec 0b be be eb c5 be d7 7e cb bd
       -0.20831352 -0.13664488 -0.3865642 -0.09936302
000160 63 81 92 3d 12 ac 9d be f7 52 dd 3c 96 8a bf 3e
       0.07153585 -0.30795342 0.0270171 0.3741042
000170 68 ec 50 bd 3d a3 dc bd 90 2d ab be 20 b4 5d be
       -0.051006705 -0.10773323 -0.334332 -0.21650743
000180 18 07 89 be 9b 62 dd bd 19 a7 f0 3d cd b9 80 be
       -0.26763225 -0.10809823 0.11750621 -0.25141755
000190 95 af 62 be ae 67 72 be c5 38 e8 3d 1d 38 a5 3c
       -0.22137292 -0.23672363 0.11338953 0.020168358
0001a0 39 41 65 3d b5 a7 05 be 25 e7 f8 3d b2 b0 4a 3e
       0.055970404 -0.13052256 0.12153462 0.19793966
0001b0 53 11 b4 be 6d 82 01 3e 45 49 44 3e 83 4f 26 3f
       -0.35169467 0.1264741 0.19168575 0.64965075
0001c0 64 c1 c0 3c ec bc d2 be 32 fc e0 3c 9a 9c ab 3d
       0.023529716 -0.4115976 0.027464006 0.08379479
0001d0 64 80 1e be da 07 04 3d 9e de 84 3c b0 bd e0 bd
       -0.15478665 0.03223405 0.016219433 -0.1097368
0001e0 a1 0f 24 3d 02 77 b8 bd 8a 60 b1 3e 27 7c b2 3e
       0.040053967 -0.09007074 0.34643966 0.34860346
0001f0 3a e7 80 bd 0f 38 7f 3d 13 56 7c be a7 e3 b9 be
       -0.06294103 0.06230932 -0.2464221 -0.36306497
000200 f2 d9 35 be 95 1a 2a be 84 08 87 be af 77 a7 3d
       -0.17758921 -0.16611703 -0.26373684 0.08177125
000210 72 3c cc bd b8 02 a2 be 31 dd ce 3c c3 78 7d 3e
       -0.099724665 -0.316427 0.025251957 0.24753098
000220 d6 95 87 bd 1b 95 45 be bb 3d cb bd e6 14 6c 3d
       -0.06620376 -0.1929516 -0.099238835 0.057637118
000230 8e 2e 71 3e 21 cd c9 bd 45 06 b5 bd 9e c5 9d 3c
       0.23552915 -0.09853578 -0.088390864 0.01925927
000240 99 d6 13 3d da c6 6e 3d dc 5a 59 3d bd 41 94 3e
       0.03609333 0.05829511 0.053065166 0.28956404
000250 d4 93 62 3e 12 ba 0c 3e d7 1e 81 3d 74 9c b9 bd
       0.22126704 0.13742855 0.0630471 -0.09063044
000260 32 6b ce 3d 21 6f 9c 3c aa 9e c1 3d bb e4 d5 3d
       0.1007904 0.01909596 0.09454091 0.104440175
000270 e1 a3 8d 3d da 5c 51 3e 19 a5 61 3d e9 9e b2 bd
       0.06916023 0.20445576 0.05508909 -0.08721716
000280 74 01 40 3e bf 2e 28 3e 82 f2 27 bd 72 cc 99 3d
       0.18750554 0.16424082 -0.041002758 0.07509698
000290 9c 21 0a be 40 4b 6c bc ae 5a 20 3d d5 d8 0a be
       -0.13489383 -0.014422238 0.03914898 -0.13559277
0002a0 b8 80 b3 bd 37 c1 80 be 77 b4 86 be c3 c0 22 3e
       -0.087647855 -0.2514741 -0.2630956 0.15893845
0002b0 60 49 4c 3d 90 82 e1 3c ff 3f 8d be 3a b0 ed 3c
       0.049874663 0.027528077 -0.27587888 0.029014695
0002c0 45 28 1b 3e 87 3e e1 bc fd 37 ab 3d 29 da ac 3d
       0.1515208 -0.027495636 0.08360288 0.08440048
0002d0 0f 17 b9 bd f9 c1 65 bd 33 2f ad 3d 8e dd cf 3d
       -0.09037601 -0.05609319 0.08456268 0.1014968
0002e0 cb fe 23 bf ef ea aa be 6a 3c a5 be 21 42 4d 3d
       -0.6406066 -0.33382365 -0.32272655 0.050111894
0002f0 b3 58 4e bc f9 c4 de be df 16 64 3e ae 1f ad bd
       -0.01259439 -0.43509653 0.2227435 -0.08453308
000300 84 0e 2a 3d 3f 68 da 3d 96 7e 87 be b1 26 d5 bd
       0.04151775 0.106644146 -0.26463765 -0.104077704
000310 12 b0 02 be 21 55 14 be f3 04 9f be d6 3b d4 3d
       -0.12762478 -0.14485599 -0.31058463 0.10362975
000320 4f c8 ce 3c da b2 ad 3d 6d 6c 44 be 71 89 e6 be
       0.025241999 0.08481379 -0.19181986 -0.45026734
000330 ed a6 6c bd 36 77 c8 be 93 cb c4 3d d9 51 56 3d
       -0.05777638 -0.3915345 0.09609141 0.05232415
000340 dc 40 35 bc 5c 7c d9 bc d8 e0 26 3d 95 51 8c bb
       -0.011062827 -0.026548557 0.04074177 -0.0042821863
000350 84 07 df 3d cc 66 ba be 10 99 96 bd 6f 0e 8b be
       0.10890105 -0.36406553 -0.07353413 -0.2715945
000360 e3 95 29 bb 7c 15 a7 bd 76 84 28 3e 48 d0 a6 bd
       -0.0025876693 -0.08158395 0.1645678 -0.08145195
000370 0b d2 d2 3d 5e 84 97 bd 63 6b 16 be 9c 18 2c be
       0.10293969 -0.07398294 -0.14689402 -0.16806263
000380 14 8c 37 be 15 09 85 3d ba 00 92 3e 61 50 9e be
       -0.1792453 0.06495873 0.2851618 -0.309207
000390 90 aa 50 bd e3 50 81 be ea 23 d1 bd 12 6d fb 3d
       -0.05094391 -0.25257024 -0.10211928 0.12276663
0003a0 ac 2e fe 3d 09 e4 64 3e f9 5f 50 be 98 a8 70 3e
       0.12411246 0.22352614 -0.2034911 0.23501813
0003b0 2b fa a0 be 3f 2b ee 3c 06 6c c8 be f5 82 24 3d
       -0.31440863 0.029073356 -0.39144915 0.040163953
0003c0 6f 72 13 bc 7b a2 90 be 0e d9 8b be b2 8d 22 bc
       -0.008999451 -0.28248963 -0.27314037 -0.009921478
0003d0 0b 02 de 3b d0 aa 9c 3d e0 16 e4 bd 83 4a b5 bc
       0.006775146 0.076497674 -0.111371756 -0.022130257
0003e0 b0 2c a8 3d db 7d 18 3e 8f 2b 3f be ba ec b3 bd
       0.082116485 0.1489176 -0.1866896 -0.087853864
0003f0 a6 02 11 be f5 54 1a be 69 11 45 3d 41 f4 c1 3d
       -0.14161167 -0.15071471 0.048112307 0.09470416

actor.net.3.bias f4 [128]
000000 48 60 92 bd d5 5c 83 be 05 84 d9 bd a8 83 2a be
       -0.071472704 -0.25656763 -0.10620884 -0.16651785
000010 3c 9d 48 be e5 60 0c be c0 1a e0 bd c9 12 10 bf
       -0.1959123 -0.13708837 -0.10942602 -0.56278664
000020 2f 19 8f 3e 67 06 a3 be 21 84 ab bd ae 0a 08 3e
       0.279489 -0.31840822 -0.08374811 0.13285324
000030 8f 52 71 bd 42 0a a6 bd 4b 55 d3 3d fb 94 49 3e
       -0.058916625 -0.08107425 0.10319003 0.19685738
000040 e3 bd 71 3b 6f ed 53 3e 09 13 81 be 5a 3c 2f bb
       0.0036886863 0.20696042 -0.25209835 -0.0026738853
000050 ea 51 d7 bd c8 05 5f be 8e 4a 07 be 37 7e 51 be
       -0.10513671 -0.21779549 -0.13212034 -0.20458303
000060 0a 39 f8 be 6a 38 2f bd a0 95 bc 3e 28 14 01 be
       -0.48481017 -0.04277841 0.36832905 -0.12605345
000070 0a cf 38 be 7a 56 33 be 64 b6 e7 3d 65 49 4c 3e
       -0.18047729 -0.17513457 0.11314085 0.19949873
000080 03 28 96 3d 25 5f 39 bd 25 8d 39 bd a9 57 2b 3e
       0.073318504 -0.045256753 -0.04530062 0.16732658
000090 6b d3 b3 be ef 29 92 bd 2a ef 86 be cd 3f 18 be
       -0.35122237 -0.071369044 -0.26354343 -0.14868088
0000a0 d5 5a 87 3d 55 b2 15 be c1 7e 82 3e 73 ef 1e 3e
       0.06609122 -0.1461881 0.2548733 0.1552103
0000b0 86 83 0d be 41 5e 8d 3e ad d7 37 be c0 66 43 be
       -0.13819703 0.27610973 -0.17953368 -0.19082165
0000c0 6a a4 62 3e 28 b4 90 3c 10 db 62 be 3c 97 e4 be
       0.22133031 0.01766403 -0.22153878 -0.44646633
0000d0 19 5f 13 3e 04 01 7a 3d 11 80 0f bc e3 82 b0 3e
       0.14391746 0.061036125 -0.008758561 0.3447486
0000e0 2a b9 f4 bd af 93 51 be 80 f9 1e 3e 27 84 2e be
       -0.1194938 -0.20466493 0.15524864 -0.170426
0000f0 11 4b 8c bd e7 69 e4 bd 33 95 7a 3d de 24 06 be
       -0.06850255 -0.11153012 0.061177444 -0.13100001
000100 27 09 15 be 3b 49 f1 bd 22 b4 12 bf 34 69 43 bd
       -0.14554273 -0.11781546 -0.5730611 -0.04770775
000110 a3 e9 3e be a8 59 74 3e 79 d9 a8 3c fd 1d e5 bc
       -0.18643813 0.23862326 0.020611512 -0.027968401
000120 38 95 64 be 41 43 a1 3e 71 11 c9 bd 04 04 3d bd
       -0.22322547 0.31496623 -0.0981778 -0.046146408
000130 ca 76 6e 3e 88 6d 8b 3e 8b d7 d3 bd 3f 4f 57 be
       0.23287502 0.27232003 -0.10343846 -0.21026324
000140 4c b2 8b 3e cf c8 40 be 9f 03 23 bd d2 26 a2 bd
       0.27284467 -0.18826602 -0.039798375 -0.07917561
000150 d2 f3 5c 3e d8 48 d2 be 59 72 9c be 99 f2 ad 3e
       0.21577385 -0.410712 -0.3055599 0.3397415
000160 c1 e7 60 be e7 92 f8 bc 81 e5 a8 3e 70 f3 0b be
       -0.21963407 -0.030343486 0.32987598 -0.13667083
000170 e0 7f c4 be 16 ef 13 be 7f a8 86 3e 22 1f eb bd
       -0.3837881 -0.14446673 0.26300427 -0.114805475
000180 7b e7 c6 3e ac dc 67 bd 4d f9 82 bd e7 fa ed be
       0.3884848 -0.056606933 -0.063952066 -0.46480486
000190 a6 47 2b be 9c 5d 84 3d 71 1e d9 bb d5 62 de 3d
       -0.1672655 0.06463167 -0.0066259434 0.108586945
0001a0 80 9e 8f 3d c1 d2 b0 bd 6d 07 ca 3e 07 8b 6f 3d
       0.07012653 -0.08633948 0.3945879 0.058482196
0001b0 4e 56 4b bd a9 f8 b5 3e 2c e3 0c 3e c9 62 ed bc
       -0.049642853 0.35541275 0.13758534 -0.028977768
0001c0 2c 52 c8 bd 5b b9 23 be 02 f9 27 3e 58 af 04 bf
       -0.09781298 -0.15988676 0.16403583 -0.51830053
0001d0 f3 68 59 be 36 44 57 3e 7f 69 23 3e 2d 8b f7 bd
       -0.21231441 0.21022114 0.15958212 -0.120870925
0001e0 1c ae 7b be 3d 9e 50 be c6 79 6c be 89 5d 78 3e
       -0.24578136 -0.20372863 -0.23093328 0.24254431
0001f0 44 fc 20 bd 25 ac e8 bd 2d 42 fd bd 78 b9 3d be
       -0.03930308 -0.11360959 -0.12366138 -0.18527782

actor.net.6.weight f4 [6, 128]
000000 71 10 67 be f7 6d 0a be 52 a1 a0 bc dd 97 5e be
       -0.22564866 -0.13518511 -0.019608174 -0.21737619
000010 4f f3 64 be 09 65 81 be c0 70 35 be 77 22 24 be
       -0.2235844 -0.25272396 -0.17718792 -0.16028772
000020 b5 38 8d 3e 95 b5 15 be 29 0b 19 be 33 09 30 3e
       0.27582327 -0.1462005 -0.14945664 0.17191009
000030 be 0b 96 be 0a e5 45 be 01 96 2e 3e e1 58 f1 3d
       -0.29305834 -0.19325653 0.1704941 0.117845304
000040 ed a2 88 be ca 3e 66 3e 5b 86 e5 bd e1 04 a0 bd
       -0.26686803 0.2248489 -0.11207267 -0.078134306
000050 cd 7f 71 be 3b 91 cc be 1e db 97 be d3 40 46 be
       -0.23583908 -0.39954552 -0.2965936 -0.19360666
000060 0f e8 05 be 20 83 1a be 21 46 44 3e 6e ff 79 be
       -0.13076805 -0.15089083 0.19167377 -0.24413845
000070 6e cd 4a be b2 0f 39 be 4e e4 6d 3e 17 7f 71 3e
       -0.19804928 -0.18072394 0.23231623 0.23583637
000080 36 9f e5 3d 08 7e b4 bb b3 eb 85 bd df 51 be 3e
       0.11212008 -0.005508188 -0.06539097 0.37171838
000090 6b e1 47 be cd 89 34 be bc 74 1a be fe b0 73 be
       -0.19519584 -0.17630692 -0.15083593 -0.23797986
0000a0 7b ff 81 3e c5 29 33 be 1d 04 38 3e d9 85 8d 3e
       0.2539023 -0.17496403 0.17970319 0.2764118
0000b0 9a e2 85 be 75 34 0f 3e c6 6f 9c be 48 38 5f be
       -0.26149446 0.13984855 -0.30554026 -0.21798813
0000c0 3d 83 1b 3e 4c 5c 8e bb ab c1 06 be e3 e9 ea bd
       0.15186782 -0.0043444987 -0.13159816 -0.114703916
0000d0 86 52 34 3e cb 7d 47 3e f5 26 6d be 07 68 f5 3d
       0.17609605 0.1948158 -0.23159392 0.11982732
0000e0 39 a9 77 be 2b 6f 08 be 70 2a 83 3e 83 02 42 be
       -0.24185647 -0.13323657 0.25618315 -0.1894627
0000f0 f6 dd d6 bd 5b 60 29 be 8f 4d 71 3e 66 0f 60 be
       -0.104915544 -0.16540663 0.23564743 -0.21880874
000100 a2 92 6c be 15 e5 74 be f0 89 1f be 94 62 92 be
       -0.23102811 -0.23915513 -0.15579963 -0.28590834
000110 96 72 a4 be 09 e6 3e 3e f5 a3 90 3d b1 c4 4f be
       -0.32118672 0.18642439 0.07062522 -0.20289876
000120 39 b2 a4 be 0e 4e c6 3d 4d 94 dd bd 5c c7 d4 bc
       -0.32167223 0.096828565 -0.10819302 -0.025973968
000130 60 f1 60 3e ff 41 32 3e 1d 80 1e be 84 6b 65 be
       0.21967077 0.17407988 -0.15478559 -0.22404295
000140 f1 1c 7a 3d 9e 0f fc bd 7c 2c 98 bd dc c3 7d be
       0.061062757 -0.12307666 -0.0743036 -0.24781746
000150 ef c7 53 3e a9 ba 22 be 34 9e 43 be 47 82 55 3e
       0.20681737 -0.15891518 -0.19103318 0.20850478
000160 c3 28 74 be 66 97 a5 be a4 ce f1 3d 2a 91 28 be
       -0.23843674 -0.3234207 0.11806992 -0.16461626
000170 4b 9d 20 be 75 62 55 be af 4c 17 3e d7 77 d7 be
       -0.15685003 -0.2083834 0.14775346 -0.42083618
000180 8d b8 74 3e fc 49 fb bd 07 d8 17 be 75 3f f0 bd
       0.23898526 -0.12269971 -0.14828502 -0.117308535
000190 8a 80 1a be 83 aa 20 3d 4c 6a 48 3e 47 fb 7f 3e
       -0.15088096 0.039225113 0.19571799 0.24998198
0001a0 1b 5c a5 3d 34 4d 86 be bc b7 88 3e e8 f0 8d bb
       0.08074208 -0.26230776 0.26702678 -0.004331697
0001b0 a1 cc 79 be 5d fc 28 3e 71 26 bd 3e eb d4 49 3d
       -0.24394466 0.16502519 0.3694339 0.04927532
0001c0 b0 f3 60 be 42 6a e6 bd 41 71 53 3e ed e4 13 be
       -0.2196796 -0.11250736 0.20648672 -0.14442797
0001d0 2f a5 a2 be 73 66 51 3e 95 5f 80 3e 4d 42 9a be
       -0.3176665 0.20449238 0.25072923 -0.30128708
0001e0 0b 77 03 be 7b 2d c0 be 55 22 4f bd 92 b5 35 3e
       -0.1283838 -0.375347 -0.05056985 0.17745045
0001f0 f8 28 3c be 0b a9 4f bd a6 db fa bd 72 74 8c be
       -0.18375003 -0.05069832 -0.12248926 -0.2743259
000200 01 be 5f be 9e b1 d7 bd a8 87 49 3e bc fd 3f 3e
       -0.21849824 -0.10531925 0.19680655 0.18749136
000210 81 4b 6f be 43 ba b1 be 51 b5 01 3e 1c f7 16 be
       -0.23368646 -0.3471242 0.12666823 -0.14742702
000220 c6 93 3c 3e 59 fc ac bd 27 ca 2d be c4 80 2f 3e
       0.18415746 -0.08446569 -0.16971646 0.17138964
000230 49 03 00 3f ca 1f 48 be 67 dd 47 3e cb 89 e5 3d
       0.5000501 -0.19543377 0.19518052 0.112079225
000240 9a a4 07 3f 84 7e 5e be 29 24 df bd 89 01 a0 bd
       0.5298554 -0.2172795 -0.10895569 -0.07812793
000250 fe 0d de 3e d7 8a d1 be 32 9d 94 be d7 bc 6a be
       0.4337005 -0.4092624 -0.2902618 -0.22923599
000260 f7 57 fd bd 78 3f bb 3e fe bf 2f 3e 40 2d 90 3e
       -0.123702936 0.3657186 0.17163083 0.28159523
000270 ce 5c 87 3e 56 f1 9d 3e 29 7f 72 3e e6 28 67 3e
       0.26437992 0.30848187 0.2368132 0.22574195
000280 77 88 39 3e 0a 64 66 3c 5b 13 04 3d 29 32 84 bd
       0.18118463 0.014061937 0.03224502 -0.0645488
000290 4f 70 35 be 7c 5b 34 be c7 b6 1c be 28 84 b2 3e
       -0.17718624 -0.17613024 -0.15304099 0.34866452
0002a0 c7 7a a6 3e 77 90 c5 3e d9 47 b4 bd dd 48 c5 be
       0.32515547 0.3858678 -0.08802766 -0.38532153
0002b0 28 06 88 be a4 4b 31 3d fa da a7 be fc 8a 6a be
       -0.26567197 0.043285027 -0.32784253 -0.22904581
0002c0 13 3e 56 be f0 a6 0d 3d de 74 34 bd 60 7a ff bd
       -0.20922117 0.034583032 -0.044056766 -0.12474513
0002d0 8d ea 2c 3e 64 fe 97 3e c3 ff ac be 29 01 ba 3d
       0.16886349 0.29686272 -0.3378888 0.090822525
0002e0 e2 60 97 be ca 37 2a bc b8 27 1e be 8c 78 a4 3e
       -0.29566103 -0.010389278 -0.15444839 0.3212322
0002f0 67 3f f6 b9 8a ac 53 3e 19 82 0b bf 2a ba e6 3e
       -0.00046968015 0.20671287 -0.5449539 0.45063907
000300 de 07 f7 3e 40 f3 74 be 7c 60 1f be be d9 0a 3f
       0.4824819 -0.23920918 -0.1556415 0.542385
000310 d7 b4 af be 5b 4c 34 3e 15 1d 81 3e ad af cb 3e
       -0.34317657 0.17607252 0.252175 0.39782467
000320 89 c9 a3 be 31 d0 8d 3d 54 09 b6 3e 02 df 3b be
       -0.31989697 0.06924475 0.35553992 -0.1834679
000330 5a 93 4b 3e b6 a8 7a 3d a3 31 cd 3e b3 0c 34 3e
       0.19880429 0.06119605 0.40076932 0.1758297
000340 4e f2 b5 3c 8f be f4 bc a6 7f 9f 3e c1 26 b5 3e
       0.022210266 -0.029876022 0.31152076 0.3538113
000350 67 e4 3f 3e 9c fc 25 be 6e 2e 2a be 9e 98 36 3e
       0.18739472 -0.16209644 -0.16619274 0.17831656
000360 93 93 7f be 08 0b 01 3f a6 70 89 3d 1e b8 39 be
       -0.24958639 0.5040746 0.06710939 -0.18136641
000370 02 2a 02 be e6 bc 5f be 32 86 8e 3d 3b 72 ca 3e
       -0.12711337 -0.21849403 0.069591895 0.39540276
000380 a6 92 64 3e b7 ed 82 3d 17 f2 24 be 42 33 2c bb
       0.22321567 0.06392997 -0.16107975 -0.002627567
000390 c9 91 c7 3e b5 ac 5e 3d 6f fc 76 3e c3 68 a7 be
       0.38978413 0.054363925 0.24119733 -0.32697114
0003a0 66 64 8f 3d da 21 0f 3f 86 63 7d 3e 0f b5 56 3b
       0.07001571 0.5591103 0.24744996 0.0032761728
0003b0 4d a0 06 3f c5 4e 10 3e 7c b6 97 bd 9e dd 37 3e
       0.5258835 0.14092548 -0.07407853 0.17955634
0003c0 f2 6f e6 3e 86 7b cc 3d 07 1d ea bd 11 91 12 be
       0.45007282 0.09984498 -0.11431318 -0.14313151
0003d0 d1 d9 9f be 3e 56 3a 3e 47 f9 97 3e da ae 87 3e
       -0.31220868 0.18196961 0.2968237 0.2650059
0003e0 f1 d4 9e bd de e9 bf be 8d 30 96 be 33 27 7b bc
       -0.07755459 -0.37483114 -0.29333916 -0.01532917
0003f0 11 1a 0d 3f d8 ba 9e 3d d6 f5 42 3e b1 5a 99 be
       0.551179 0.07750481 0.19039091 -0.29952005

actor.net.6.bias f4 [6]
000000 a2 0b 83 3e e9 fc 42 3e 76 90 f9 bd 92 38 19 bf
       0.25594813 0.1904179 -0.12185757 -0.59851944
000010 77 66 a0 3d 96 41 3e bf
       0.078320436 -0.74318826

critic.net.0.weight f4 [128, 12]
000000 2b be 1e be 7c 09 c6 bd f2 7a 02 be 7e 1b 8b bd
       -0.15502231 -0.09669778 -0.12742212 -0.06792353
000010 1d fc d4 3e 13 9c f5 3d e1 57 65 3e 42 0a b6 bd
       0.41598597 0.119926594 0.22396804 -0.08888675
000020 04 d8 7c bc 8f 6c ea bd d9 69 cf bc ec a8 05 bd
       -0.0154323615 -0.11446487 -0.025319027 -0.0326318
000030 4b 6f 40 be 46 23 68 bf df 48 71 bd 31 40 5b be
       -0.18792455 -0.90678823 -0.058907386 -0.21411206
000040 c8 4c db 3e 38 dc 1c be c7 e2 79 bc 46 3f 97 be
       0.42832017 -0.15318382 -0.015251822 -0.2954046
000050 85 a6 90 3d db 66 8e be ab a3 67 bd 15 8e 77 bd
       0.07063011 -0.27812847 -0.05655257 -0.060438234
000060 0c 14 91 be 4e 27 fc bd a5 4d 40 bb 7b da 1c be
       -0.28335607 -0.12312184 -0.0029343155 -0.15317719
000070 ac 22 11 3e 1c c2 7d be a3 c5 a9 3e bf cd 93 3d
       0.14173383 -0.24781078 0.33158597 0.07216977
000080 d3 df a8 bd 75 30 04 be 0d cc 85 3e 71 a3 89 bd
       -0.08245816 -0.1290911 0.2613224 -0.06720627
000090 9b 1a 0b be 1d f9 83 bd b7 01 37 3d 99 e3 af be
       -0.13584368 -0.06443999 0.04467937 -0.3435333
0000a0 2e 20 00 bf 4a 2f 1f be 2b 0a 16 3e 3d b0 16 bd
       -0.500491 -0.15545383 0.14652316 -0.036789168
0000b0 0a fb 18 bd f7 40 be 3d 60 c8 9a bc bb e2 aa 3d
       -0.037348785 0.09289735 -0.018894374 0.08344027
0000c0 7c eb c9 be 8e e1 4b 3d 0d 6d f1 3d 81 2c 92 3d
       -0.39437473 0.049775653 0.11788378 0.07137395
0000d0 3b 49 ee 3e bb 50 17 bf 8a 98 76 be 15 74 34 be
       0.46540245 -0.5910756 -0.24081627 -0.17622407
0000e0 96 d0 a4 bc af 8d 62 be b7 31 37 3d 6f 8c ef ba
       -0.020118993 -0.2212436 0.044725146 -0.0018276105
0000f0 f7 ea d3 3c c1 8b 72 3e f5 3d 8f 3d 22 37 85 bc
       0.025868876 0.23686124 0.06994239 -0.016261641
000100 4c f3 3c bf 9e c8 d1 3e df 0f 4f be e7 80 f6 3d
       -0.7380874 0.4097337 -0.20220898 0.12036305
000110 7c 0b 4f be 7c ae 90 be f6 5f 4c bd a3 8b b3 bc
       -0.20219225 -0.2825812 -0.049896203 -0.02191717
000120 c1 7f cf be 21 61 ce 3c 56 e5 00 bd 10 d3 9d bc
       -0.40527156 0.025192799 -0.03146871 -0.019265682
000130 22 e7 a9 3e be dd 9d be a5 37 a3 3e 40 e0 7a bc
       0.33184153 -0.30833238 0.3187839 -0.015312254
000140 d5 f7 58 bd 64 39 72 be 7e 01 fa 3d 76 46 45 3b
       -0.052970726 -0.23654705 0.12207316 0.0030101812
000150 58 a7 25 3e bc d2 b0 3c aa 72 d5 3c 55 8c a7 be
       0.16177118 0.021584861 0.026055653 -0.32724252
000160 2d 80 5c 3e b0 f7 16 be 64 63 9d 3b e8 bc 08 3f
       0.2153327 -0.14742923 0.004803108 0.5341325
000170 a0 7a d6 bd eb b9 b1 be 75 4e 0c be b6 d8 c7 bb
       -0.104726076 -0.34712157 -0.13701804 -0.006098832
000180 f5 1b 41 bd 67 30 d5 bd 83 30 65 3e f9 18 ce be
       -0.047145803 -0.10409623 0.22381787 -0.40253428
000190 de 48 81 be 20 fe 16 be 60 fe f0 bd fa 31 50 bd
       -0.25250906 -0.14745378 -0.11767268 -0.05082891
0001a0 3d 73 63 bd ec 0f 39 bd 3c e0 19 3e cd 74 4d 3e
       -0.05552982 -0.0451812 0.15026945 0.20064087
0001b0 66 2f 16 bc f3 91 18 be d2 85 42 be 32 67 04 bd
       -0.009166574 -0.14899425 -0.18996361 -0.032324977
0001c0 ae d3 a8 be 39 b2 ad be 8d 05 41 3d 2c 08 f1 bd
       -0.32974 -0.33925036 0.047124434 -0.11769137
0001d0 a8 02 33 be 62 f9 7a be d5 7c a5 bc f9 66 95 3d
       -0.17481482 -0.24509194 -0.020201126 0.07295031
0001e0 7c c8 10 bf cb 3a af bc c9 d6 0c 3d c9 f3 7c bb
       -0.56555915 -0.02139034 0.034384523 -0.0038597456
0001f0 34 5c ef 3e 06 18 20 3d 94 aa 2b 3e 53 17 61 bd
       0.46750033 0.03908541 0.16764289 -0.054953884
000200 f5 a1 2a be 36 05 3b be 42 55 6c 3d ec 38 f1 3c
       -0.16663344 -0.18263707 0.057698496 0.029446088
000210 87 21 80 3e 39 16 76 be 0b 8c f1 3d b8 24 17 be
       0.2502558 -0.24031915 0.11794289 -0.14760101
000220 be 18 20 3c 93 a4 81 bd b2 db 33 bd 5d aa d7 3e
       0.009771524 -0.06330218 -0.04391069 0.42122164
000230 5a 2c 60 be 9a 95 39 be ef 98 67 be eb 33 74 bd
       -0.21891919 -0.18123475 -0.22616933 -0.059619825
000240 57 f9 12 be ae 68 9c be f4 41 e5 bd 45 fe 83 bd
       -0.14352928 -0.30548614 -0.1119422 -0.064449824
000250 3c 4e 68 3e 37 58 22 be 32 32 6f 3d cc e6 f4 3c
       0.22686094 -0.15853964 0.05839748 0.029895209
000260 0b 9f 39 be 42 68 e7 bd 22 37 a8 3d 64 99 69 bd
       -0.18127076 -0.112991825 0.08213641 -0.05703105
000270 ca 22 e1 be 29 d9 60 3e be 4d 22 bc 06 68 e1 3c
       -0.43971854 0.2195784 -0.0099062305 0.027515423
000280 16 80 c1 3e 55 c0 c1 be 6e 2b 06 3e da ff a4 bd
       0.37793034 -0.3784205 0.13102505 -0.08056612
000290 7e 92 22 bd c7 09 1c bb 8c 88 86 bd f1 92 9c 3c
       -0.039690487 -0.0023809539 -0.06569013 0.019113036
0002a0 cb 2a 10 be 53 a4 0b 3e 00 5e aa 3e 72 b2 63 3d
       -0.14078824 0.13636903 0.3327484 0.0555901
0002b0 ba 28 9f be 4f e1 26 bf 76 e0 35 bd 10 4c 18 bd
       -0.3108576 -0.65187544 -0.044403516 -0.037181914
0002c0 e1 84 58 be 76 1b d2 bd b2 78 f0 3a 01 4a 16 bd
       -0.2114444 -0.10259144 0.0018346517 -0.03669167
0002d0 4d a7 49 be dc fc bc be 35 ea d4 bc 18 46 43 3b
       -0.19692726 -0.36911666 -0.025990585 0.0029796418
0002e0 14 10 88 be c6 ac 0f bd 2c 97 4c 3e 25 27 a2 be
       -0.26574767 -0.03507688 0.19979542 -0.3167049
0002f0 6a 49 5a bd 48 38 58 3e 07 bb 9d 3e e2 f6 e2 3c
       -0.05329267 0.2111522 0.30806753 0.027705614
000300 4a f9 43 bd f0 0f 28 be 1c 77 2e 3e 06 1b 37 3e
       -0.047845162 -0.1641233 0.17037624 0.17881402
000310 3e b1 0c be 60 65 fa 3e 1d 12 f2 bd 3c 78 45 bd
       -0.13739488 0.48905468 -0.11819861 -0.048210368
000320 6b 75 80 be 77 93 04 3e f9 21 8b bc 85 9d 13 bc
       -0.25089583 0.12946878 -0.016983973 -0.009009724
000330 0c bb 11 be 9c e5 58 3e c6 d5 a5 3e 58 63 95 3d
       -0.14231509 0.21181339 0.3238966 0.07294339
000340 f2 6a 52 be e9 ee 42 bf 98 04 a1 bb 3f 33 5b 3b
       -0.20548609 -0.761458 -0.0049138777 0.0033447293
000350 01 70 d2 bd e7 32 c8 bd f2 78 9a bb 65 fa e6 bc
       -0.10275269 -0.09775334 -0.004714125 -0.02819557
000360 8c f3 9b 3e c2 b6 33 be 12 47 0f 3d 74 b1 41 bd
       0.3045925 -0.17550185 0.034979887 -0.047288373
000370 2d 47 b1 be 38 5a b9 3d 1e 23 79 3c 4f 4f 1b 3e
       -0.34624615 0.09050411 0.0152061265 0.15166973
000380 19 a2 f0 be 3c e5 2c 3d c4 fd 0a bd 67 fe 23 bd
       -0.4699867 0.042210802 -0.033933416 -0.04003754
000390 57 61 64 be 22 bb f1 be 1e 2e 48 3d c3 07 c1 bd
       -0.22302757 -0.47213084 0.048872106 -0.094253086
0003a0 ed 20 c5 3e fe 2c a3 3e db fe 65 3d 1a d8 3b be
       0.38501683 0.31870264 0.056151252 -0.18344155
0003b0 c7 8b 03 3e 3e 6e 1e 3d c0 48 94 bc 54 4d 2f 3c
       0.1284629 0.038679354 -0.018101096 0.010699589
0003c0 e2 08 a6 be 20 82 51 3e 14 3d 30 3e 71 37 f6 3d
       -0.32428652 0.20459795 0.172108 0.12022293
0003d0 42 3c 85 3e 53 e1 0f bf 1d f6 51 bc 91 0b de bd
       0.26022536 -0.5620319 -0.012815026 -0.1084205
0003e0 49 4b 84 bd 31 23 f3 bd 21 2d 8c 3d c3 f4 b8 bc
       -0.06459672 -0.118719466 0.06844545 -0.022577649
0003f0 ae 55 26 be a6 47 2d be e7 aa b2 3e c0 4b 89 bd
       -0.16243622 -0.16921863 0.34896013 -0.06703901

critic.net.0.bias f4 [128]
000000 38 e2 7f bd b4 b1 79 be c3 91 41 be 12 00 5e 3d
       -0.0624716 -0.24384195 -0.1890326 0.054199286
000010 91 f7 6a be 16 fc 00 be cb f3 06 be 36 ec c1 be
       -0.22946002 -0.12596163 -0.13178937 -0.37875527
000020 f5 00 63 3d 3c 74 1c be c1 49 2e be 68 d6 d7 be
       0.055420835 -0.15278715 -0.17020322 -0.42155766
000030 5a a2 3e be 07 05 a5 3b 40 5e 83 bd 6e f9 3b 3d
       -0.1861662 0.0050359997 -0.06414461 0.04589217
000040 5c 35 ff bd 25 4e 97 bb 0a 28 14 be 1d f4 41 be
       -0.12461349 -0.00461747 -0.14468399 -0.18940778
000050 37 a7 40 bc ea 09 54 be cc 34 22 be 83 d8 00 be
       -0.011758617 -0.20706907 -0.15840453 -0.12582593
000060 97 65 b2 bd 0a 8c d7 bd a2 dd ea 3c 2c 0d db be
       -0.08710783 -0.10524757 0.028670136 -0.42783487
000070 50 42 e3 bd 47 38 da bd e2 0e 44 be d8 f9 54 be
       -0.110966325 -0.10655265 -0.19146302 -0.20798433
000080 ac 83 c7 bd 3e 33 eb bc 1a 48 0e bd e8 42 91 bd
       -0.09741911 -0.028710958 -0.03473673 -0.070928395
000090 4d 4e 0e be 46 1c 08 be 11 75 a0 be 8d 64 94 be
       -0.13897057 -0.13292035 -0.31339315 -0.28982964
0000a0 81 20 8d be c5 62 52 bd 45 7f cb bd 8d 46 e3 bc
       -0.2756386 -0.051363725 -0.09936384 -0.027743602
0000b0 c0 39 56 be 14 1e ea bd 96 b1 0c be 2b a8 42 bd
       -0.20920467 -0.11431518 -0.13739619 -0.04752366
0000c0 a9 e8 11 be 9e 2c 2f be 5b df b8 bd 2b ae 0d be
       -0.14248909 -0.17106864 -0.09026977 -0.13835971
0000d0 cb 2b 21 be 91 a6 47 be 5d 07 f8 bd 5f 06 40 be
       -0.15739362 -0.19497134 -0.121107794 -0.1875243
0000e0 9f 39 2e be c7 2c 89 bd f1 d6 76 3c d3 64 96 be
       -0.17014168 -0.06697994 0.015065894 -0.29373798
0000f0 88 af 33 be e9 4c 81 bd 86 01 56 be b4 c3 c0 bd
       -0.17547429 -0.063134976 -0.20899019 -0.094123274
000100 fb a8 2f be a7 23 92 3d 33 2c 31 3e d1 76 b0 bd
       -0.17154305 0.071357064 0.17302017 -0.086164124
000110 c7 69 06 be 2b f8 43 be 09 ed 82 be cf 69 03 3e
       -0.13126288 -0.19137637 -0.25571468 0.12833332
000120 9e 4c ac 3d 18 bd c8 b9 f3 6d c1 3c ac 8d b6 bd
       0.08413051 -0.00038287858 0.023611998 -0.089137405
000130 3f 69 9b 3d bd ac 42 bd 86 de 94 bd 7c 50 2a be
       0.075884335 -0.047528017 -0.072690055 -0.16632265
000140 fe 23 1e 3b 93 37 6a be a6 3e c7 be 2d 54 b5 3d
       0.002413034 -0.22872762 -0.38914984 0.08853946
000150 44 ce 83 be cb 56 89 bd f0 18 ca bd b8 7d 2b bd
       -0.25743306 -0.067060076 -0.09868038 -0.04186794
000160 ac a2 5b be 7c fe 82 be aa 6f 70 bd 91 d5 f9 bd
       -0.21448773 -0.2558478 -0.05870024 -0.12198938
000170 0b 51 29 be 30 c5 b7 be 21 5b 53 bc 88 d5 74 bb
       -0.16534822 -0.3589263 -0.012900145 -0.003735872
000180 c0 28 0e be 0f 91 16 3d c4 a4 04 be ab da fd bd
       -0.13882732 0.036759432 -0.12953478 -0.12395223
000190 06 a1 74 be 94 61 2e be 40 40 bc 3c 25 20 99 be
       -0.2388955 -0.1702941 0.022979856 -0.29907337
0001a0 15 2b dd bc 53 d8 e7 bd b5 5f 12 bd 01 5b 06 bd
       -0.026998082 -0.113205574 -0.035735805 -0.03280163
0001b0 c8 d9 a2 be 29 5d 17 be 85 84 c8 3d 07 ec e8 be
       -0.3180678 -0.14781632 0.09790901 -0.45492575
0001c0 7e 1c 12 be 39 17 c8 3c c5 cf 16 3c 2c 23 1b be
       -0.14268681 0.024425136 0.00920481 -0.15150136
0001d0 be 95 af be 07 0e c0 3d 54 24 aa be fa 57 84 be
       -0.34293932 0.093776755 -0.3323084 -0.2584837
0001e0 42 8c 17 3e 36 51 4d bd 36 b4 87 be 22 57 60 be
       0.14799598 -0.050126277 -0.26504678 -0.21908239
0001f0 3e 41 f9 bd e0 0a ad be 16 ea 50 be e6 23 92 bd
       -0.12170647 -0.3379736 -0.20401797 -0.07135753

critic.net.3.weight f4 [128, 128]
000000 f2 73 01 bf b6 e4 b1 be 88 32 5c 3d 34 3d 87 3d
       -0.50567544 -0.34744805 0.053759128 0.066034704
000010 b5 97 31 bf 73 41 be be a6 13 05 bd 18 99 25 3e
       -0.6937211 -0.3715931 -0.03248944 0.16171682
000020 17 f3 18 3c 30 80 75 3b 87 47 ef 3d 49 8e 35 bd
       0.009335301 0.003746044 0.11683565 -0.044325147
000030 48 f0 a6 bd b7 8a 60 3e 98 3f 76 3c 65 17 6e bd
       -0.08151299 0.21927916 0.01502981 -0.05812778
000040 dc bd b1 be 33 a8 92 bd cc 6d c9 bd 0a 10 04 bf
       -0.34715164 -0.07160988 -0.09835395 -0.51586974
000050 83 ab f5 3d 05 10 5a be 2b bc 4d bb dd 7a 9a 3e
       0.11995604 -0.21295173 -0.0031392674 0.30171862
000060 a0 81 9a be 04 5c ca 3d 9f e3 28 3e 9e 37 eb 3c
       -0.3017702 0.09880832 0.1649308 0.028713044
000070 0e f0 04 bf 3e 99 ae bd 7c 8d 47 be 17 c8 87 3e
       -0.51928794 -0.085253224 -0.19487566 0.26519844
000080 b5 ad 24 3e 76 27 63 be 49 f9 a1 be 34 88 89 3d
       0.16081889 -0.22183022 -0.31635502 0.06715432
000090 cf 8d 72 3e 01 75 5d bd b7 94 d7 3d cd a7 04 3e
       0.23686908 -0.05406666 0.10526412 0.12954636
0000a0 4d 27 33 be 68 f3 e6 be 1b ec ad 3d b2 22 85 3e
       -0.17495461 -0.4510758 0.08492299 0.26003033
0000b0 88 54 87 3e 6a 9f c0 be a4 7d c3 3b a0 86 ee 3d
       0.2643168 -0.37621623 0.0059659053 0.116467714
0000c0 01 6d 05 3f 2c 39 83 3e 5c e9 43 bd c7 57 19 be
       0.5211945 0.25629556 -0.04782997 -0.1497489
0000d0 2c 3d 55 ba 4c 1d 17 bd 8b f9 03 3e 9d 6d 70 be
       -0.00081344205 -0.036893174 0.12888162 -0.23479314
0000e0 9e b0 52 3e e7 71 43 be 07 61 23 be e0 34 0a 3e
       0.20575187 -0.19086419 -0.15954982 0.13496733
0000f0 d9 2f eb 3c f2 92 8e be ad ab 09 3e 68 5b bd 3e
       0.028709339 -0.27846485 0.13444395 0.369838
000100 14 11 ba ba 2b e1 fe be b1 8f 92 3a 8d 46 27 be
       -0.0014195764 -0.49781165 0.0011181739 -0.16335507
000110 c0 bc 9c 3e a4 0f d1 bd 30 14 96 3d b9 b2 a2 3e
       0.30612755 -0.10208061 0.07328069 0.3177698
000120 b5 94 da be 57 e9 22 be 81 5b ee bd be 2f dc bd
       -0.4269158 -0.15909325 -0.11638547 -0.107512936
000130 fe 61 b8 3c da d2 fd bd d5 a1 28 3e fd 9b f4 bd
       0.022507664 -0.12393732 0.16467984 -0.11943815
000140 4e 9c a2 3c a7 0e 41 be d1 e0 89 3d ed 34 03 be
       0.019849923 -0.18853246 0.067323335 -0.12813158
000150 92 c0 6e be 97 20 eb bd 6d 1b eb 3a 20 e1 7d be
       -0.23315647 -0.114808254 0.0017937251 -0.2479291
000160 2d fd fd bd 3e cc 7a be 8f 6c 3a bd 5a 31 86 3d
       -0.12401805 -0.24491975 -0.045513686 0.06552382
000170 b7 6a 5a 3d ea af 80 bd 1e bb 9d be 46 c6 ff 3c
       0.053324427 -0.06283553 -0.30806822 0.031222474
000180 08 06 b4 bd fc 18 5b be 7d 7d 27 bd f2 44 c0 3d
       -0.08790213 -0.2139625 -0.04089116 0.0938815
000190 9c 9d 7f 3c 67 19 50 3d cc b6 cb be ad 48 ab 3e
       0.015601542 0.050805476 -0.397879 0.33453885
0001a0 b6 f3 05 be 8a 6b 11 3d a8 24 65 3e ca 4d 32 bd
       -0.1308125 0.035502948 0.22377264 -0.043531217
0001b0 66 50 73 ba 5f 62 e3 3e 49 a3 04 be a2 f2 fb bd
       -0.00092816947 0.4441099 -0.12952913 -0.12302138
0001c0 75 a0 17 bf 8e e5 8d 3e 0c 58 74 bb 1a 26 3b be
       -0.59229213 0.277142 -0.0037283925 -0.18276253
0001d0 1a 3c 20 be 87 6c 31 3e 31 74 20 be 14 ec 02 be
       -0.15647927 0.17326556 -0.15669324 -0.12785369
0001e0 fe 5d 4c be 3b 5c 28 bf 96 0c 93 3d 11 0b f6 bc
       -0.1995773 -0.6576573 0.07180135 -0.030034574
0001f0 01 99 85 be 06 4c 88 bc 7d 98 26 bf a4 ab 8c be
       -0.26093295 -0.016637813 -0.6507643 -0.274747
000200 d3 31 a4 3c f2 2a 2e be d5 1e 40 be 09 5d 2f be
       0.02004329 -0.1700857 -0.18761761 -0.17125334
000210 10 76 9f bd 39 91 b1 be 29 86 7d 3c 9e 43 ef 3d
       -0.077861905 -0.3468111 0.015473881 0.11682819
000220 fe cc c9 bd 0e 0f 9a bd 1e bd d8 be 30 8e 29 be
       -0.09853552 -0.07522403 -0.42331785 -0.16558146
000230 d6 80 3d bd 70 24 bd bd ab 11 08 be 82 f9 ca bd
       -0.046265446 -0.092354655 -0.1328799 -0.09910871
000240 26 60 12 bd 88 67 9a 3d dd 0b a2 be d2 e6 cd be
       -0.035736226 0.07539278 -0.31649676 -0.40215164
000250 cc 98 64 be de 1b f4 bd 24 26 df 3e e9 b9 54 be
       -0.22323912 -0.11919378 0.43583786 -0.20774044
000260 bc 5c 52 bd 9c 86 45 be af 52 20 3d d2 42 46 be
       -0.05135797 -0.1928963 0.039141353 -0.19361427
000270 04 71 0d bd 90 9b be be 98 49 2c be e1 9b 85 be
       -0.03453161 -0.3722806 -0.16824949 -0.2609549
000280 5f 40 a5 be 91 63 40 3d 4d 33 43 3d 7e 48 6d be
       -0.32275674 0.046969954 0.047656346 -0.23172185
000290 0f f5 4b be 85 29 63 3e 63 10 3f be bc a4 b1 bd
       -0.19917701 0.22183807 -0.18658595 -0.08673999
0002a0 83 30 2c be 34 bb f6 bd 37 fc a6 bc 96 1d e1 3c
       -0.16815381 -0.12047425 -0.020383937 0.027479928
0002b0 57 9e 73 be 12 b5 21 be ff 95 a6 be 80 c9 25 3e
       -0.2379087 -0.15791729 -0.32536313 0.16190147
0002c0 e7 33 a3 3b dd cb 04 3c 66 b7 6b 3e cd 6e 83 3d
       0.0049805525 0.008105245 0.2301918 0.06417618
0002d0 4f 49 bb bd e5 ba ff 3d 82 66 98 be 55 92 03 3e
       -0.09144842 0.12486819 -0.29765707 0.1284879
0002e0 7c 77 71 3b be f0 89 bd b5 7d 46 bd c9 d2 e9 3c
       0.00368449 -0.06735371 -0.048459727 0.028542893
0002f0 f3 83 7a bd 1f c5 10 3e 0a 98 32 be 4b 70 8d be
       -0.061160993 0.14137696 -0.17440811 -0.27624735
000300 b3 d5 f9 bd 87 d2 13 bb 54 b8 7c 3e 45 d4 5f 3d
       -0.12198963 -0.0022555904 0.2467969 0.054645795
000310 89 4a 3e be d6 f7 93 3d 74 9b bc be 7a 6c 31 be
       -0.1858312 0.07225005 -0.3683735 -0.17326537
000320 1f 7b 57 3d 87 f4 93 be 4e 53 0c be ec dc 40 be
       0.05260765 -0.28897497 -0.13703653 -0.18834275
000330 d2 e0 02 be 9c eb 21 be cb e4 9e bd e3 5c 7a 3d
       -0.12781075 -0.15812534 -0.077584825 0.06112374
000340 f6 c7 e3 3d 10 bf 10 be 43 22 87 3c 33 82 10 3d
       0.11122124 -0.14135385 0.01649583 0.035280418
000350 35 a7 10 3e 85 ae 5b be 39 73 4e be 03 28 2a 3e
       0.14126284 -0.21453293 -0.20161141 0.16616826
000360 a4 f9 08 be ac 5f 48 be d3 d0 a8 3c 56 a7 ad 39
       -0.1337648 -0.19567746 0.020607388 0.00033121806
000370 03 0c 45 3e 02 36 4c be f6 08 79 3e a5 7e 37 be
       0.19242863 -0.19942477 0.24319825 -0.17919405
000380 62 26 f0 bd 60 a7 0d be d4 da 90 be 29 67 23 3d
       -0.11726071 -0.1383338 -0.28291953 0.039893303
000390 2c e6 82 3d 86 63 e0 bb 11 20 c7 be df ed 5f be
       0.06391558 -0.0068478016 -0.38891652 -0.21868084
0003a0 bc 84 6f be 86 65 c7 be 18 9f 9f bd b0 1c 3d bd
       -0.23390478 -0.38944644 -0.077940166 -0.046169937
0003b0 e8 2c 90 3e b6 59 03 be 3b d1 b4 be 96 50 14 bd
       0.2815926 -0.12827191 -0.3531588 -0.036209665
0003c0 dc 8e 79 3d 70 06 60 bd 90 99 52 be 35 ab 4e be
       0.060927257 -0.05469364 -0.20566392 -0.20182498
0003d0 2c 9c bc be dc 64 60 be 35 c1 73 bd 83 8c 05 3d
       -0.368379 -0.21913475 -0.05951043 0.032604706
0003e0 01 cd f7 3d a5 a9 ad 3d d4 d5 9c 3e 06 7a 0f 3e
       0.12099648 0.08479623 0.30631888 0.14011392
0003f0 e6 c2 cc be ee a0 ba 3d 6c 18 8f bd b7 74 86 be
       -0.39992446 0.09112726 -0.0698708 -0.2626092

critic.net.3.bias f4 [128]
000000 5d bf ab 3d 8e 72 e9 bd ee 0e 0d bd 46 b6 fe be
       0.08386109 -0.11398803 -0.034438066 -0.4974844
000010 e9 83 5e bd 1d 6d 0e be 12 fa ea bc 59 16 3f 3b
       -0.054325018 -0.13908811 -0.028683696 0.0029157607
000020 0f 87 e2 bc 5b 6c e3 bd 24 2e 07 3e a4 e1 09 be
       -0.027652292 -0.111046515 0.13201195 -0.13464981
000030 6d 1b a3 bd ef 92 ad bd e0 c8 61 bc 89 29 d4 bd
       -0.079642154 -0.08475291 -0.0137808025 -0.10359485
000040 29 3d b7 be 93 47 52 3c 70 36 b5 bd d9 77 6d bb
       -0.3578885 0.012834447 -0.08848274 -0.0036234765
000050 22 ce e6 bb 8c 67 b3 bd 10 9d 48 be 64 36 20 bd
       -0.007043616 -0.087599844 -0.19591165 -0.03911437
000060 fc 1b f7 bd 46 b5 7c bd da 3c 4a 3d ea 97 0e 3d
       -0.120658845 -0.061696313 0.04937444 0.034812845
000070 8c 86 9a bc a8 7c 1a be a1 b9 63 be 22 30 ae be
       -0.018862985 -0.15086615 -0.2223878 -0.34021097
000080 7d 75 91 3d 22 1b 96 be 19 64 23 3d 8d fd 97 bd
       0.07102487 -0.29317576 0.039890382 -0.07421408
000090 09 9b be be 27 ab b2 be c3 b4 50 bd 75 e3 9d 39
       -0.37227657 -0.34896204 -0.050953638 0.00030114842
0000a0 3b eb df be 64 09 4f 3c 3d b7 a8 bd f0 4b 84 bd
       -0.43734154 0.012636516 -0.08238075 -0.064597964
0000b0 74 ca 95 bd c3 e2 37 3d 2b 2b d7 be 9f 60 36 bd
       -0.073140055 0.04489399 -0.42025122 -0.04452574
0000c0 79 af da be e7 49 2f be 48 7d bc bd 5e e8 1b bb
       -0.42712 -0.17118035 -0.09203583 -0.0023789625
0000d0 54 72 a6 bc 37 bc 5b 3e e1 9d b7 be b8 75 ad bc
       -0.020318188 0.21458517 -0.3586264 -0.021174297
0000e0 43 f9 a9 be 01 4c 28 be 8c 0b 98 3c e1 ca ab bd
       -0.33197984 -0.16435243 0.018560193 -0.083883055
0000f0 e9 96 0f bd dd f4 af bd 2a 82 4b 3d 14 5e 08 be
       -0.03505603 -0.08591626 0.04968468 -0.13317138
000100 7e ca fb ba 57 eb 75 bd 9d d9 81 be cd b5 81 3d
       -0.0019210128 -0.06003889 -0.25361338 0.06333504
000110 51 5f b5 be d3 74 de bb 2a d8 cb bc 51 c7 ae 3c
       -0.35424283 -0.006788829 -0.024883348 0.021335276
000120 c8 ad 0c bd f0 82 31 be 09 ee dc be 0a 41 04 3d
       -0.03434542 -0.17335105 -0.43150356 0.03228859
000130 ac 35 48 be a8 2a 5a bd 7e 19 7b 3c de 74 a7 be
       -0.19551724 -0.053263336 0.015325902 -0.3270635
000140 a8 1d 80 be c3 79 c1 3c b0 70 1d be d1 eb 32 bc
       -0.25022626 0.02361763 -0.15375018 -0.010920481
000150 63 3f d1 3c 52 87 77 3c 5f 92 bd bd a2 38 3d 3d
       0.02554292 0.0151079465 -0.09256434 0.046196587
000160 fa d5 eb bc e8 5f 5b bc aa 95 b6 be 57 e0 2c bd
       -0.028788555 -0.013389565 -0.3566106 -0.042206135
000170 32 11 0f bf 32 58 5c bd e9 92 3c bd ef 4e ce be
       -0.5588561 -0.053795047 -0.046038542 -0.40294597
000180 50 26 63 bd ab 25 80 be 98 b1 33 be ec 63 cf bc
       -0.05545646 -0.25028738 -0.17548215 -0.025316201
000190 ee 93 9f 3d a0 38 13 3d 09 f0 15 bd 74 3a 81 bd
       0.07791887 0.035942674 -0.03660587 -0.06309977
0001a0 c7 d2 ef 3d 15 94 36 be 04 d4 e9 bc 8e 02 21 bd
       0.117101245 -0.17829926 -0.02854348 -0.039309077
0001b0 7e da 7d bd 82 4f 7f 3c 5b e4 2b be 75 82 29 bd
       -0.06197595 0.015582921 -0.1678633 -0.04138418
0001c0 fd 16 11 3e 89 0a 9e be 13 2f e1 be dd f5 a6 bc
       0.14168926 -0.30867413 -0.43981227 -0.020380909
0001d0 4a 30 01 bd ba 28 af be 99 31 f8 bc fa 6a 60 3d
       -0.031540193 -0.3421076 -0.030297088 0.05478952
0001e0 fc fb 28 3e 1b 72 95 be 30 d7 66 3d 6f e3 72 be
       0.16502374 -0.29188618 0.056357563 -0.23719572
0001f0 a7 1b 04 bc e2 59 8b 3d 56 c7 7c 3d 7d 94 03 be
       -0.008063233 0.06804253 0.06171354 -0.12849613
