Skynet/yongsun_agent_right.pth (torch, 154511 bytes, 11 tensors)

actor.net.0.weight f4 [128, 12]
000000 a0 be 4a be 65 72 0b 3d f2 1f 0c 3d b6 04 2b 3d
       -0.1979928 0.034044642 0.034210153 0.04175254
000010 df ba ec be 81 ea 26 bd 8a b6 76 be 96 eb 5a 3e
       -0.4623632 -0.040750984 -0.2409307 0.21378931
000020 05 1b 10 be 19 9f 0f bd d0 50 07 3b 9d 6f f8 bd
       -0.14072807 -0.035063837 0.0020647533 -0.121306635
000030 ad f0 7a be 56 80 c1 be 8b 47 2d bd 55 94 06 3e
       -0.24505873 -0.37793225 -0.042304557 0.13142522
000040 03 81 68 3d cf 71 8b bd 73 a1 ce 3d 65 94 01 3e
       0.05676366 -0.06808817 0.10089388 0.12654264
000050 35 4f 09 bd 62 84 b5 be fb ac 68 bc 18 56 4b bd
       -0.033522803 -0.35452563 -0.014201398 -0.049642652
000060 10 db 97 be 5f 2c 0e 3d 34 50 47 be 45 83 ff bd
       -0.2965932 0.034710284 -0.19464189 -0.124762096
000070 54 cb 6d 3e 46 6b 3b bb ab 45 d3 3d d8 2f 05 3d
       0.23222095 -0.0028597875 0.103160225 0.03251633
000080 0e 57 bf be 8e 60 62 3c cb 77 8f 3d 3e fc 16 3e
       -0.37371105 0.013816966 0.070052706 0.1474466
000090 c2 50 88 be 03 88 3d be ef 0f a0 3c 33 88 bc bc
       -0.26624113 -0.18508916 0.019538848 -0.023014164
0000a0 f6 e9 76 3e 67 64 25 be a3 44 3c 3e 31 8a ef 3d
       0.24112687 -0.16151582 0.18385558 0.1169628
0000b0 f9 80 2b be 50 ca 52 be 82 1e 85 3e 9d 64 c0 bc
       -0.16748418 -0.20584989 0.25999838 -0.023485476
0000c0 96 f5 8d be ba ff ee bb be f6 8a bd 1d d6 c2 bd
       -0.2772643 -0.0072936686 -0.067853436 -0.09513495
0000d0 7b e4 36 3e e2 9d 5d bd a0 97 d0 3d 31 9c e1 bb
       0.17860596 -0.054105647 0.1018517 -0.0068850745
0000e0 69 72 43 be ee 9b 72 be ab 48 80 3d 3f b1 9a bd
       -0.19086613 -0.23692295 0.0626386 -0.07553338
0000f0 3c 09 8a be bf 29 d7 bd 8c 8f 3a 3c ad 91 50 3d
       -0.2696017 -0.10506009 0.011386763 0.050920177
000100 15 c5 1f bf 0a 22 31 bd 40 ab 6a be ef d1 5a 3e
       -0.624101 -0.043245353 -0.22916889 0.21369146
000110 88 21 88 3c 10 8d 16 be 83 45 99 3d 04 67 49 bc
       0.016617551 -0.14702249 0.074839614 -0.012292627
000120 36 0f dc bd 63 64 9e be 30 0c c2 bc d8 9b 0e bd
       -0.10745089 -0.30935964 -0.023687452 -0.034816593
000130 60 ce 1a 3e ce 22 e4 be 14 ab 4e be e3 b8 ea bd
       0.15117788 -0.44557804 -0.20182449 -0.114610456
000140 b4 7a 3d 3c 0a 84 35 3d 37 3a 94 3e 29 c1 70 3e
       0.011564899 0.044315375 0.28950664 0.23511185
000150 f9 40 af be d9 45 af be c4 17 69 3d e7 dc 54 bd
       -0.34229258 -0.34232977 0.05690743 -0.05196848
000160 db 65 60 bc 28 67 83 be 51 8a c7 3c c4 53 66 3d
       -0.013696159 -0.2566464 0.024357947 0.05623223
000170 1b fd 91 3e b4 39 44 be fd d8 2a 3d db 2e 62 bd
       0.28513417 -0.19162637 0.041710842 -0.055220466
000180 3f cb 04 bf ab 30 85 bd 61 f4 fc bb 53 61 1c bc
       -0.5187263 -0.06503423 -0.007719562 -0.009544688
000190 05 66 f9 3e 30 17 6c bc 99 f9 0a 3d a3 55 62 bc
       0.48710647 -0.014409825 0.03392944 -0.013814363
0001a0 9b ad 03 3e 96 33 4e bd f8 9a 3b 3d 07 f7 37 3c
       0.12859194 -0.050342165 0.045802087 0.0112283295
0001b0 9c ae 6a 3e 09 85 e1 3b 04 ae 91 3d 29 8e 64 bb
       0.2291817 0.006882314 0.07113269 -0.0034874773
0001c0 f1 7e 60 be fa a5 bb 38 07 f3 af be 01 3b ba bd
       -0.21923424 8.9477704e-05 -0.34365103 -0.09093285
0001d0 ad fb 5f be 00 a8 10 3d 9b 43 b7 3d 0c 0b b4 3b
       -0.2187335 0.035316467 0.089484416 0.005494481
0001e0 f3 7c de bc fa 72 f0 bd 1c ec 29 3d 20 b9 7e bd
       -0.02715919 -0.1174068 0.041484937 -0.062188268
0001f0 59 cf 6f be 77 27 40 be c6 f2 ad 3d d1 9a d9 bd
       -0.2341894 -0.18765055 0.08493571 -0.10625232
000200 b8 3e fc bd 49 bf 01 be 2e c1 08 3e 00 78 87 3e
       -0.1231665 -0.12670626 0.13354942 0.2645874
000210 a9 24 76 be 26 2d 67 bd 71 47 36 3d 9a fa 3a 3d
       -0.24037422 -0.05643954 0.044501726 0.04564915
000220 a4 0d 4e bf 21 cf d1 bd b2 c0 82 be 7b 65 58 3e
       -0.80489564 -0.10244585 -0.2553764 0.21132462
000230 0c 2f ca 3d d0 79 a2 bd 4d 87 85 3d 01 d1 36 3c
       0.09872255 -0.0793339 0.06519947 0.011158229
000240 1d ec 09 bc fa 8f 9e bd bb 0c e5 3b 62 b1 80 3d
       -0.00841811 -0.07742305 0.006990043 0.06283833
000250 1e 5c 9e bc 30 89 d8 bd b2 9d 73 be ea 5f 0f be
       -0.019331034 -0.105730414 -0.23790625 -0.14001432
000260 c9 d2 d0 bd 5e 50 58 bc 7f 5d 2a 3e 26 52 59 3e
       -0.10196454 -0.013202755 0.16637228 0.21222743
000270 d6 fe 99 be 47 b2 59 3d 17 25 de bd 66 cf 9d 3d
       -0.30077237 0.053148534 -0.10846918 0.07705574
000280 f6 06 8d 3e 17 8e 05 3e 1d aa ab 3d a9 97 8a 3d
       0.27544373 0.13042484 0.08382056 0.06767208
000290 d6 b6 8e be a9 59 31 be 0a 2f dd 3b 92 6c cb 3d
       -0.27873868 -0.17319359 0.0067499923 0.099328175
0002a0 d0 91 f9 3e 76 f5 20 3e 57 fb d6 3a 6f 07 8d 3c
       0.4874406 0.15718636 0.0016401809 0.017215459
0002b0 d9 ec d4 be 86 0c c3 be e0 2e 23 bd ec 79 e4 bc
       -0.4158695 -0.38095492 -0.039839625 -0.027890168
0002c0 1a e1 8c bc b7 06 d9 3c d6 1f 50 3c da 48 d0 3a
       -0.01719718 0.02649246 0.012702903 0.0015890852
0002d0 58 5b 38 be ce 12 84 be ce b9 2c 3c b1 ee 4e bc
       -0.18003595 -0.25795597 0.010542346 -0.012630151
0002e0 80 cf 50 3e d4 08 25 be 7d c4 0a 3e a1 75 55 3d
       0.20391655 -0.16116649 0.13551517 0.052114133
0002f0 31 8b 55 be c4 c8 2a be 8a 98 8b 3d 01 93 be bd
       -0.20853879 -0.16678149 0.06816204 -0.093053825
000300 e7 f5 a2 be 19 80 a4 3c b3 16 a2 bc 36 e8 49 bd
       -0.31828234 0.020080613 -0.019786214 -0.04929372
000310 45 01 af 3e 89 5f 24 3e 55 8b 39 3e 6f bb fb 3d
       0.34180656 0.16052069 0.18119557 0.122916095
000320 fa 2a 39 be d9 2b b2 bd 45 6f 0d 3e 21 7b 2d be
       -0.180828 -0.086997695 0.13811977 -0.16941501
000330 61 0b ad be 0c b6 22 be ce 74 94 bd 98 75 46 bd
       -0.33797744 -0.15889758 -0.07248841 -0.04845199
000340 fd 69 db 3e 68 be 07 3d d9 20 6c 3e 8e 9c 59 3e
       0.428543 0.03314057 0.23059405 0.21251127
000350 5b 35 78 bc 0f cf 43 3d c7 f5 6c 3e 46 b0 5c be
       -0.01514944 0.04780489 0.23140632 -0.21551618
000360 5f 95 00 be be d6 aa be 49 8f 8f 3d 28 1e 00 3d
       -0.1255698 -0.3336696 0.07009751 0.03127876
000370 4b 32 2a bf ee 23 be bd 5a 1c 18 be e6 93 6a 3c
       -0.6648299 -0.09284197 -0.14854565 0.014317488
000380 1b 51 ea 3d 25 7a 57 bd 84 9c a4 3c 15 b2 0a 3b
       0.11441251 -0.05260672 0.020094164 0.0021163274
000390 64 06 05 bf 71 69 f8 bd a2 2c c2 b8 73 4e 6d bb
       -0.51962876 -0.12129486 -9.2589544e-05 -0.003621009
0003a0 66 16 f8 3e 98 73 29 3c 97 10 c5 3c 16 40 28 bd
       0.4845459 0.010342501 0.024055762 -0.041076742
0003b0 df 82 ad bd 8f 63 da bc f6 f3 e9 ba 3e ff e6 3c
       -0.08472227 -0.026658801 -0.0017849195 0.02819788
0003c0 eb 39 bc 3e 49 6c 95 3d 02 cb a0 3b 7d 06 c1 3c
       0.36762938 0.072960444 0.004907013 0.023562664
0003d0 90 00 af be 4e 58 9c be c5 f6 46 3c 2f 8e 56 bd
       -0.34180117 -0.3053612 0.012143795 -0.05238169
0003e0 a3 1a 53 bb 50 b7 25 3e 72 27 1a 3e a6 81 0e 3d
       -0.0032211922 0.1618321 0.1505411 0.03479161
0003f0 8d 25 e7 3e 3e d7 65 3d 95 8d 28 3c 48 59 a8 3c
       0.45145836 0.056113474 0.010287662 0.020550385

actor.net.0.bias f4 [128]
000000 b9 a9 87 be ca 5e 35 be 91 d7 87 bd f1 06 29 be
       -0.26496676 -0.1771194 -0.06632913 -0.16506554
000010 f3 4a 44 bd 60 fd 61 be a8 02 3e bd 9c 50 7f be
       -0.04792304 -0.22069311 -0.046389252 -0.24933094
000020 c5 c9 69 3d 06 92 9c bc 8d b2 a1 bd 3a e3 9e be
       0.057077188 -0.019112598 -0.07895384 -0.31032735
000030 b6 38 d7 bd d5 ad a5 bd ac 13 2d 3d 99 bd ed bd
       -0.10508864 -0.080897965 0.04225509 -0.116084285
000040 be e2 a7 bc 2a 2c 23 bb 8c 0d 7f be 8c b2 47 3d
       -0.020493861 -0.002489815 -0.24907511 0.04875426
000050 11 2e 5a bc 19 ae 92 3c f3 23 54 be ab f7 81 bd
       -0.013316647 0.017905282 -0.20716839 -0.06346067
000060 e3 90 74 be c7 1c 88 bc 29 6d 71 be 25 aa 6e be
       -0.23883395 -0.016615285 -0.23576798 -0.23307092
000070 01 20 8b be f9 98 40 be 10 da 2a be 58 27 c6 bd
       -0.27172855 -0.18808354 -0.16684747 -0.09675473
000080 0e 0b 04 be 0b 12 2d be c7 5d 4d be 9a 21 81 bd
       -0.12894842 -0.16901414 -0.20055304 -0.06305237
000090 a3 71 ad bd cf 63 90 be d6 4c 5b be 58 e2 8b bb
       -0.0846894 -0.28201148 -0.2141603 -0.0042689256
0000a0 97 41 20 be c3 3b 52 be f9 d2 70 be bf 29 21 be
       -0.1565002 -0.2053061 -0.2351798 -0.15738581
0000b0 98 a5 36 be 27 ed 78 3c f9 58 1d be 00 57 00 be
       -0.17836607 0.01519326 -0.15365972 -0.12533188
0000c0 dc fe ad bd 01 2b 5e be 89 14 bd bd 4c 74 70 3d
       -0.08495876 -0.21696092 -0.092324324 0.05870466
0000d0 52 ce d7 bd 1e d6 8d be c8 dd 80 3d 8d 03 02 3d
       -0.10537399 -0.2770242 0.062923014 0.031741668
0000e0 b8 cf 3f be 7f 68 4a be 12 14 1d be bd 37 86 3c
       -0.18731582 -0.19766425 -0.15339687 0.016384
0000f0 a9 58 67 be 5e e3 a5 bc a7 ca 84 be 9f b7 92 bd
       -0.22592415 -0.020250019 -0.2593586 -0.07163929
000100 11 79 09 be 33 32 1f be fe 6c 22 bd 70 0d 6f be
       -0.1342509 -0.15546493 -0.039654724 -0.2334497
000110 38 22 d2 bd e5 25 28 be ea b2 36 be 58 e4 81 be
       -0.10260433 -0.16420706 -0.17841688 -0.25369525
000120 ab 80 34 bd 7d f7 56 be ae bd 9d bd 45 b0 2a bd
       -0.04406802 -0.20992847 -0.07702194 -0.04167201
000130 33 9b 82 3d 4f 57 0e be ec e1 9b bd f0 00 ed bd
       0.06377258 -0.13900493 -0.076114506 -0.115724444
000140 5b 9e 4e be ea 1c e6 bd 98 36 01 3d 65 8e 7c be
       -0.20177595 -0.11235984 0.031546205 -0.24663694
000150 b1 25 96 be 2b 87 0c be f1 98 6a be 38 6b 36 be
       -0.2932563 -0.13723437 -0.22909905 -0.17814338
000160 a5 7d 49 bd 7b 19 ee bd db 62 7e be d0 f8 8f be
       -0.04919209 -0.11625954 -0.24842398 -0.28119516
000170 62 b1 96 bd ec b0 7e bd 4c c3 8e bd 2f 27 c8 bd
       -0.07358052 -0.062180445 -0.06970844 -0.09773099
000180 6f 5b 72 be d0 32 3e bd c9 90 d4 bd 2a 62 c0 bd
       -0.23667692 -0.046435177 -0.10379178 -0.09393723
000190 81 ee 02 be 5e 57 87 be 4b 46 cd bd ba b3 62 be
       -0.12786295 -0.26433843 -0.10023173 -0.22138873
0001a0 ec 71 8c 3d 78 d6 2a bd 41 e3 cb bc 7b 2b 9d 3c
       0.068576664 -0.04170844 -0.024888637 0.019185772
0001b0 78 0e e5 3b 6a de a1 bd fd 36 38 be f1 b5 0a bd
       0.00699025 -0.0790375 -0.17989726 -0.03386492
0001c0 dd 67 ff bd 47 39 8b bc 18 cb f4 bd e9 7e a7 be
       -0.12470982 -0.016995085 -0.119527996 -0.32714012
0001d0 37 df 7f 3d 26 c9 81 be 9b d5 fa bd b3 a9 ce 3c
       0.062468734 -0.25348777 -0.12247773 0.025227403
0001e0 eb 3f 89 be 16 b3 87 be 19 64 30 be 28 c6 93 bd
       -0.26806578 -0.2650382 -0.17225684 -0.0721553
0001f0 7d f8 d0 bd 25 bb 18 be d3 4d c6 bd ea c2 5b bd
       -0.102036454 -0.1491514 -0.096828125 -0.05365268

actor.net.3.weight f4 [128, 128]
000000 22 a4 5d be 7c 5b 9a bd b7 7e 9a bd b4 be 7b 3c
       -0.21644643 -0.075369805 -0.075437 0.015365291
000010 eb 25 95 bd e6 ca 8f 3d 6c 06 48 bd ac 0c 44 bc
       -0.07282623 0.07021122 -0.04883425 -0.011965912
000020 a6 f7 8c bf 1f fc aa 3d fc 1e 06 bd f0 d1 06 be
       -1.1013076 0.083488695 -0.032744393 -0.13166022
000030 32 24 f9 bd 84 08 70 3d c6 c4 47 3e 75 14 c6 bd
       -0.12165107 0.05860187 0.19508657 -0.096718706
000040 67 ff 1c be ab 61 05 bd 9e 28 57 bc 30 cb 5d bf
       -0.15331803 -0.032563847 -0.0131322425 -0.86638165
000050 cd b2 2f be 5f 2c c7 3c a8 cf 21 be a9 eb 23 3d
       -0.17158051 0.02431315 -0.15801871 0.040019665
000060 54 50 ff bd 8b b7 d8 3d 3c e6 99 bd 7a 55 3a be
       -0.12466493 0.10581883 -0.07514617 -0.18196669
000070 19 be c9 be 2a 1a a2 bd 1e 8c 20 3e 59 0f a6 3e
       -0.39402846 -0.07915147 0.1567845 0.32433584
000080 41 04 9f 3d e4 2b ab bc 7d a0 6e be f7 a2 66 bc
       0.07764483 -0.020894952 -0.23303409 -0.01407694
000090 d7 39 70 be ef 66 d3 bd cd 19 45 be c7 4a d2 3d
       -0.23459564 -0.103223674 -0.19248123 0.10268169
0000a0 d2 dd af bd 56 77 7f bd bc f6 b1 3e 4e f1 21 be
       -0.08587231 -0.062369667 0.34758556 -0.15814707
0000b0 43 fa ff 3d 93 37 04 be 5b 1b f6 3d 0c 6f a6 3d
       0.124989055 -0.12911825 0.120169364 0.08126649
0000c0 77 22 8f bd ab da c9 3c 2c 45 59 bc 84 ed 07 3e
       -0.069889955 0.024640402 -0.013261121 0.13274199
0000d0 07 b0 9a 3c a3 8d df bc f1 a0 70 3d 83 4e 9d bf
       0.018882765 -0.027289217 0.058747236 -1.2289585
0000e0 9d 66 85 3e 67 fa 32 be 72 e7 af be 19 30 9e be
       0.2605485 -0.17478333 -0.34356266 -0.3089607
0000f0 56 9a 08 be 0c c6 2b be 9e 3f ec bd 7b 37 34 3e
       -0.13340124 -0.16774768 -0.115355715 0.17599289
000100 e8 0a 94 be 92 51 e9 bd 8a 7a 69 bd 61 78 00 be
       -0.2891457 -0.113925114 -0.057001628 -0.12545921
000110 a5 b5 aa 3d 24 d1 4a 3d 79 78 4f 3d 53 9d 7b be
       0.08335427 0.04951586 0.050652 -0.24571733
000120 89 83 d1 be 27 83 01 3e 8b 2c 03 3d 85 1b e4 bd
       -0.40920666 0.12647687 0.0320249 -0.111380614
000130 70 9c c8 3d 09 e3 fd 3d 56 49 d6 be 3b 92 77 bb
       0.09795463 0.12396819 -0.41852826 -0.003777637
000140 c0 e9 a0 be 31 f7 21 3e 93 0f 9c 3d af b6 14 be
       -0.31428337 0.15816952 0.07620158 -0.14522813
000150 ba f7 ac bd 60 58 89 3b 2d 75 7e be 55 a5 0f 3d
       -0.084456876 0.0041914433 -0.24849387 0.035069782
000160 79 c5 d8 bc a5 fe a8 3d 6f 95 e7 be ed ee b2 bd
       -0.02646135 0.082516946 -0.45231196 -0.08736978
000170 bc b5 35 3c 92 a5 e7 bc 43 48 09 3e e6 33 c2 bb
       0.011090692 -0.028277192 0.13406472 -0.005926597
000180 4f 54 4b be 60 98 2a 3d d2 6b a1 be ed 47 41 bd
       -0.1985638 0.041649222 -0.31527573 -0.047187734
000190 9f e1 9e be 5b 16 37 be 4d 29 7b 3d 7a 2e 73 39
       -0.3103151 -0.17879622 0.061318684 0.000231916
0001a0 c2 f0 10 be f7 62 01 3d d4 fe 48 3c 80 0c 63 3d
       -0.14154342 0.03158852 0.012267787 0.055431843
0001b0 5e fd a4 be 45 20 59 3c a9 3e 28 be 80 e2 06 bb
       -0.32224554 0.013252323 -0.16430153 -0.0020581782
0001c0 d2 df db 3c c7 59 07 bf fa c1 e9 bd 05 7d b3 be
       0.026840124 -0.52871364 -0.11413951 -0.3505632
0001d0 2c 70 ca be 88 8d 1a be 01 3f f7 3c 49 8c 14 be
       -0.39538705 -0.15093052 0.03018141 -0.1450664
0001e0 b0 45 d1 bd 2a f1 ae bd 5f 0c 21 be e7 4a 1b be
       -0.1021837 -0.08542092 -0.15727375 -0.15165292
0001f0 83 db 42 3e 67 0a bb bc 34 cf 88 bd 3e 8f 09 3d
       0.1902905 -0.022832109 -0.06680146 0.033583872
000200 01 b3 1f 3e 6f a9 e0 bd 6b 2f a2 3d 36 bc ba 3d
       0.15595628 -0.10969817 0.079192005 0.0911793
000210 53 60 af bd 8d cd e7 3d ea 55 17 ba 08 e2 59 3c
       -0.08563294 0.113185026 -0.0005772995 0.013298519
000220 26 7a 69 3f c9 d8 d8 bd af 6c df bd d5 04 a5 3b
       0.9120201 -0.105882235 -0.109094016 0.0050359764
000230 00 65 8a 3d 7c 7b 69 3d 01 cb 38 bf 7d e9 f6 bd
       0.067575455 0.05700253 -0.7218476 -0.12056253
000240 cc 43 36 3e ac 83 62 3e 41 c0 83 bc 60 af 43 3f
       0.177993 0.22120541 -0.016082885 0.76439476
000250 e2 d3 08 bf 91 ba 37 bf e4 3b 71 bd 21 ae 02 3e
       -0.5344831 -0.7176905 -0.058895007 0.12761737
000260 a8 4a 6e 3d d7 d2 99 bf ab 96 60 bc 52 ea cf bd
       0.058176666 -1.2017468 -0.013707797 -0.10152115
000270 21 6d 4b bd bc 9e 1d bd b2 3c e4 bd 95 8f 91 3d
       -0.04966462 -0.03848146 -0.11144389 0.07107464
000280 c3 39 a3 be 6a c0 33 3c 46 1b 1a be e8 31 7c be
       -0.31880006 0.010971168 -0.15049466 -0.24628413
000290 6b 93 e1 3e 5d 45 b6 3b a6 98 18 be c9 53 7c 3d
       0.44057783 0.005562468 -0.14901981 0.06160334
0002a0 ec f8 1e 3d 92 f8 70 be 21 5e 6b bd 11 9e 9c 3d
       0.03881161 -0.23532322 -0.057462815 0.07647336
0002b0 6a 20 22 be 64 cc 97 be ff 5a 23 3d 31 02 3d be
       -0.15832677 -0.29648125 0.039881703 -0.18457867
0002c0 af 54 1b 3d 45 1e 3d 3e ce 44 51 3d 85 f4 2c 3e
       0.037922557 0.18468578 0.051091008 0.16890152
0002d0 42 73 5d be 02 5a e9 3c 8b e4 48 3e db 54 1e 3f
       -0.21625999 0.028485302 0.19618432 0.6184823
0002e0 2f 1d 1e be 5a f5 a8 3d 6a 73 0d be de 85 78 3e
       -0.1544082 0.08249922 -0.13813558 0.24269816
0002f0 20 ce 5e 3d 0a b4 97 3c 17 c2 3c bc f1 eb 04 3e
       0.054395795 0.018518467 -0.011520884 0.1298063
000300 14 5b 13 be f2 06 48 3c c8 c9 e4 3d 78 db 32 be
       -0.14390212 0.012208687 0.11171299 -0.17466533
000310 70 83 e4 3d ec 71 71 bd 7e 32 14 be c5 88 2b be
       0.11157882 -0.058946535 -0.14472386 -0.16751392
000320 aa a9 dd 3e 6e 46 ba 3d 0a b1 40 be be a0 c5 be
       0.43293506 0.09095465 -0.18817535 -0.385992
000330 da 7b 4e bf 34 bd d6 bd 8d 85 ad 3d 13 76 6b b9
       -0.8065773 -0.104853064 0.084727384 -0.00022455333
000340 ad ee 11 3e 5a 07 1b be a3 c8 71 be a7 3d 92 bc
       0.14251204 -0.15139523 -0.23611693 -0.017851664
000350 44 54 a4 3c 9f 9d 41 be 5a 27 64 3c 41 e1 83 bd
       0.020059712 -0.18907784 0.013925398 -0.06439448
000360 f5 2f ae bd 5f 5c c4 bb 6a 07 10 be bf bb 61 3e
       -0.08505241 -0.005992457 -0.14065328 0.22044276
000370 b2 8a d7 3d bc 37 0d 3c 18 20 71 3e 1c 1c 82 bd
       0.10524501 0.008619245 0.23547399 -0.06353018
000380 0f f1 bd bd 15 58 58 3a 3e c0 16 3e 1e 79 e2 bd
       -0.09274494 0.00082528713 0.14721772 -0.110582575
000390 f5 1b 1d bd 9e dc 71 bd c7 c6 de 3c 17 15 77 bb
       -0.03835674 -0.059048288 0.027194394 -0.003770178
0003a0 78 56 a1 3d 7d c1 c2 bd da 38 2d be 7d 4f 97 bf
       0.07877821 -0.09509561 -0.16916218 -1.1821133
0003b0 94 2c 41 3d fb 93 42 3c 59 c5 11 3d c1 5d ce 3d
       0.047161654 0.011876102 0.035588596 0.10076476
0003c0 13 0e cf 3c 61 4f 30 3e 21 cc d2 3c 21 ae 5f be
       0.025275266 0.1721778 0.025732102 -0.21843769
0003d0 78 3b e9 3e f3 f8 4d bc e0 3e 16 be d0 2b 20 3e
       0.45553184 -0.012571561 -0.14672422 0.15641713
0003e0 57 1e fa bd d1 1e 2d be e8 01 98 bd e4 44 4d be
       -0.12212818 -0.16906287 -0.074222386 -0.20045811
0003f0 2c ab 37 bd cd 52 0c 3e d6 35 ca 3d a4 7b 31 be
       -0.044840977 0.13703461 0.0987355 -0.17332321

actor.net.3.bias f4 [128]
000000 c2 77 f5 ba b6 1a 1b 3c 51 1e 8a be 2c 08 8a 3c
       -0.0018727707 0.009466818 -0.26976255 0.0168496
000010 5d 57 d8 3d e9 c3 d1 3d 47 34 bc be a9 80 17 bf
       0.10563538 0.10242445 -0.36758634 -0.59180695
000020 19 2f 91 be 04 9b 38 3d 2a 78 54 be 5c 7a fb 3e
       -0.28356245 0.04506971 -0.20748964 0.4911679
000030 93 75 c4 3d 44 a1 de be e3 83 d6 3c cc 4d 5d be
       0.09592738 -0.4348241 0.026185935 -0.21611708
000040 9d d3 49 bd 54 90 c7 3d 3d 29 48 be b0 3e dd 3c
       -0.049274076 0.09744325 -0.19546981 0.02700743
000050 e0 89 40 3d 8d 00 95 3c 4b 08 e3 3e d2 67 e7 be
       0.047006488 0.01818874 0.44342265 -0.45196396
000060 ab 9a e7 3e 29 cf b2 3c a6 86 d8 be 61 ba 37 3d
       0.4523519 0.021827297 -0.4229023 0.04485548
000070 da 92 ca be 7e ad 8e 3e 62 6e 86 be 22 e9 af bd
       -0.39565164 0.2786674 -0.2625609 -0.085893884
000080 04 03 03 3f e9 2a 6d 3c 05 9d ac be c0 fb c6 be
       0.51176476 0.014475563 -0.33713546 -0.38863945
000090 f5 a3 35 3d 53 46 18 3e 83 9a 43 bf 87 92 91 3d
       0.044345815 0.14870577 -0.7640764 0.07108026
0000a0 df 6f 5c 3d d6 08 d7 3e 81 e9 bf 3d 13 49 b0 3b
       0.053817626 0.4199893 0.09370709 0.005379805
0000b0 b9 34 aa be d1 a4 4b 3d a6 08 a7 3d 14 07 8a bd
       -0.3324335 0.049717728 0.081559464 -0.06739631
0000c0 bd fb f9 3d 42 bb e0 be dd 66 0a 3e 11 f5 14 3f
       0.122062184 -0.43892866 0.13515802 0.5818644
0000d0 06 35 9e be 13 36 c4 be 67 d1 fd ba 38 42 32 bd
       -0.3089983 -0.38322505 -0.0019364775 -0.043520182
0000e0 9f 0f 0b bf ca c2 c3 3d fd 65 79 bc 7c dd d0 3c
       -0.5432071 0.095586374 -0.01522207 0.025496237
0000f0 a7 e1 e0 be 95 b2 7e 3c dd e4 8a be f4 54 8d 3d
       -0.4392216 0.015545507 -0.27127734 0.06900969
000100 b8 b2 e4 3e 15 eb 75 3d ff 2a 86 be b7 33 09 bd
       0.44667602 0.060038645 -0.26204678 -0.033496585
000110 53 56 14 be 17 16 54 bf ee c7 57 3e 76 fc a4 be
       -0.14486055 -0.82846206 0.21072361 -0.32223862
000120 86 6b 34 3d 7b 30 9d 3d 07 97 86 be d1 9f 1a ba
       0.044047855 0.076752625 -0.262871 -0.0005898448
000130 ce cf e3 bb 06 11 f8 3e f1 48 85 bd fb 35 f7 3d
       -0.0069522625 0.48450488 -0.06508053 0.12070843
000140 81 37 07 3e df 9c c6 be 7d 8c 08 be b1 55 0a 3f
       0.13204767 -0.38791558 -0.13334842 0.54037005
000150 7b 87 01 3e db ff b1 be 84 28 4d 3d 2c 59 d3 bd
       0.12649338 -0.34765515 0.050087467 -0.103197426
000160 df 10 56 3d 3f 67 00 3e e0 06 c9 3e 89 0b 47 be
       0.052262183 0.12539385 0.39263058 -0.19437994
000170 b9 0e 89 bc f0 8e f4 3c e5 0a 9b be 9d 9f f1 3e
       -0.016730653 0.029853314 -0.3028175 0.47192088
000180 99 5c 28 3d 8a 0e 80 be c2 39 03 bf e0 34 6f 3d
       0.041103933 -0.25011092 -0.51260006 0.058400035
000190 e6 21 73 be fd e7 ea be 5b f7 a9 be cf ca 42 3d
       -0.237434 -0.45880118 -0.3319653 0.047556695
0001a0 92 0f 87 3d 3b 19 e5 3e 7e 02 6d 3d 39 5b 11 3d
       0.06594767 0.44745812 0.057863705 0.035487387
0001b0 f4 a6 ae 3e fc 77 db be 27 07 36 bf c3 d4 40 3d
       0.3411175 -0.42864978 -0.71104664 0.047077905
0001c0 ca 9d 9d 3e eb 4d 89 3d 26 21 93 be 72 77 a2 3d
       0.30784446 0.06704315 -0.28736228 0.07932939
0001d0 0c 46 df be 5a c2 33 3d 91 ff 38 bf 8c 43 95 3d
       -0.4360813 0.04388652 -0.72264963 0.07288274
0001e0 6e 11 bf bd f4 20 dd be bb ef dc be 22 40 cf 3d
       -0.09329496 -0.43189204 -0.4315165 0.10119654
0001f0 3e 6a fa 3e fc 22 b0 3c 73 8e 11 3f 2b 8a a7 be
       0.4890918 0.021501057 0.56857985 -0.327226

actor.net.6.weight f4 [6, 128]
000000 8c d3 82 3e e4 17 7b 3d b4 9e 35 3e 8d b7 06 3d
       0.25552022 0.06130208 0.17736322 0.03288989
000010 e7 12 c7 be 2f cb d6 be 67 15 df 3e ef 0d dc 3e
       -0.3888161 -0.41951892 0.43571016 0.4297938
000020 7b 04 60 3e 46 a1 f1 bd 80 12 19 3f d9 8e e4 bd
       0.21876709 -0.117983386 0.59793854 -0.111600585
000030 b4 73 6a be 66 50 d7 3d f0 ee a6 bd 89 84 fb bc
       -0.228957 0.10513382 -0.081510425 -0.030702846
000040 7a 09 aa 3e 0d dc 77 be 6b 9d b9 3e 4f f6 04 bc
       0.33210355 -0.24205036 0.36252913 -0.008115365
000050 ef 4a bb 3d 0e 16 27 3e 12 32 25 be 6c a1 92 3e
       0.09145152 0.16317007 -0.16132382 0.2863878
000060 76 c5 af be 54 01 e9 bb 8f 83 fe 3d 77 b4 c5 3d
       -0.34330338 -0.007110754 0.124274366 0.096535616
000070 90 c6 b4 3e 61 9b 09 bd 5e b3 2c 3e 7f 7e bc bd
       0.3530774 -0.033595446 0.16865298 -0.09203815
000080 8a dd e4 be fa 0b 9e 3e c5 aa 4d 3d cb b5 84 3e
       -0.4470027 0.30868512 0.050211687 0.25919947
000090 93 fd 1b 3e df 5d f7 bd 32 7d d1 3e ba 97 04 be
       0.1523345 -0.12078451 0.4091583 -0.12948504
0000a0 3f c8 94 bc 43 40 1c be b5 1b b6 be a6 07 d1 3d
       -0.018161891 -0.15258889 -0.35568014 0.10206537
0000b0 77 8f a8 3e 9f 46 90 bd 9e ab 7c be 0e 30 f0 3e
       0.32921955 -0.0704472 -0.24674842 0.46911663
0000c0 b3 ac ed bd 0e 50 a5 3e 40 ef b5 be 40 df 9f bd
       -0.116052054 0.3228764 -0.35534096 -0.078062534
0000d0 cc 67 99 3e 7b bc 94 3e ff 91 39 3e c0 7a 9c 3e
       0.29962003 0.2905005 0.181221 0.305624
0000e0 fc ad 66 3e dd e8 94 be fd 65 17 3e b8 79 44 3d
       0.22527307 -0.2908391 0.14784999 0.047967643
0000f0 a8 e7 a6 3e 9b fc 76 3e 82 ce 0c 3e 39 cb b9 be
       0.32598615 0.24119799 0.13750651 -0.3628786
000100 0a ef 75 be 4a 06 80 3e 50 03 5a 3d df f7 64 3e
       -0.24016967 0.25004798 0.053225815 0.2236018
000110 67 e9 0d 3e 58 bd 00 3f 61 47 15 be 8f 44 30 3e
       0.13858567 0.50288916 -0.1457801 0.17213653
000120 c7 8d 41 be 59 3b 5d be f3 66 79 3e d7 57 d1 bc
       -0.1890174 -0.2160467 0.24355678 -0.02555458
000130 bf 96 18 3d 41 c5 63 be 4e 10 96 3e cb 24 17 be
       0.037253138 -0.22243215 0.29309314 -0.14760129
000140 f5 95 36 be 2f 60 73 3e 70 9b c9 3e 21 bd 3d be
       -0.17830642 0.2376716 0.39376402 -0.18529178
000150 ed b1 ad be a0 cb 18 3e 82 d6 17 be 49 39 13 3e
       -0.3392481 0.14921427 -0.14827922 0.14377321
000160 0d f7 85 be 03 0b 88 be ed fd 57 be c5 c1 4c 3e
       -0.26165047 -0.265709 -0.21092959 0.19995792
000170 c8 9e 46 bd e1 46 6a 3e f3 2d 13 3e 27 5d 71 be
       -0.04849127 0.228786 0.14372997 -0.23570691
000180 a5 82 01 be ee ec c0 3e 9c 05 78 3e e2 6d 37 be
       -0.12647493 0.37680763 0.2422089 -0.1791301
000190 5e 20 6e 3e 6a e8 9d 3e 4a b6 95 3e 49 a5 6d bc
       0.23254535 0.3084138 0.29240638 -0.014504739
0001a0 1f a8 4a be f7 1d a1 be 8b a0 0d 3d 2f 92 76 3e
       -0.19790696 -0.31468174 0.034576934 0.24079202
0001b0 2d 2d 35 bd 76 aa 0e 3e 6b 71 00 3f 38 13 2f be
       -0.044232536 0.13932213 0.5017306 -0.17097175
0001c0 15 bf ea be 93 e9 71 be 1b 88 63 3e 99 ea a0 be
       -0.4584891 -0.23624258 0.22219889 -0.31428984
0001d0 cb 6e a1 3e 3c 95 50 bd 20 8f ca 3e 04 31 c9 be
       0.3152984 -0.05092357 0.3956232 -0.39295208
0001e0 b9 56 4d 3d 6c 89 08 3e 12 89 7e 3e 57 50 73 be
       0.050131533 0.13333672 0.24856976 -0.23761116
0001f0 b9 31 a6 be 88 c2 b9 3c 76 70 5d be cb 58 40 3e
       -0.3245981 0.022675768 -0.21624932 0.18783872
000200 00 66 1a 3d ce 16 d4 bc 8d b2 8b bd 87 7b 2c 3d
       0.03769493 -0.02588978 -0.06821165 0.042109992
000210 36 9c 2f be 27 19 0d be 55 d2 50 3e 3e 70 23 3e
       -0.17149433 -0.13779126 0.20392735 0.15960786
000220 4b ef 8c bd d7 73 87 3d a0 00 5d 3e fc 35 bb be
       -0.06881579 0.066138916 0.2158227 -0.36564624
000230 d1 8a 8a 3a 9b e6 7e 3e 88 cc 05 bd 23 9a f2 3d
       0.0010569935 0.24892657 -0.03266576 0.118458055
000240 68 96 36 3e e5 e2 d6 bb 9e 66 88 3e 70 c4 3a 3d
       0.17830813 -0.0065578097 0.2664079 0.045597494
000250 dc 3d d8 bd 72 58 70 bd 71 ca 88 be e3 ef 2e 3e
       -0.10558674 -0.058678098 -0.2671695 0.17083697
000260 19 a4 aa be 8f a8 b5 bd 9e 86 29 3e b4 8c ec 3b
       -0.33328322 -0.088700406 0.16555259 0.0072189216
000270 77 17 82 3e e4 c8 4e be 62 b4 e3 3c 8d 5f 15 bd
       0.25408527 -0.20193821 0.027795974 -0.036468077
000280 09 81 c0 be 21 02 f5 3d c1 7c c8 3d 25 14 0d 3d
       -0.37598446 0.11963297 0.0978942 0.03444304
000290 eb d9 fe bc d5 a0 5d be 08 19 e1 3e 6d 5e 8a be
       -0.03110977 -0.21643384 0.4396441 -0.27025166
0002a0 99 dc d6 3d d7 46 c0 be 7a 2f 10 be 76 54 2b 3e
       0.104912944 -0.37554047 -0.14080611 0.16731438
0002b0 83 cc 6d 3d 04 98 36 3d 1c 70 0e bc 8a 34 87 3e
       0.058056366 0.044578567 -0.008693721 0.26407272
0002c0 b7 fb 8a be 60 d1 94 3e ed 7b 80 3b 95 0b e7 be
       -0.27145168 0.2906599 0.003921023 -0.45126024
0002d0 e9 69 7b 3c b6 3d 5f 3e d6 71 d1 3d 72 89 93 3e
       0.015345075 0.21800885 0.102267906 0.288158
0002e0 ca cd bb 3e bf e6 48 bd 6d e0 41 bc 1b 2a d9 bd
       0.36680442 -0.04904818 -0.011833292 -0.10603734
0002f0 6b 66 83 3e f3 27 0b 3e e7 1b 2e 3e 4c a6 c7 be
       0.25664076 0.13589458 0.17002831 -0.38994062
000300 aa 16 c1 be 7f 62 75 3e 8a 63 04 3e fa 75 b8 3d
       -0.37712604 0.23963355 0.12928596 0.09006877
000310 8e e2 bd bd ab a3 ba 3e 08 5f 8a be a6 23 0e bd
       -0.092717275 0.36452994 -0.27025628 -0.034701966
000320 6f bf 1a 3d a9 d3 ac be ae b4 3b bd 35 24 ca 3d
       0.03778022 -0.33755234 -0.045826606 0.09870187
000330 d2 b3 3e bd c0 c4 a7 be f7 a2 fb 3d 8a 17 27 be
       -0.04655821 -0.32767296 0.122869425 -0.16317573
000340 2b cd 61 be 6f df a7 3e 83 ee 4e 3e 57 34 d8 be
       -0.22050922 0.32787654 0.20208173 -0.42227432
000350 36 4e 8a be 96 cb 21 bd b9 88 67 3d 65 de 33 be
       -0.27012795 -0.039500795 0.056526873 -0.17565306
000360 d3 82 17 be 5e 06 73 be 5f 12 1e be ef 7a 07 bd
       -0.14795999 -0.23732898 -0.15436696 -0.033076223
000370 73 f1 f1 3d 02 3b 11 bc af d4 89 3d c5 eb e7 be
       0.11813631 -0.008864166 0.06730019 -0.45297065
000380 02 bc 11 bd 34 9b c8 3e 8b 00 9e 3e db ee 1b be
       -0.03557969 0.3918091 0.3085979 -0.15227835
000390 09 6b ae 3e e9 25 a1 3e f4 36 17 3d bb 15 2b be
       0.34066036 0.31474236 0.03691764 -0.16707508
0003a0 c0 9a 4d be aa b8 e1 be a8 a1 0d 3e 71 3d 91 bd
       -0.20078564 -0.440862 0.13831198 -0.07091797
0003b0 a5 71 69 be 8f 38 98 3e 9f 27 83 3e ae f3 93 be
       -0.22797258 0.2973065 0.25616166 -0.2889685
0003c0 a2 ae 6e be 08 0f 06 be 26 d9 6a 3d e6 66 a4 bd
       -0.23308805 -0.13091671 0.057335995 -0.08027439
0003d0 46 c1 d8 3e 69 01 dc bd 0d b7 dc 3e 32 fe 96 bd
       0.42334956 -0.107424565 0.43108407 -0.07372703
0003e0 44 44 9a 3e 55 83 21 3e 14 96 6c 3e 90 13 66 be
       0.30130208 0.15772755 0.23104125 -0.224684
0003f0 d7 1a a7 be 5e b8 47 bd 9f 8b d2 be 3c 81 05 3d
       -0.32637665 -0.04875981 -0.41122147 0.03259395

actor.net.6.bias f4 [6]
000000 95 c5 25 bf da 88 cd be 4c 0b ac 3e 0f 8e a8 bd
       -0.6475461 -0.40143472 0.3360237 -0.082302205
000010 05 c7 5e 3e 8d 62 45 bf
       0.21755607 -0.771035

critic.net.0.weight f4 [128, 12]
000000 17 b9 67 be 8d 29 6f be 6b 2c 81 ba 4a 93 12 3d
       -0.226292 -0.23355694 -0.0009855157 0.035784997
000010 51 9a ab 3e 28 5e ad 3e 23 6a 03 3e db f4 d1 3e
       0.33516172 0.33860898 0.12833457 0.41007122
000020 79 e9 77 be a4 49 ae 3b 6c f2 8c be d7 37 84 bd
       -0.24210157 0.0053188372 -0.27528703 -0.06455963
000030 1e d2 04 be ee 11 ab 3c b7 69 fa 3a cd 95 ba 3c
       -0.12970778 0.020882573 0.0019104992 0.022776509
000040 00 0b 18 3e 27 c6 45 bf bf 80 b1 3e 47 4e 88 3c
       0.14847946 -0.7725548 0.34668538 0.016638888
000050 15 b3 63 3e 91 cf 7d 3e 44 6c 42 3d b5 26 f5 bc
       0.22236283 0.24786212 0.04746653 -0.029925684
000060 77 22 41 bb d0 aa 19 bc aa 26 0e 3c d5 ef fa bb
       -0.0029470006 -0.009379104 0.00867621 -0.0076579847
000070 dc cd 3b bf 00 14 19 3e 4d bd 06 be 23 dd 1d be
       -0.7336099 0.14949036 -0.1315815 -0.15416388
000080 aa a3 0f bf 37 6a be bd 8f f6 b7 bd f3 9e ed bc
       -0.56109107 -0.092976026 -0.08982574 -0.029006457
000090 55 96 45 be c0 f4 a8 be b3 f2 02 bd cb b6 86 bb
       -0.19295628 -0.3299923 -0.031969737 -0.004111146
0000a0 04 71 9c 3e 78 d8 fa 3c 68 db c9 3e 61 08 e1 3d
       0.30554974 0.030620798 0.39425206 0.10987926
0000b0 b2 71 69 3e 8d de 91 be 05 a3 d5 bc 89 f5 69 bd
       0.22797278 -0.28490105 -0.02607871 -0.057118926
0000c0 34 0a a2 be bc 30 11 3e 8f 5c 9e 3c a3 68 17 bb
       -0.3164841 0.14178747 0.019331245 -0.002310314
0000d0 4c 47 96 be 15 fc 3d 3d a4 dd 35 3d 90 44 69 3d
       -0.2935127 0.046382982 0.044400826 0.056950152
0000e0 4e b6 12 bf 23 0d 0c 3e 7b bc 2c 3d 82 5d 9f 3e
       -0.57309425 0.13676886 0.042171936 0.31126028
0000f0 ae a0 b2 bc 34 48 e7 bd b4 8f f6 bc ae 42 e9 bc
       -0.021805134 -0.112930685 -0.03009782 -0.028474178
000100 91 a3 e3 be 82 a6 04 be 5a 10 24 3d fb b9 90 be
       -0.4446073 -0.12954143 0.040054657 -0.28266892
000110 ae 13 93 be 83 23 85 be 68 11 ac 3d 12 3e 0f bd
       -0.28725952 -0.26003656 0.084017575 -0.034971304
000120 23 9f c3 bd 30 8b 60 be 5b 26 26 bd 4e fc c3 3c
       -0.09551837 -0.21928096 -0.040563922 0.02392402
000130 79 9e a8 3e ef ac b7 3e 94 56 36 3e a8 5d 8b 3d
       0.32933405 0.35874125 0.17806464 0.06804973
000140 38 37 8e be f8 97 22 3e 6f b1 a6 3c 3c 4d bf 3a
       -0.27776504 0.15878284 0.020348279 0.0014595161
000150 89 5e a8 3d 9a ec 2a bd dd 40 c1 bc 8f f2 18 3d
       0.08221156 -0.041729547 -0.0235905 0.037340697
000160 66 80 6b 3e 8d 77 20 bf 11 92 0e be 62 74 40 be
       0.22998199 -0.6268242 -0.13922907 -0.18794397
000170 e5 37 ab be 43 6f 9f 3c 8c 75 52 3c a8 ff 49 3d
       -0.33441082 0.019462233 0.012845408 0.04931608
000180 20 a4 61 bd 8a ca 3e bd 7f c0 fa 3b 9d 66 f8 bc
       -0.055088162 -0.046579875 0.007652342 -0.030322367
000190 36 28 b6 be 54 6b cc 3e 2d 17 08 be 78 86 6f 3d
       -0.35577554 0.39925635 -0.13290091 0.05847785
0001a0 a9 de 02 bf 31 2a 29 be 0d 5a 88 be 3b af 95 bc
       -0.51121 -0.16520001 -0.26631203 -0.018272033
0001b0 43 96 d2 be 06 ae 30 3e 50 6b a9 3c 11 ad e8 ba
       -0.41130266 0.17253885 0.020681053 -0.0017751773
0001c0 88 5c aa 3e 81 8a ec be 67 6b a2 3e f1 27 01 bd
       0.3327372 -0.4619942 0.31722566 -0.03153223
0001d0 91 8d 29 be a7 3c d2 be d3 b3 b4 3d fa 5e b2 3c
       -0.1655791 -0.410619 0.08823361 0.021773804
0001e0 6f 0c db be ef 3a fa bd 12 32 10 3c ef 0c 9d bb
       -0.42782924 -0.12218272 0.008801 -0.0047928016
0001f0 dc 14 f6 3c 9d ff 01 be c8 7b 86 3c 9c de d5 3e
       0.030039243 -0.12695165 0.016416445 0.417714
000200 2d 08 bc 3e 7f a0 5f bd 2b cc 12 3d 92 ca 22 be
       0.36724988 -0.05459642 0.03583924 -0.15897587
000210 9c 2f 44 3d da 62 d5 bd 3b b2 06 be f6 f0 71 3d
       0.047896966 -0.10419245 -0.13153927 0.05906769
000220 33 82 3d 3e 50 e0 fb bd 08 59 72 3e ce 48 f9 bc
       0.18506698 -0.122986436 0.23666775 -0.030430224
000230 5c 54 f3 3d 32 0c 15 bd f1 c0 18 be 65 f4 4c bc
       0.11881325 -0.036388583 -0.14917351 -0.01250944
000240 73 2e d1 be 86 99 02 be 25 68 45 bc 9a 2e 54 bc
       -0.4085575 -0.12753877 -0.012048756 -0.012950564
000250 8a 5c bc 3d b4 bd a6 3e fc d2 86 be 64 5a ac 3e
       0.09197338 0.32566607 -0.26332843 0.33662713
000260 73 fd b8 be d2 7b 5f bd e0 1b 88 be c0 81 a0 3c
       -0.36130866 -0.054561444 -0.26583767 0.01959312
000270 8d 30 5f bb a3 1a 25 be 27 ac 20 3c c7 2c be bc
       -0.0034056038 -0.16123442 0.009806669 -0.02321471
000280 72 97 b1 bb af 42 11 bf ba eb 6d 3e 00 6e 72 bc
       -0.005419665 -0.56742376 0.23234454 -0.014796734
000290 56 1a 7d 3e c6 24 9e bd 33 ed 8b bd 40 27 85 bb
       0.24717078 -0.07721858 -0.068323515 -0.004063517
0002a0 61 1e d3 3d b1 9d cc 3c 2a 70 b8 3c 50 a2 90 3a
       0.10308529 0.024977537 0.022514421 0.0011034701
0002b0 a3 10 cd be ba 1f 02 bf 2b 2e a8 bd 5d 9e cc bd
       -0.40051755 -0.5082966 -0.08211931 -0.09991143
0002c0 09 70 93 be 1b a8 5e be 89 c5 98 bd 0c d3 ca ba
       -0.28796414 -0.21743815 -0.07459552 -0.0015474274
0002d0 86 8d 28 bd 49 45 bc bd 35 29 4e bd 61 f6 75 3d
       -0.041150592 -0.091929026 -0.050332267 0.06004942
0002e0 38 19 04 3e 4f b7 a8 3d 98 8e f8 bd a8 31 b5 be
       0.12900245 0.08238088 -0.121365726 -0.35389447
0002f0 2b 97 85 3d 4d f7 dd be 3e c9 24 3d 72 d0 8d 3e
       0.065229736 -0.43352738 0.040230982 0.27698094
000300 58 30 c6 bd 80 06 fe bd 64 1d f6 bd 9b 51 ed bd
       -0.096771896 -0.124035835 -0.120173246 -0.11587831
000310 93 4f 97 3e 71 f8 3c bd 36 1c 1f 3e 3e 3a 18 3e
       0.29552898 -0.04613537 0.15538105 0.14865968
000320 46 b7 60 be 93 1d 17 bd 03 c9 11 be b3 9e bd bc
       -0.21944913 -0.03689344 -0.14236836 -0.023146963
000330 ca 3b e2 bd b8 40 71 bd f5 e2 1b bd 29 46 f3 ba
       -0.1104656 -0.05889961 -0.03805824 -0.0018560338
000340 c8 a8 0a bf 20 6c 2d be dc 31 a5 bd 9f 0f c0 3c
       -0.5416379 -0.16935778 -0.080661505 0.023444949
000350 06 08 08 bf 45 f2 2c 3e 0f 59 6e bd 5c 40 87 bc
       -0.5313724 0.16889293 -0.0581904 -0.016510181
000360 b1 8f e4 bd cb ac f2 3c ef ad df 3b b9 66 74 bc
       -0.111602195 0.02962341 0.0068261544 -0.014917069
000370 2a 15 f7 be a3 00 b2 3e 0b 07 4b be 50 53 0a be
       -0.48258334 0.3476611 -0.19826905 -0.13508344
000380 99 ca 89 be b0 77 e2 be 26 bd fa bd 79 12 a5 bd
       -0.26912382 -0.4423194 -0.122431085 -0.08060164
000390 ae 2b a0 be 61 b5 5f bd ae d8 ca bc 2c 77 3c 3c
       -0.31283325 -0.054616336 -0.024761524 0.011503022
0003a0 ca 26 0e 3f 6b 45 9e be 2e 8b ed bc 2b e7 bb bd
       0.5552794 -0.30912337 -0.02899703 -0.09174951
0003b0 89 9f 44 bd d2 17 63 bd 1c 91 60 be 24 27 dd bc
       -0.048003707 -0.05544264 -0.21930355 -0.026996203
0003c0 ca a8 26 3d 43 0c bb be da 23 11 3c 27 41 d4 bb
       0.040688314 -0.36532792 0.008858645 -0.0064774933
0003d0 c8 8c 2f be e1 a0 18 bf e3 4a 86 3e 43 31 15 be
       -0.17143548 -0.5962048 0.2622901 -0.14569573
0003e0 e0 45 45 3e df c0 bc be 78 7f 9f bd 9c f7 20 bc
       0.19264936 -0.368659 -0.077879846 -0.00982466
0003f0 3e b2 58 be 0c 39 18 be ef 28 0d 3c a3 31 4a bd
       -0.21161744 -0.14865512 0.008615716 -0.049363744

critic.net.0.bias f4 [128]
000000 b4 2b 99 be be 30 f2 bd 1d a9 94 bd e8 c6 64 be
       -0.29916155 -0.11825703 -0.07258818 -0.22341502
000010 84 72 ae 3d 04 34 e6 bd e9 51 eb bd 52 b4 3f be
       0.08517936 -0.1124039 -0.114902325 -0.1872113
000020 be 5b 55 bd 94 18 c8 bd 3a 63 bb be d5 08 54 be
       -0.052089445 -0.09770313 -0.3659914 -0.20706494
000030 9e 02 85 be a5 78 79 be 45 c0 f9 3b d7 05 14 be
       -0.2597856 -0.24362428 0.0076217973 -0.14455353
000040 3e ff 4d be 2b 24 b5 3c e7 62 e9 bd 48 27 3a be
       -0.20116898 0.022111973 -0.11395817 -0.18179047
000050 b6 48 80 be f5 e0 65 be 10 71 9a be 36 87 6f 3d
       -0.25055474 -0.22449096 -0.30164385 0.058478557
000060 e1 28 93 bd d5 08 80 bd 40 49 23 be f5 ca 19 be
       -0.071855314 -0.062516846 -0.15945911 -0.15018828
000070 0d 75 15 3d 20 42 e7 bd ca 5c 3e be 34 a9 b5 bd
       0.03648858 -0.11291909 -0.18590084 -0.088701636
000080 38 8b 67 be cd 0b 9a 3d 75 e2 b9 3c 71 c3 f2 3d
       -0.22611701 0.07521782 0.022690991 0.11853684
000090 cf 84 9d 3d 07 ec 68 be 36 c9 05 bd 9d cb 06 be
       0.07691347 -0.22746287 -0.032662593 -0.1316361
0000a0 3a c6 77 be d4 00 17 3e 76 48 c8 bd 7b 92 59 be
       -0.24196711 0.1474641 -0.09779446 -0.21247284
0000b0 c6 d6 8a be f2 96 9e 3d 1c a0 e2 bb 1a 23 0f be
       -0.27116984 0.07743634 -0.006916059 -0.13978234
0000c0 ac e9 5a be fe 87 ca be 54 c2 71 bd bf 75 51 bd
       -0.21378201 -0.3955688 -0.059023216 -0.051137682
0000d0 51 bd b6 bc 6a dc 3e bd c5 f5 01 bd e8 14 63 bd
       -0.02230707 -0.046596922 -0.031728525 -0.05543986
0000e0 15 14 32 be fa 7c 64 3d fb 20 08 be cd 24 26 be
       -0.17390473 0.05578325 -0.13293831 -0.16224976
0000f0 0a a7 32 3d e8 dd aa bd 94 4b aa be b8 63 4f bc
       0.043616332 -0.083431065 -0.33260787 -0.012658052
000100 68 fa 41 be d7 e3 eb bd 38 09 fe 3d 7e 4b 82 be
       -0.18943179 -0.115180664 0.12404102 -0.2544822
000110 26 3d 36 be a5 a7 6d 3d a2 1c 6e bd 09 04 7a be
       -0.17796764 0.058021206 -0.058132775 -0.24415602
000120 f1 d9 46 be fa 08 31 be c9 7c 41 be ed 1f df bd
       -0.19419076 -0.1728858 -0.18895258 -0.10894761
000130 d0 24 5f bd d7 91 03 be 9d 2e 55 be e3 5b 96 be
       -0.054478467 -0.12848602 -0.20818563 -0.2936698
000140 83 29 6d be e1 1a d9 be 5a 14 7f 3c 72 36 11 be
       -0.23160367 -0.4240332 0.015568817 -0.14180925
000150 8b 31 48 3c fd 2e 5d bc a6 3a 41 be 72 23 88 3e
       0.012218843 -0.013499972 -0.18870029 0.26589543
000160 d4 7e 66 be 9d 4b b9 bd ef 0e 2e be 3e 6d 24 3e
       -0.22509319 -0.09047625 -0.16997884 0.16057298
000170 1d 5c 4e be 75 86 f1 bd 1a f6 32 be 9f 24 d0 bd
       -0.20152326 -0.11793224 -0.17476693 -0.10163235
000180 a0 e2 3b be 96 17 35 be b2 d3 b4 bc 1a b9 2a 3d
       -0.1834817 -0.17684779 -0.0220736 0.041680433
000190 79 c0 56 be 7b af 26 3c a4 73 fb bd 15 92 07 bd
       -0.2097186 0.010173674 -0.12277916 -0.0330983
0001a0 cd dc 2c be 27 e2 7a 3d 44 bb 1e be c0 b6 58 bd
       -0.16881104 0.061250832 -0.15501124 -0.05290866
0001b0 54 f2 47 be 7b 5c a3 3d d8 82 e0 be da 1d 3b bc
       -0.19526035 0.079766236 -0.43849826 -0.011420691
0001c0 d1 1e 16 bc c8 43 9f be d9 73 bb bd 83 31 b9 be
       -0.009162621 -0.311064 -0.091529556 -0.36170587
0001d0 59 f7 bc bc a2 78 47 be 9b 12 0c 3e 5d ae 61 be
       -0.023067163 -0.19479612 0.13678972 -0.2203917
0001e0 0c 30 13 3e ee fc a0 be 8f 0b 35 be f9 01 e0 be
       0.14373797 -0.3144297 -0.1768019 -0.43751505
0001f0 c1 8f 5d be 99 31 61 be ca a2 8b bd 14 2d 19 be
       -0.21636869 -0.21991576 -0.06818159 -0.14958602

critic.net.3.weight f4 [128, 128]
000000 c6 29 c9 be bb 68 dd 3d 25 ac 79 bd 92 06 91 bd
       -0.39289683 0.108109914 -0.060955185 -0.07081331
000010 08 51 af 3d fc 08 49 3d 53 a8 cb be ea 33 a9 3d
       0.08560377 0.049080834 -0.3977686 0.08261855
000020 e0 2e 29 bf af 89 2a 3e 2b 9b 01 be 2f b5 bd be
       -0.6608715 0.16654085 -0.12656848 -0.37052295
000030 73 4f 8a be 6c fd 21 3e e6 31 25 bd 7e ab 2f bd
       -0.2701374 0.15819329 -0.04033079 -0.042888157
000040 4f 76 37 be e6 93 55 be 27 c6 cf bd 21 f1 04 bf
       -0.17916225 -0.208572 -0.101452164 -0.51930434
000050 40 5d 39 bb 9d 3a 6e 3d ab 8e 82 be e1 3f 3e be
       -0.002828434 0.058161367 -0.25499472 -0.18579055
000060 19 f5 8e 3e 17 aa ac bd 16 fc 7c 3e 0f 76 3a 3e
       0.2792137 -0.084308796 0.24705538 0.18209098
000070 f6 93 09 3d 6b 26 9b 3d f4 45 ad 3d 84 4e c6 3e
       0.033588372 0.07575687 0.08460608 0.38731778
000080 ee 91 50 bd 0c a4 a3 be 19 21 99 3e a3 3d 31 bd
       -0.05092042 -0.31961095 0.29908064 -0.043271672
000090 df a5 fb be 18 a3 87 bd e5 35 50 3e 61 91 20 bf
       -0.49149987 -0.066229045 0.20333059 -0.6272183
0000a0 2d bd 2e bf 5b 74 b2 3d 7f 71 09 3e db e2 69 3d
       -0.6825741 0.08713599 0.13422202 0.05710111
0000b0 bb 70 90 be 3e b9 bf be b5 28 40 bf cc c2 ad be
       -0.28211007 -0.37446016 -0.75062114 -0.3393768
0000c0 c1 fa 69 3c d3 b3 24 be f4 a7 96 bd 55 81 14 3d
       0.014280976 -0.16084222 -0.07356253 0.036256153
0000d0 a3 22 2d 3e cf 52 1c be db 11 b8 bd 39 c3 48 3e
       0.16907744 -0.15265964 -0.08987781 0.19605722
0000e0 20 af ce 3d 9f 61 76 bc 37 68 5f be 57 d0 3f bd
       0.10091996 -0.015037923 -0.21817099 -0.046829548
0000f0 53 c5 20 be 72 a8 80 be 5d 80 84 bd 00 4b d8 3e
       -0.15700273 -0.25128514 -0.06469796 0.4224472
000100 c1 17 8f bd ae 37 cb 3e 9b ad ae be 10 18 83 3d
       -0.069869526 0.39690918 -0.34116825 0.06401074
000110 b7 43 ba bd 22 48 f2 be 13 99 e8 bb 66 c0 d8 bd
       -0.09094947 -0.47320658 -0.007098326 -0.10583572
000120 0e ac 1a bf 27 fa 8f bd 6f 6a 7e be 63 4d 65 3e
       -0.60418785 -0.07030135 -0.24845289 0.22392802
000130 a2 fe 0e 3e cf 8e 0e be af 34 2c bd 4b 3e 3e bb
       0.13964322 -0.13921665 -0.04204243 -0.0029028829
000140 58 0a 35 3e 37 d8 90 be 72 4d 56 bf ea 0f 92 bd
       0.17679727 -0.2828996 -0.8371192 -0.071319416
000150 b5 68 69 be 3e 8c 0c 3d da a3 03 bf bd bd b8 bd
       -0.22793849 0.034313433 -0.5142189 -0.09020565
000160 68 a9 ef bd 3e 47 e3 bd d9 e8 25 3e 56 dd 51 3e
       -0.117022336 -0.11097573 0.16202106 0.20494589
000170 a7 df d9 be d0 fd ba 3e 75 fd 21 3e bc 8d 93 3c
       -0.42553446 0.3652177 0.15819342 0.01801192
000180 9d 98 3c 3e 12 59 4c 3e b2 5b 14 bf e6 cd c9 3d
       0.18417592 0.19955853 -0.57952416 0.09853725
000190 d4 e7 8f be a1 70 a1 3e d0 41 8f be 2d a0 b1 bc
       -0.28106558 0.31531242 -0.27979898 -0.021682823
0001a0 da 0d cb bd f2 f4 15 be 64 44 84 3c 51 5a cd bd
       -0.09914751 -0.1464422 0.016145892 -0.10026992
0001b0 15 6a 4b 3d d0 a2 8c be a6 9e f4 3d 6a 12 22 3e
       0.049661715 -0.27467966 0.11944322 0.15827337
0001c0 18 de 0a bf 25 9f 6b 3c 61 a6 6a be 20 67 5c 3e
       -0.5424514 0.014381205 -0.22915031 0.21523714
0001d0 69 4f 5d bf 2d 6c ab be 2e 73 86 be 4a 14 32 3d
       -0.86449295 -0.3348097 -0.2625975 0.04347638
0001e0 34 31 13 3d 4d 60 ac be 24 10 9e be 45 91 38 be
       0.035935596 -0.33667222 -0.3087169 -0.18024166
0001f0 30 7b a7 bd 39 82 72 3e d5 3b 84 3e ef 23 dd be
       -0.08177793 0.23682489 0.25826898 -0.43191478
000200 71 50 0f 3c 38 cc 2b 3e c6 49 f4 3d ef c7 f3 3d
       0.008747206 0.16777122 0.11928134 0.11903369
000210 80 07 0b bf 20 0a 00 3d 43 71 6b 3c 6e e6 df bd
       -0.5430832 0.031259656 0.014370265 -0.10932623
000220 a5 5c da be f4 9d 23 3f 73 35 37 3d 8b 41 8c 3d
       -0.42648807 0.6391289 0.044728708 0.06848439
000230 ec dd 17 be ca 3d 98 3e b9 03 6a 3b 4f 92 fc bc
       -0.1483075 0.2973464 0.0035707785 -0.030831484
000240 ed fd 18 bd d2 22 b6 bc ed d3 7c bc ae 11 98 3e
       -0.037351537 -0.0222334 -0.015431386 0.2970099
000250 37 a1 a4 3e 1f 45 59 3d a3 cd b9 3c 28 06 2b bf
       0.32154247 0.053044435 0.022681063 -0.6680627
000260 f0 23 98 3e 56 ee 43 be c1 b0 89 bb 47 7f 0a be
       0.29714918 -0.19133887 -0.004201979 -0.13525115
000270 1a 57 bd be 13 b9 6e bd 24 45 58 3e b0 11 c2 3e
       -0.36980516 -0.05828197 0.21120125 0.3790412
000280 ba 9c 75 be 00 04 2a bd e9 46 04 bd f6 07 59 3d
       -0.23985568 -0.04150772 -0.032294188 0.052986108
000290 9b 39 30 3e 4d 97 58 be d7 d9 9e 3d 53 af 43 3e
       0.17209475 -0.21151467 0.077563934 0.1910985
0002a0 07 30 da 3d 8d a4 cc 3e d9 c2 07 3f 85 98 3a 3d
       0.10653692 0.39969292 0.5303169 0.04555561
0002b0 3d 78 40 3d 04 2f ac be 39 4d ba 3e d7 87 ed bd
       0.04698967 -0.3362962 0.3638704 -0.11598175
0002c0 ba c1 62 3e 2f 41 06 be 64 10 54 3c ca 39 89 bc
       0.22144213 -0.13110803 0.012943361 -0.016751189
0002d0 fa 7d a1 be 1b 71 bd be c4 3b 0d 3e 30 46 a7 3e
       -0.31541425 -0.37000355 0.1379233 0.32670736
0002e0 dc 69 84 3d 3e 04 45 be 3a 18 19 3f 4d e1 88 be
       0.064655036 -0.192399 0.5980259 -0.2673439
0002f0 d9 29 38 3e 2c ec 1c be e4 b0 5f be b7 16 af 3e
       0.17984714 -0.15324467 -0.21844822 0.34197018
000300 65 ab 97 3e 57 f4 9f 3e 29 89 df 3c 10 5a db 3d
       0.2962295 0.31241104 0.027287083 0.107105374
000310 5d 55 61 3e ee a7 ff 3d 2c 86 35 3e b4 2a be 3d
       0.2200522 0.12483202 0.17726964 0.09285489
000320 9d a6 d5 bd e4 64 d9 3d e9 16 cb bd 16 72 a1 3c
       -0.104321696 0.106149465 -0.09916479 0.01970772
000330 5d 7a a7 be 59 f2 40 3d 47 8b 47 be ff 49 91 be
       -0.32710543 0.04710612 -0.19486724 -0.28376767
000340 54 3c 54 bd 63 de ca be 30 44 da be 40 3b 93 3c
       -0.051815346 -0.39622793 -0.42630148 0.017972589
000350 5c ba fa be 65 f1 62 3e 59 22 ea 3e 1f 8f 4a be
       -0.48970306 0.22162397 0.4572933 -0.19781159
000360 7b 4b 21 bd fe c3 d4 ba 8d e8 16 be 7f 6f 1d 3f
       -0.039378624 -0.0016232727 -0.14737149 0.61498255
000370 c2 03 1d 3d 09 ca 01 3f b4 05 42 3c bd e7 a2 be
       0.03833366 0.50698906 0.01184218 -0.31817427
000380 58 5a c1 bd 7c ab 8b bd 14 69 0d 3e 8e 1f 4c be
       -0.0944106 -0.068198174 0.13809615 -0.19933912
000390 d5 d6 0c bf fa c8 0a 3e 71 26 8f bd 8e 45 f4 bd
       -0.5501531 0.13553229 -0.06989754 -0.11927329
0003a0 74 69 15 3e 16 c1 53 be 4c 34 01 3e 25 30 22 3e
       0.14591008 -0.20679125 0.12617606 0.15838678
0003b0 71 47 9c be 56 d9 28 3f 5a 73 bf be 40 73 0a bf
       -0.30523255 0.6595663 -0.37392694 -0.5408211
0003c0 f0 fb 18 be 12 89 22 bf 48 ce fb bd b3 03 10 bf
       -0.14939857 -0.634904 -0.122952044 -0.56255645
0003d0 0f 9e 06 3e e4 b5 1d be a2 e8 4f 3f 6d b8 26 bc
       0.13146232 -0.15401417 0.81214345 -0.0101758065
0003e0 1e 68 99 bc e4 a9 93 3e a1 6e ba be 5b c7 6b be
       -0.018726405 0.28840554 -0.36412528 -0.23025267
0003f0 19 04 58 bc 45 ee 91 3e 50 35 9d 3e 5a 20 05 bf
       -0.013184571 0.28502098 0.30704737 -0.5200249

critic.net.3.bias f4 [128]
000000 d6 00 05 3e 1c 3a 60 be e6 1c 54 3e d5 ed 3d bd
       0.129886 -0.21897167 0.20714149 -0.046369392
000010 69 ab 20 be 85 f8 83 3d ad 74 86 3d 15 35 24 3e
       -0.15690388 0.06443886 0.06565223 0.16035874
000020 3b da 2d 3e 75 d9 96 be c4 4e e5 bc 83 bd ca bc
       0.1697778 -0.29462782 -0.02799166 -0.02474857
000030 0c b7 b7 bd 8b 87 fd 3d 7c eb 82 bd bd 28 6d bd
       -0.0897046 0.123793684 -0.06392571 -0.05790018
000040 0a a8 48 3d 4e f1 d6 bd f9 56 0f be 6a e4 83 bc
       0.04898838 -0.10495244 -0.13998021 -0.016100127
000050 b0 39 70 be 00 4b 6e bd 21 b3 8b bc 42 e1 3f bc
       -0.23459506 -0.058176994 -0.017053189 -0.0117114205
000060 6b 34 27 3d 17 f3 16 3e b7 8d 05 be b7 96 92 bd
       0.040821474 0.14741169 -0.13042341 -0.07157653
000070 47 16 e7 bd 98 f9 ae bc fd 1d e5 bc 00 59 e1 be
       -0.11283546 -0.02135925 -0.027968401 -0.44013214
000080 c3 b5 72 3d 45 d3 32 bd db 76 a4 bd 64 f0 21 be
       0.059255373 -0.043658514 -0.080304824 -0.15814358
000090 0e a9 38 3d 70 6b 15 3d 56 7d 70 be c8 46 db bc
       0.045083098 0.036479414 -0.23485312 -0.02676715
0000a0 9d 1f 48 3d 52 71 37 bd 8e b6 fc 3d e1 24 ff bc
       0.048858274 -0.044785805 0.12339507 -0.031145515
0000b0 c3 72 0d bc 37 56 16 3e e7 79 ef 3d 24 22 93 3d
       -0.008633318 0.14681326 0.11693173 0.07184246
0000c0 19 41 21 3d f9 c6 32 bb 5c 12 1f 3e c8 a9 1d 3e
       0.039368723 -0.0027279241 0.15534347 0.15396798
0000d0 ec 35 c9 3d dc 3f e8 bd 65 8e b0 3d a8 67 56 3e
       0.09824738 -0.11340305 0.086209096 0.20937979
0000e0 47 43 52 be 73 65 e3 3d 75 53 b7 3d 49 5b 30 be
       -0.20533477 0.11103334 0.08951465 -0.17222323
0000f0 41 71 d3 3d fd 4c 69 3d b6 f4 9e bd 81 96 af 3d
       0.10324336 0.056958187 -0.07761519 0.08573628
000100 c8 fc 41 be f8 9c 62 be f8 ea 80 3c 3c 8d 76 bc
       -0.18944085 -0.22130191 0.015737042 -0.015048321
000110 f4 c8 2c bd 6b 78 1a 3d d8 ae 51 3e 32 92 0c be
       -0.04218383 0.037712496 0.20476854 -0.13727644
000120 ea 91 c8 3d 46 5d 2f 3e a5 31 b5 bd 64 fb 2c bd
       0.09793456 0.17125425 -0.088473596 -0.042231932
000130 d5 03 99 be ec 87 61 3d 8e 16 17 be d7 80 83 be
       -0.29885736 0.055061266 -0.14754698 -0.25684234
000140 40 83 23 3d 7c 5b bb 3d d0 5e f2 3d 29 71 c6 3c
       0.03992009 0.09148309 0.1183449 0.02422388
000150 13 68 ec bd e8 c4 17 3e 6d 37 0c 3c e1 3e 45 3d
       -0.11543288 0.14821208 0.008558136 0.04815567
000160 bd bb 45 be 0e bc 65 be 71 53 e9 b9 52 fc 92 bd
       -0.19309898 -0.22435018 -0.00044503392 -0.071770325
000170 cd 59 a5 b8 f9 c2 34 be 52 25 fc bd f0 0b ff 3d
       -7.88454e-05 -0.17652501 -0.12311806 0.12453449
000180 ac 56 5a 3c 77 9b 3c be 52 ee f6 be e3 e4 ad be
       0.013326328 -0.1841868 -0.482287 -0.3396369
000190 1e d4 80 bd 57 00 95 be cd a2 99 3c 97 08 c3 3d
       -0.06290458 -0.29101822 0.018754387 0.09523123
0001a0 e2 87 d4 ba 7e 13 9f bb 2f 8d a0 bd ca fb 26 3e
       -0.0016214813 -0.0048546186 -0.07839429 0.16306987
0001b0 45 4a bd be 21 79 43 3d 7c 95 c1 3c a2 d5 4a 3e
       -0.36970726 0.04772294 0.02363085 0.19808057
0001c0 e1 1a a1 be 00 29 ff bc 91 4e 25 3e 3d a2 37 be
       -0.3146582 -0.03114748 0.16143252 -0.17932983
0001d0 88 48 b0 be 88 94 06 3e 06 13 35 be 90 d6 e1 be
       -0.34430337 0.13142598 -0.17683038 -0.4410901
0001e0 02 82 a2 bd 35 68 7b 3d 66 e8 f8 3c 66 15 b0 be
       -0.07934953 0.061378676 0.030384254 -0.34391326
0001f0 39 28 4d 3d f2 3e d1 3d 73 fc bf be 00 33 28 be
       0.050087187 0.10217084 -0.3749729 -0.16425705
