Skynet/fight_day2/yongsun-v2.pth (torch, 153122 bytes, 11 tensors)

actor.net.0.weight f4 [128, 12]
-0.8874438 -0.06678377 0.0064657116 0.7191592 0.66801554 -2.405526 0.03609017 -0.5629205
-0.056004677 0.15656412 0.16836663 0.08160861 -1.8148397 0.58323896 0.10461129 0.037269272
-1.8323704 -0.054983795 0.05090042 -0.37978408 -1.1619416 -0.4425625 -0.018701125 0.020985538
-1.1554414 -0.5086882 -0.07122556 -0.04866159 1.138498 -0.46590635 0.4226512 0.02216375
-0.13736337 -0.7245279 -0.023627244 -0.005699588 0.24149697 0.67910874 0.10255145 -0.0337649
-1.3432585 -2.4579616 0.1997944 -0.73571926 0.3762645 -0.2540194 -0.17227331 -0.2757256
-0.80014 -1.045031 0.07807238 0.24067801 0.47016206 -1.1633136 0.664204 -0.36984134
-0.5122819 -0.2740193 0.22849867 0.12017064 -1.5657117 -0.55276984 -0.08187869 0.07216808
1.2504245 -1.1130718 0.4996229 -0.19713555 0.17702574 -0.5051404 0.0071636685 -0.044575524
0.4789016 -1.3793601 -0.044765215 -0.39119726 -0.6072932 0.19235311 -0.54124326 -0.37100628
-0.50614274 -0.93131256 -0.12890863 -0.017459309 -0.29891542 -1.4852145 -0.0895545 0.39959708
0.60442597 -2.7240865 0.07935201 0.027707681 -0.2638899 -0.5548023 -0.097128235 -0.0065022074
0.8052805 2.0946276 -0.0044348147 0.11196302 -0.8174976 -2.4099762 0.047694847 -0.2197524
-0.048896216 0.047871888 0.01841169 0.018247196 -1.072258 -0.39243737 -0.63078195 0.05398277
-0.05233529 -1.0407708 -0.020380732 0.21657023 -0.9843233 -0.89121366 0.50550383 -0.5721539
0.98921967 -0.039416265 0.03924827 -0.118429825 -1.1562595 0.97009355 -0.5211004 0.12287245
-0.073463425 0.25050062 -0.031961657 0.004772289 -1.3509358 0.32907456 -0.026883662 0.030298917
1.1054386 -0.721895 0.11565625 -0.13813515 0.268065 0.007340833 0.0069534713 -0.042103954
0.08598816 0.38760024 -0.012073805 0.105479755 -1.452405 0.09357469 -0.41633847 0.11753512
-1.1799611 -0.77481395 0.13040185 0.014863077 -1.4685975 0.5152565 -0.004259132 0.0652256
1.2152816 -0.74813694 0.06489371 -0.16442859 0.15487121 -0.044614673 -0.016218666 -0.040263377
-1.300178 0.13591976 0.059552763 0.8005544 1.2456557 -1.9652771 0.3025661 -0.5740813
-0.26715338 -0.0382471 -0.0048384103 0.09097732 -1.5698469 -0.7474383 -0.5265809 0.13025796
-0.621772 -1.247557 0.34571052 0.09177187 -0.9428117 -1.0007106 0.100457504 -0.11054568
-1.7439626 0.8259552 -0.0042499583 -0.056945805 0.4238798 1.3583618 -0.018330442 0.59809417
-0.5085746 0.30173138 0.1368295 0.20832331 -1.2742735 -0.7234448 -0.52757734 0.066560134
-0.4598811 -1.20922 0.48604617 0.04926854 -0.7980604 -1.0463072 -0.021651283 -0.20315489
-0.46527016 -0.9968272 0.6825557 -0.33119324 -0.52088386 -0.041404888 -0.70795983 -0.30988958
-1.9493017 -0.80619216 -0.079215184 0.2454709 0.8986878 1.8729753 -0.0029642961 0.0923721
-0.89533633 -2.273295 0.031260833 -0.21998523 -0.036564227 0.006378884 0.0047656377 0.016219113
-2.0857747 -0.57377553 -0.16933751 -0.17948146 -0.33455786 -1.3626335 0.27386612 0.37228873
-0.9933586 -1.096265 -0.3270028 -0.13032545 0.8845722 1.2450973 -0.013365166 0.08906255
00000000: 842f 63bf eec5 88bd 52de d33b d11a 383f
00000010: 1103 2b3f 23f4 19c0 49d3 133d 8f1b 10bf
00000020: 2965 65bd 5852 203e 4d68 2c3e 6a22 a73d
00000030: ab4c e8bf 264f 153f 723e d63d aaa7 183d
00000040: 1d8b eabf b036 61bd f57c 503d 0f73 c2be
00000050: 81ba 94bf 8d97 e2be 1a33 99bc dde9 ab3c
00000060: 81e5 93bf 6439 02bf b5de 91bd 6051 47bd
00000070: 4dba 913f 478b eebe bd65 d83e c190 b53c
00000080: fca8 0cbe a97a 39bf ec8d c1bc 9cc3 babb
00000090: fb4a 773e 12da 2d3f 7f06 d23d 104d 0abd
000000a0: e5ef abbf 3e4f 1dc0 e796 4c3e 1958 3cbf
000000b0: bea5 c03e d50e 82be 6a68 30be e82b 8dbe
000000c0: fad5 4cbf 93c3 85bf 69e4 9f3d 4c74 763e
000000d0: 15b9 f03e 76e7 94bf 4609 2a3f d85b bdbe
000000e0: e824 03bf 424c 8cbe 8efb 693e 061c f63d
000000f0: 3e69 c8bf 5382 0dbf 04b0 a7bd dccc 933d
00000100: e90d a03f 2379 8ebf 93ce ff3e e7dd 49be
00000110: 3c46 353e e250 01bf 35bd ea3b d394 36bd
00000120: 9732 f53e df8e b0bf bb5b 37bd 024b c8be
00000130: 9177 1bbf 37f8 443e eb8e 0abf 89f4 bdbe
00000140: 9292 01bf 806a 6ebf a000 04be d306 8fbc
00000150: 710b 99be 821b bebf 5a68 b7bd fd97 cc3e
00000160: a9bb 1a3f 6f57 2ec0 4e83 a23d 38fb e23c
00000170: 941c 87be 8607 0ebf 2beb c6bd 7810 d5bb
00000180: dd26 4e3f 610e 0640 ec51 91bb de4c e53d
00000190: 8647 51bf 0d3d 1ac0 ac5b 433d c606 61be
000001a0: 6647 48bd 5015 443d 1dd4 963c 257b 953c
000001b0: c03f 89bf 8ded c8be ed7a 21bf 091d 5d3d
000001c0: 875d 56bd fa37 85bf 7ef5 a6bc 96c4 5d3e
000001d0: 9dfc 7bbf 9426 64bf b368 013f ae78 12bf
000001e0: 803d 7d3f f372 21bd cbc2 203d 568b f2bd
000001f0: 5000 94bf 0d58 783f d666 05bf 8da4 fb3d
00000200: fe73 96bd 9e41 803e 3aea 02bd dd60 9c3b
00000210: 77eb acbf 767c a83e 203b dcbc 6f35 f83c
00000220: 037f 8d3f 1cce 38bf 2fdd ec3d 4d73 0dbe
00000230: d13f 893e 5f8b f03b f2d9 e33b 3275 2cbd
00000240: 8f1a b03d 8a73 c63e 35d1 45bc c505 d83d
00000250: 68e8 b9bf 16a4 bf3d 512a d5be 41b6 f03d
00000260: f708 97bf 355a 46bf 1088 053e 4384 733c
00000270: 01fb bbbf dae7 033f 3090 8bbb 0095 853d
00000280: 598e 9b3f e785 3fbf fee6 843d f85f 28be
00000290: 8f96 1e3e e0bd 36bd 02dd 84bc 36eb 24bd
000002a0: 3c6c a6bf 8d2e 0b3e 99ed 733d 22f1 4c3f
000002b0: a571 9f3f 338e fbbf f2e9 9a3e fef6 12bf
000002c0: 54c8 88be fea8 1cbd 878b 9ebb 5152 ba3d
000002d0: bef0 c8bf 1e58 3fbf 02ce 06bf 5862 053e
000002e0: 732c 1fbf f3af 9fbf f800 b13e e4f2 bb3d
000002f0: 1c5c 71bf 4917 80bf aabc cd3d c665 e2bd
00000300: 2b3a dfbf cd71 533f 3c43 8bbb 0140 69bd
00000310: c606 d93e cdde ad3f b929 96bc b31c 193f
00000320: f231 02bf 897c 9a3e 081d 0c3e b552 553e
00000330: 651b a3bf ae33 39bf 4f0f 07bf ae50 883d
00000340: 8975 ebbe b9c7 9abf 0bdb f83e cfcd 493d
00000350: b04d 4cbf 65ed 85bf 085e b1bc d607 50be
00000360: e437 eebe 1130 7fbf f8bb 2e3f 2992 a9be
00000370: a558 05bf 2c98 29bd db3c 35bf d9a9 9ebe
00000380: b882 f9bf 9c62 4ebf 923b a2bd b95c 7b3e
00000390: 6710 663f a8bd ef3f a344 42bb 952d bd3d
000003a0: c334 65bf aa7d 11c0 5c0b 003d cf43 61be
000003b0: 5fc4 15bd f505 d13b 1129 9c3b f2dd 843c
000003c0: 557d 05c0 f4e2 12bf d066 2dbe fdc9 37be
000003d0: 2b4b abbe c66a aebf 2e38 8c3e a19c be3e
000003e0: c04c 7ebf 6952 8cbf e96c a7be 0974 05be
000003f0: 5373 623f 595f 9f3f 92f9 5abc 6d66 b63d

actor.net.0.bias f4 [128]
-0.6000995 -1.2444682 -1.0007961 -0.3168678 -0.87954813 -0.6256046 -1.3723673 -0.3466344
0.13059084 -1.6733751 -0.6117307 0.5042669 -1.3655591 0.49294528 -0.6126416 -1.9205136
0.09959992 -1.9875793 -1.3567291 0.1725418 -1.9237804 0.08393017 -2.2693775 -0.018536866
-1.9553435 -1.9525654 -0.83099824 -0.74184644 -0.7012377 -0.55260384 -0.6011 -2.1334677
-0.90089285 -1.5033748 -1.4948457 -1.9353311 -2.1165185 -1.8102014 -0.66088384 -0.7056081
-0.63273036 -1.4969515 -1.0321511 -0.5221898 0.09505409 -0.55892706 -0.30779207 -1.474436
-1.1963422 -0.15308629 -1.6180328 0.046643455 0.4919714 0.109085664 -1.8168539 -0.56547594
-1.0514976 -0.7029546 -0.845536 -0.025583653 -1.0679874 -1.0658625 -0.019948835 -1.91321
-1.8713025 -1.1172117 0.20931086 -1.6283464 -1.4371687 0.07569305 -0.8529075 -2.5853045
-0.5495815 -1.9382163 -0.44442862 0.15349545 -1.5512987 -1.1611803 -1.2830297 -0.39215362
0.27403584 0.097118944 -1.4727855 -1.5058233 -1.8030752 -0.36605507 -1.3188491 -1.67176
-0.8326141 -1.7968594 -1.32233 -1.3243803 -1.9246839 -0.5374863 -1.6322201 -1.8212482
-0.039261002 -1.0441222 0.5002782 -2.0484147 -1.608179 -1.5029402 -1.5659964 -1.1950351
0.077221304 -1.0092497 -0.26892284 -0.97465736 0.2843254 0.09366986 0.51103145 -0.64656204
-1.7409706 -0.530984 -0.62156314 -1.154039 -1.0490881 -1.6070096 -1.8908489 -0.234239
-1.3672917 -0.83158827 -2.1549094 0.44921446 -0.11868009 -1.7201718 -1.4191549 -0.53044987
00000000: 1fa0 19bf bc4a 9fbf 161a 80bf 7f3c a2be
00000010: 112a 61bf a027 20bf bba9 afbf 107a b1be
00000020: 9bb9 053e 2831 d6bf 629a 1cbf a317 013f
00000030: a4ca aebf 5363 fc3e 14d6 1cbf 64d3 f5bf
00000040: 0bfb cb3d 0069 febf 4da9 adbf ccae 303e
00000050: 703e f6bf 95e3 ab3d 7b3d 11c0 a0da 97bc
00000060: b248 fabf aaed f9bf 4dbc 54bf a6e9 3dbf
00000070: 5084 33bf 7277 0dbf b1e1 19bf bc8a 08c0
00000080: eaa0 66bf 966e c0bf 1b57 bfbf eeb8 f7bf
00000090: 0a75 07c0 aeb4 e7bf af2f 29bf bca2 34bf
000000a0: 9efa 21bf 1b9c bfbf 871d 84bf 3bae 05bf
000000b0: b8ab c23d d815 0fbf ec96 9dbe 52ba bcbf
000000c0: be21 99bf a7c2 1cbe b31b cfbf 350d 3f3d
000000d0: ade3 fb3e 4e68 df3d ab8e e8bf 08c3 10bf
000000e0: 7997 86bf d5f4 33bf 0c75 58bf cf94 d1bc
000000f0: d0b3 88bf 2f6e 88bf bd6b a3bc 11e4 f4bf
00000100: d786 efbf cb00 8fbf 9655 563e a86d d0bf
00000110: 25f5 b7bf f504 9b3d 2558 5abf a175 25c0
00000120: 60b1 0cbf 7917 f8bf 268c e3be e92d 1d3e
00000130: f590 c6bf 8ea1 94bf 513a a4bf 5cc8 c8be
00000140: 6d4e 8c3e 4ce6 c63d 3c84 bcbf d1be c0bf
00000150: 2bcb e6bf 926b bbbe 0cd0 a8bf 3bfc d5bf
00000160: 3326 55bf 7dff e5bf 1c42 a9bf 4b85 a9bf
00000170: 0b5c f6bf b498 09bf 97ec d0bf a91e e9bf
00000180: 25d0 20bd cca5 85bf 3b12 003f 3a19 03c0
00000190: cfd8 cdbf 5860 c0bf 9272 c8bf e9f6 98bf
000001a0: 3426 9e3d 182f 81bf 41b0 89be 2583 79bf
000001b0: 1993 913e fcd5 bf3d f5d2 023f 1785 25bf
000001c0: 20d8 debf 91ee 07bf c31e 1fbf 8db7 93bf
000001d0: 8548 86bf 7eb2 cdbf 5607 f2bf 59dc 6fbe
000001e0: 6a03 afbf f8e2 54bf 09ea 09c0 70ff e53e
000001f0: 8c0e f3bd 972e dcbf dea6 b5bf 90cb 07bf

actor.net.3.weight f4 [128, 128]
-0.71524936 4.673447 -0.05963557 0.11191932 0.2385364 0.14588301 0.51804376 -0.8132192
1.1911654 3.443233 -0.34367198 -0.08913353 4.7027144 0.16001962 -0.39637312 2.656875
-0.33814666 2.7875948 0.70464706 1.1715912 2.6726093 0.8925916 2.1271837 -4.5736575
1.1982927 2.9327147 0.9357479 0.5471957 0.32306302 -0.2705603 -2.0607522 2.9109058
0.37769735 0.62971413 6.7696066 3.122348 1.9238567 0.19416615 0.089599654 -0.10299428
-0.24332966 0.38425583 -0.119278036 -0.21596193 0.19617084 -0.011250521 0.38350242 0.042844873
1.6374776 -0.30265126 4.836624 -1.9063541 -0.019023852 -0.3441343 2.5392694 0.3431967
-0.55487555 -0.2597987 3.4282794 -6.6408596 -0.411272 0.17087531 -7.0939317 3.165819
0.6907665 -0.28049386 1.5269008 7.361133 4.7461 -0.703296 0.197838 3.0611153
-0.13090053 5.692439 -0.4547254 1.6533036 2.1555867 1.5609431 0.21270157 -2.4162512
0.9964963 -0.43217924 0.8132343 1.7614996 4.8495107 -1.3523531 1.3128309 5.54173
0.7360326 1.9306272 0.5103802 0.68545413 3.7787669 0.64698017 5.334995 6.5886693
-2.5030153 -0.91193897 -0.03953797 2.6857467 1.8707039 5.355845 -1.6197232 0.7089265
-0.81597257 0.8005608 0.15739326 0.51668066 -0.13557439 -1.1004769 0.16510095 0.007977286
3.636252 -0.50144684 -0.22356234 0.697023 0.6274416 2.6492314 0.7386186 -0.27681047
0.7978245 -0.967965 3.5220659 -0.3197101 -0.23970297 0.3012462 -0.23914628 0.3781548
-0.57467157 0.5146796 -0.39105654 -0.19793344 -0.43848085 -0.583817 0.8302959 -0.91976976
-0.41504678 0.02452902 -0.31175214 0.056817025 0.92406905 0.042329606 -0.0049078004 0.012065788
-0.0483313 -0.6392324 0.65808433 -0.37005615 0.03372289 -0.25248268 -0.3937643 0.047849994
-0.28267467 0.6351197 0.012570333 -0.52576566 0.14189775 -0.32077944 -0.018081153 -0.004652653
-0.8058832 -0.2225526 0.17388418 0.776535 0.1448389 -0.1980237 0.20570596 0.14787495
-0.22526635 -0.29869735 0.3337825 -0.3503968 -0.35710797 0.4451563 -0.28578314 -0.1576306
-0.2710414 0.5235271 -0.11261444 0.032611236 0.11252996 0.1666409 -0.24566433 -0.13146654
-0.3846029 -0.04619128 -0.24177723 0.08705843 -0.30790833 0.12589616 0.07010176 0.057552163
0.38016596 0.49503464 -0.22192316 0.174629 0.24447039 -0.058177024 0.23870744 -0.20349506
-0.5347256 0.5809721 -0.48096806 -0.30133912 -0.0276398 -0.40683627 0.26617995 -0.375744
-0.50882405 0.13995203 -0.03360076 -0.15768738 0.90086377 -0.49410743 0.013746769 1.3691604
0.24580768 0.58873206 -0.27680084 0.3708111 0.21659549 0.2170084 0.15788424 -0.21681388
-0.67049575 0.087150194 0.28089082 -0.26556367 0.45469466 0.30091795 1.140036 -0.055565946
-0.06914265 0.03699512 -0.42285347 0.13604817 0.4347677 -0.05583515 0.024919236 0.3676353
0.3199742 -0.24907827 -0.33686736 -0.5382131 0.060521916 -0.30567372 -0.07054962 0.44529822
-0.060557075 1.6329602 -0.15513016 0.3351833 0.32243544 0.6256589 -0.29748642 -0.5880445
00000000: 951a 37bf e18c 9540 6d44 74bd f535 e53d
00000010: e342 743e 5b62 153e 849e 043f 222f 50bf
00000020: 1c78 983f ee5d 5c40 c6f5 afbe a48b b6bd
00000030: a37c 9640 2fdc 233e 6bf1 cabe 3d0a 2a40
00000040: 8f21 adbe f467 3240 c063 343f b3f6 953f
00000050: 080c 2b40 e280 643f c723 0840 675b 92c0
00000060: a861 993f 99b1 3b40 2d8d 6f3f 0415 0c3f
00000070: 8468 a53e e186 8abe 5de3 03c0 484c 3a40
00000080: 8c61 c13e f234 213f 9ea0 d840 8dd4 4740
00000090: f040 f63f 7ed3 463e 0680 b73d aaee d2bd
000000a0: 692b 79be 2ebd c43e 0b48 f4bd 2025 5dbe
000000b0: 02e1 483e 1b54 38bc 6e5a c43e 1b7e 2f3d
000000c0: de98 d13f 1bf5 9abe a0c5 9a40 6903 f4bf
000000d0: e9d7 9bbc 5f32 b0be 6483 2240 7ab7 af3e
000000e0: 530c 0ebf 5604 85be ee68 5b40 ec81 d4c0
000000f0: 3e92 d2be f0f9 2e3e 7d01 e3c0 c79c 4a40
00000100: 13d6 303f e49c 8fbe 7c71 c33f 678e eb40
00000110: 0de0 9740 350b 34bf 0b96 4a3e 50e9 4340
00000120: ca0a 06be 7628 b640 c5d1 e8be 749f d33f
00000130: 22f5 0940 fccc c73f 71ce 593e dca3 1ac0
00000140: 621a 7f3f 9946 ddbe 2030 503f d278 e13f
00000150: 312f 9b40 e819 adbf d80a a83f da55 b140
00000160: a26c 3c3f cb1e f73f 47a8 023f ec79 2f3f
00000170: 51d7 7140 7ea0 253f 47b8 aa40 61d6 d240
00000180: 6731 20c0 d574 69bf 91f2 21bd 46e3 2b40
00000190: 3a73 ef3f 1563 ab40 1753 cfbf 357c 353f
000001a0: 94e3 50bf 8df1 4c3f b32b 213e 2f45 043f
000001b0: 03d4 0abe 6ddc 8cbf 3910 293e 2ab3 023c
000001c0: 5ab8 6840 d25e 00bf 87ed 64be 1970 323f
000001d0: 03a0 203f 028d 2940 1c16 3d3f 1aba 8dbe
000001e0: 3a3e 4c3f 8ecc 77bf 8769 6140 0bb1 a3be
000001f0: b274 75be f13c 9a3e c3e2 74be 829d c13e
00000200: ad1d 13bf 0bc2 033f 9038 c8be 10af 4abe
00000210: 9080 e0be 0875 15bf 468e 543f 0876 6bbf
00000220: 0381 d4be 15f1 c83c fa9d 9fbe f8b8 683d
00000230: ca8f 6c3f cf61 2d3d 9dd1 a0bb 95af 453c
00000240: 0bf7 45bd bca4 23bf 3778 283f 0078 bdbe
00000250: 0321 0a3d 6945 81be 799b c9be 5bfe 433d
00000260: bcba 90be 3497 223f ccf3 4d3c 9498 06bf
00000270: a54d 113e 343d a4be ed1e 94bc 4875 98bb
00000280: 5d4e 4ebf d4e4 63be b20e 323e ffca 463f
00000290: a650 143e bac6 4abe 95a4 523e 886c 173e
000002a0: 39ac 66be dcee 98be 8ae5 aa3e 3667 b3be
000002b0: dbd6 b6be 87eb e33e 2b52 92be ea69 21be
000002c0: f0c5 8abe df05 063f 66a2 e6bd 5c93 053d
000002d0: 1c76 e63d e9a3 2a3e 6e8f 7bbe 2a9f 06be
000002e0: acea c4be 1133 3dbd 7394 77be b14b b23d
000002f0: 29a6 9dbe ecea 003e 8391 8f3d d1bb 6b3d
00000300: 1da5 c23e 2e75 fd3e d33f 63be f2d1 323e
00000310: 7256 7a3e 084b 6ebd b96f 743e 0261 50be
00000320: c7e3 08bf 96ba 143f 7241 f6be 1f49 9abe
00000330: dd6c e2bc d84c d0be bd48 883e 8461 c0be
00000340: 4b42 02bf 964f 0f3e f3a0 09bd cd78 21be
00000350: 029f 663f a6fb fcbe 213a 613c a640 af3f
00000360: 02b5 7b3e 25b7 163f d7b8 8dbe f4da bd3e
00000370: 35cb 5d3e 7337 5e3e 68ac 213e 7504 5ebe
00000380: 9ca5 2bbf cd7b b23d ecd0 8f3e f6f7 87be
00000390: bdcd e83e eb11 9a3e b3ec 913f 1e99 63bd
000003a0: a99a 8dbd 3288 173d 4080 d8be 3650 0b3e
000003b0: df99 de3e 66b3 64bd 6d23 cc3c b23a bc3e
000003c0: a9d3 a33e 600e 7fbe e179 acbe 55c8 09bf
000003d0: d4e5 773d 4481 9cbe 527c 90bd 21fe e33e
000003e0: b20a 78bd d704 d13f 71da 1ebe 259d ab3e
000003f0: 4216 a53e 2f2b 203f 2450 98be 168a 16bf

actor.net.3.bias f4 [128]
-0.059377275 -0.02726679 -1.6539285 -0.5456777 -0.44880348 -0.47092006 -0.68057233 -1.6605213
-1.7240554 -0.66833156 -0.6823686 -0.25062713 -1.7105794 -1.0524206 -0.16122782 -1.6303136
-0.86941123 -0.85372686 -1.6954398 -2.1420095 -0.9838975 -1.8241503 -1.2914556 -0.35186496
-2.0878263 -0.11461508 -1.9137176 -1.6020983 -0.00156668 -2.0011017 -1.6761515 -2.0606935
-1.9233744 -0.21388628 -1.822656 -0.14943719 -1.722263 -2.08829 -1.7637094 -1.5348127
-1.7981436 -2.079878 -1.7755291 -0.059808154 -1.709235 -0.21402195 -1.6552941 -0.6693729
-0.5466934 -2.0010953 -0.880167 -2.168461 -2.1437805 -0.5372971 -1.9407235 -1.2889568
-0.16254209 -1.8755662 0.13470693 -1.2149311 -0.68013346 -0.47188827 -1.7487874 -2.169389
-1.9217783 -1.4860628 -1.5685296 -1.8288985 -1.5719852 -0.21770354 -1.8505061 -1.4858792
-1.8918263 -0.5248635 -1.5331466 -1.4009118 -0.2479767 -2.1715164 -1.9399102 -0.49346417
-2.3572567 -1.9203011 -0.056186322 -0.34653506 -1.8882136 -0.8731762 -2.2996943 -2.3840537
-2.0132551 -0.9411721 -1.5036327 -1.5326576 -0.58467984 -1.4564872 -1.3120009 -0.77859503
0.34762242 -1.8210253 -1.0332929 -1.8398217 -1.77972 -1.789393 -1.9140636 -1.5874397
-1.5629338 -1.386744 -0.81581897 -0.6660811 -1.9910246 -1.0953968 -0.7453602 -2.0715413
-0.6314733 -1.5201939 -2.0318155 -1.4956545 -1.8094604 -2.32726 -1.5665916 -0.38239607
-1.9235249 -1.9967307 0.01761377 -1.4948682 -2.4351733 -1.822245 -0.3171595 -1.8018583
00000000: 9635 73bd 9a5e dfbc eeb3 d3bf 89b1 0bbf
00000010: 92c9 e5be 6f1c f1be fd39 2ebf f68b d4bf
00000020: d9ad dcbf c717 2bbf b5af 2ebf 3352 80be
00000030: 44f4 dabf b8b5 86bf e818 25be 1eae d0bf
00000040: bc91 5ebf d88d 5abf 2c04 d9bf af16 09c0
00000050: b5e0 7bbf c27d e9bf 6b4e a5bf a527 b4be
00000060: f29e 05c0 50bb eabd b3f4 f4bf 8f11 cdbf
00000070: 0f59 cdba 0d12 00c0 228c d6bf 67e2 03c0
00000080: 2231 f6bf 0105 5bbe cb4c e9bf 1006 19be
00000090: 1d73 dcbf 8ba6 05c0 3bc1 e1bf be74 c4bf
000000a0: 9229 e6bf b91c 05c0 8a44 e3bf 65f9 74bd
000000b0: 36c8 dabf 9228 5bbe ade0 d3bf 065c 2bbf
000000c0: 19f4 0bbf f211 00c0 a052 61bf 11c8 0ac0
000000d0: b333 09c0 4e8c 09bf a169 f8bf 89fc a4bf
000000e0: 6f71 26be 8e12 f0bf 9df0 093e dd82 9bbf
000000f0: 3a1d 2ebf 579b f1be 44d8 dfbf 45d7 0ac0
00000100: d5fc f5bf 4e37 bebf 94c5 c8bf 5919 eabf
00000110: d036 c9bf aded 5ebe 62dd ecbf 4a31 bebf
00000120: 5d27 f2bf 745d 06bf 263e c4bf 1451 b3bf
00000130: 9bed 7dbe 20fa 0ac0 fa4e f8bf 56a7 fcbe
00000140: 4bdd 16c0 6dcc f5bf a123 66bd 0b6d b1be
00000150: fcb0 f1bf 7a88 5fbf 312e 13c0 5694 18c0
00000160: 2cd9 00c0 a8f0 70bf 0977 c0bf 202e c4bf
00000170: 94ad 15bf 2c6e babf a5ef a7bf 0152 47bf
00000180: 91fb b13e 5b17 e9bf f142 84bf 477f ebbf
00000190: ddcd e3bf d40a e5bf 0900 f5bf 3931 cbbf
000001a0: 370e c8bf d480 b1bf 83d9 50bf 4a84 2abf
000001b0: e5d9 febf f635 8cbf edcf 3ebf 2294 04c0
000001c0: 3ca8 21bf b795 c2bf 4409 02c0 9b71 bfbf
000001d0: 669c e7bf d4f1 14c0 1386 c8bf 6bc9 c3be
000001e0: 1036 f6bf df94 ffbf c14a 903c d757 bfbf
000001f0: e1d9 1bc0 533f e9bf bb62 a2be 4ba3 e6bf

actor.net.6.weight f4 [6, 128]
0.3266706 0.3660761 0.2516348 0.38924012 0.5428729 0.38029107 0.54959315 0.9292567
0.26744092 0.21393557 0.7541738 0.5283846 0.8416444 0.13465588 0.59898925 0.64269394
0.08068214 0.4897214 -0.35876828 0.31475812 0.45843595 -0.71775025 0.30530655 0.25581804
0.38842964 0.34853747 -0.03684666 0.38204688 0.41933095 0.3958628 -0.07295547 0.11756499
1.2176108 0.26931712 0.68413687 0.5856568 0.7836428 -0.1320399 0.4498894 0.09101252
0.10963089 0.1374094 0.9977524 0.5159028 0.21375208 0.21819349 -0.4133968 0.24669632
0.47575307 0.61808234 0.14766921 0.84780246 1.0627927 -0.47644845 0.045640633 0.28208065
0.6314704 0.6795764 0.5204554 0.111012764 0.4673263 0.22814454 0.6358281 0.33946654
0.08690282 0.49132043 -0.14908573 0.11481823 0.18033184 0.34620103 0.05311453 0.61488795
0.53927153 0.7220242 0.30676737 0.2997363 0.4364561 0.80047643 0.22877935 0.431896
0.6039507 0.34581062 0.45847473 0.22832477 0.68344206 0.59501696 0.33027437 0.49643907
0.45569634 0.35822868 0.12283171 -0.13158676 0.5010652 0.495983 0.31849176 0.39988333
0.41443002 0.54884756 0.6828744 0.8579544 -0.19592048 0.25302243 -0.30695894 -0.33671078
0.57392234 0.06606125 0.4522047 0.7571248 -0.43073723 0.3870778 0.27998063 0.5702947
0.6185667 0.012219721 0.5523287 0.19847369 -0.33755004 0.38330555 0.6080039 0.5685912
0.26512942 0.13220134 0.51994324 0.54642487 0.27572745 0.08054031 0.45032135 0.73525506
0.8886378 -0.02399713 -0.70774025 0.45761302 0.87841433 0.13628289 0.13431819 0.2427677
0.70792335 0.6475084 0.7807137 0.29249722 -0.50437456 0.5872585 0.27123314 -0.9447691
0.081589065 0.66410506 -0.44842806 -2.141172 -0.10819504 -0.6277579 0.5129316 0.1843048
1.1293062 0.15018839 0.56990266 -0.5392405 0.6921747 -0.77234644 -1.0781529 -0.89513594
-0.733733 0.43813553 0.0695401 0.88861537 0.62914914 0.5703204 -0.36733288 0.37880713
1.0371839 0.2867587 -1.1050593 0.26086378 0.8554568 -0.0147842895 -0.41605413 0.72374505
0.20174639 1.22604 0.21924779 -0.23996969 -1.485858 0.74571157 -0.14342731 -0.19657749
1.0084597 -1.1654649 0.8682982 0.35437867 -0.03553754 0.19686787 -0.8461545 1.0011405
0.5140499 -0.6823279 -0.5181256 0.5162265 0.7837363 0.72282046 0.9795219 -0.47580826
1.2385758 0.83308476 0.048408087 0.9237679 0.35552302 -1.201915 1.4759585 0.7630661
1.4554882 1.1180618 0.012994592 0.14464886 -0.7005142 0.99420536 -1.9308087 1.3975632
-1.0906318 0.43878788 -0.70584077 -0.84085083 0.21130177 0.009445272 0.73415095 0.22724548
0.7140798 -1.0848278 0.43255985 -0.492789 0.71308 0.7834879 -0.40298015 -0.5365808
1.0800313 -0.36185262 0.36855438 0.13047671 -0.5170225 0.6233026 0.44961184 -1.3422946
0.78010267 -0.4796272 1.0689108 0.7612511 -0.5792328 0.9064934 -0.20932083 0.18584907
0.9326268 -1.1011295 0.8037988 0.9876391 -2.0748663 0.9549582 0.25705448 -0.6195853
00000000: 5e41 a73e 546e bb3e 47d6 803e 7b4a c73e
00000010: b8f9 0a3f 83b5 c23e 23b2 0c3f c4e3 6d3f
00000020: 04ee 883e ed11 5b3e 8911 413f 3744 073f
00000030: 0276 573f 3be3 093e 5c57 193f 9787 243f
00000040: ae3c a53d c3bc fa3e 7ab0 b7be fa27 a13e
00000050: 1eb8 ea3e 7bbe 37bf 2451 9c3e 95fa 823e
00000060: 40e0 c63e 8173 b23e 86ec 16bd a69b c33e
00000070: 8cb2 d63e 87ae ca3e ad69 95bd eac5 f03d
00000080: acda 9b3f efe3 893e 9823 2f3f 9bed 153f
00000090: d19c 483f 7835 07be e757 e63e c664 ba3d
000000a0: 2986 e03d 0db5 0c3e b46c 7f3f 3512 043f
000000b0: d3e1 5a3e 1d6e 5f3e bfa8 d3be f69d 7c3e
000000c0: e895 f33e a53a 1e3f 9936 173e 9509 593f
000000d0: 9709 883f 0df1 f3be acf1 3a3d e06c 903e
000000e0: 0ba8 213f b8f8 2d3f 913c 053f a95a e33d
000000f0: 6545 ef3e b99e 693e a1c5 223f 8fce ad3e
00000100: 1bfa b13d 5a8e fb3e eea9 18be d225 eb3d
00000110: e9a8 383e 4341 b13e 9f8e 593d 4c69 1d3f
00000120: b30d 0a3f 94d6 383f 9d10 9d3e 0977 993e
00000130: 2d77 df3e 06ec 4c3f 2245 6a3e 7921 dd3e
00000140: 839c 1a3f 170e b13e 33bd ea3e f8cd 693e
00000150: 0ff6 2e3f 0853 183f b919 a93e 432d fe3e
00000160: 0851 e93e c069 b73e 318f fb3d aebe 06be
00000170: cf45 003f 7cf1 fd3e 5a11 a33e 82bd cc3e
00000180: 2c30 d43e 4681 0c3f dbd0 2e3f e6a2 5b3f
00000190: 619f 48be 288c 813e b929 9dbe 5b65 acbe
000001a0: 93ec 123f 1f4b 873d 6087 e73e eed2 413f
000001b0: 9789 dcbe 102f c63e 9f59 8f3e d5fe 113f
000001c0: 635a 1e3f 3a35 483c 6a65 0d3f b03c 4b3e
000001d0: 5cd3 acbe a040 c43e 25a6 1b3f 318f 113f
000001e0: 0bbf 873e ca5f 073e 001b 053f 80e2 0b3f
000001f0: 262c 8d3e 51f2 a43d 8590 e63e ad39 3c3f
00000200: c47d 633f a195 c4bc 772e 35bf 414c ea3e
00000210: c3df 603f be8d 0b3e b58a 093e 1998 783e
00000220: 773a 353f 1cc3 253f dadc 473f 32c2 953e
00000230: b11e 01bf 9356 163f 12df 8a3e 63dc 71bf
00000240: 2b18 a73d ca02 2a3f 5d98 e5be f608 09c0
00000250: 5c95 ddbd beb4 20bf 7c4f 033f 66ba 3c3e
00000260: 1b8d 903f fcca 193e 24e5 113f aa0b 0abf
00000270: 5c32 313f 7fb8 45bf ea00 8abf a127 65bf
00000280: edd5 3bbf 4d53 e03e 0a6b 8e3d 4c7c 633f
00000290: eb0f 213f 8500 123f 0e13 bcbe 02f3 c13e
000002a0: 71c2 843f 09d2 923e 9572 8dbf f08f 853e
000002b0: 38ff 5a3f ce39 72bc 0c05 d5be 5b47 393f
000002c0: 9b96 4e3e e1ee 9c3f 7e82 603e 9dba 75be
000002d0: 9830 bebf f4e6 3e3f 9cde 12be 9c4b 49be
000002e0: 3515 813f f42d 95bf ca48 5e3f 1f71 b53e
000002f0: d08f 11bd bb97 493e 959d 58bf 5f25 803f
00000300: c698 033f 0bad 2ebf e1a3 04bf 6b27 043f
00000310: f1a2 483f c30a 393f f2c1 7a3f 249d f3be
00000320: a789 9e3f 0b45 553f 8f47 463d 0e7c 6c3f
00000330: 1d07 b63e 5ad8 99bf 35ec bc3f 4d58 433f
00000340: 704d ba3f a61c 8f3f 45e7 543c d51e 143e
00000350: e654 33bf 3e84 7e3f bd24 f7bf 5ae3 b23f
00000360: d399 8bbf cea8 e03e fbb1 34bf 0042 57bf
00000370: 7e5f 583e 58c0 1a3c 51f1 3b3f 0ab3 683e
00000380: efcd 363f a3db 8abf 7c78 dd3e d74e fcbe
00000390: 698c 363f aa92 483f 6a53 cebe 5c5d 09bf
000003a0: 773e 8a3f bf44 b9be 29b3 bc3e b09b 053e
000003b0: 965b 04bf c290 1f3f 8633 e63e 4fd0 abbf
000003c0: cfb4 473f b291 f5be 12d2 883f 5ae1 423f
000003d0: 9a48 14bf f40f 683f 3358 56be 384f 3e3e
000003e0: a1c0 6e3f d0f1 8cbf c2c5 4d3f ebd5 7c3f
000003f0: 9cca 04c0 2478 743f a59c 833e 249d 1ebf

actor.net.6.bias f4 [6]
0.37732685 0.20796312 0.37402803 0.31191754 -0.21036401 0.035699457
00000000: fc30 c13e 49f4 543e 9a80 bf3e a8b3 9f3e
00000010: aa69 57be 9839 123d

critic.net.0.weight f4 [128, 12]
-0.3901353 -0.7190161 -0.037792347 0.04473073 0.056450285 0.7980167 0.7625495 -0.41234022
-0.3190467 0.08743733 0.014193808 -0.024520112 -0.36569878 -0.7566576 -1.5009893 -0.03869832
-1.9065325 1.9166768 -0.39668733 1.124371 -1.0514995 0.12968493 -0.40514413 0.058353726
0.920114 -1.5466533 -0.036520876 0.14619009 -0.7224381 0.14959256 -0.25851503 0.11645726
-1.091838 -1.0235878 0.12280415 0.017105028 -2.9574935 -0.27412 -0.029178308 0.11660446
1.2165171 1.301832 1.2170577 1.7739486 -0.6549666 0.111122794 -0.10361631 -0.36023995
-0.34347633 -0.18595606 0.016639454 -0.07408473 1.4979737 0.19724862 0.98768306 1.014587
-0.5129508 -0.86442333 0.064075135 0.122936375 -2.0456562 -0.3313531 -0.031452473 0.37367553
1.6230698 0.3634479 -0.33445057 -0.7594549 -0.040133264 0.06154087 -0.094829775 0.03052417
0.37410134 0.015932012 -0.079788655 -0.010173972 -2.773125 1.962209 -0.81821585 0.22950819
-2.8068192 0.5249576 0.033143837 0.04775119 -0.06263296 -0.42114684 0.058947 0.076064095
-0.36043155 0.52376354 -0.11530482 0.092792615 -0.16617098 0.17131166 0.00421133 0.1355525
-0.8872546 0.39104676 -0.9272831 0.067273445 0.4893187 -3.7505965 0.07681209 -0.068991095
0.19016233 0.04819253 -0.052036434 -0.007994958 0.8817082 0.031148765 -0.038941637 0.111941874
-0.77752644 -0.022135917 0.22684869 -0.14159726 -2.4024584 -0.6088569 -0.05569957 0.00824549
-0.6523666 0.23445746 0.032650545 -0.17901105 -0.11364603 -0.005909014 0.32951796 0.09756731
0.15185001 -0.2921742 0.015174264 0.048125695 0.24100816 -0.89105636 -0.29421756 0.016307607
-0.6259288 -0.04379049 0.8876755 -1.2516593 -2.4523034 -0.98444986 0.5046197 -0.20796326
-0.37702623 0.32167187 0.027435707 0.23210406 -0.11697846 1.118878 -0.45766133 0.20968372
0.24271163 -0.27988225 -0.104238726 -0.19113001 -0.42338213 -0.4370542 -0.011938516 -0.015990416
1.6826133 -1.3319088 -0.43543306 -0.57356244 0.19887143 0.05534879 0.13257039 0.07171065
0.74028015 -0.21699424 -0.02956645 0.011767336 -0.17843883 0.6288514 -0.5370579 -0.40444207
-0.025739389 -0.25930804 -0.035554923 -0.014495216 -0.18897672 -0.08821627 0.04678016 1.6443697
-0.108435996 -0.35859743 0.041524623 -1.5868945 0.06914047 -0.32861295 0.02295494 0.006273596
-0.7613392 -0.25298637 -0.028508242 0.013195873 0.7825972 -0.45865434 -0.24723952 0.13194604
0.7800472 0.2186409 -0.08449523 0.04486926 0.30904913 0.8265261 -0.12666433 0.2269752
0.29457638 0.1144504 1.540466 0.24582787 -2.86942 -0.14307499 0.09720709 0.037744507
-0.4078622 -0.2645845 -0.034763355 -0.97409993 0.31852713 0.478902 -0.07794264 -0.31572023
-0.47311854 0.110819325 0.015093331 -0.32888213 0.10185752 0.53520614 -0.04459971 -0.002863323
-0.5178876 -3.0256937 -0.109063014 0.017269645 -0.22847356 1.1461556 -0.023095705 -0.046192825
-0.5008744 -0.028578438 -0.02458025 -0.035056874 0.8401167 0.5034696 0.6936865 0.47520295
0.22127593 0.031865988 -0.03905129 0.094649136 0.18102607 -0.8223384 -0.051014468 -0.33047453
00000000: d0bf c7be 7011 38bf 26cc 1abd 9237 373d
00000010: 6a38 673d d34a 4c3f 7236 433f 421e d3be
00000020: 175a a3be 5812 b33d 258d 683c 67de c8bc
00000030: df3c bbbe 50b4 41bf 6b20 c0bf 2182 1ebd
00000040: 4209 f4bf aa55 f53f 9a1a cbbe 64eb 8f3f
00000050: 8997 86bf 20cc 043e 0d6f cfbe 5104 6f3d
00000060: 978c 6b3f bcf8 c5bf ea96 15bd dbb2 153e
00000070: b4f1 38bf cb2e 193e 155c 84be 2581 ee3d
00000080: 59c1 8bbf ed04 83bf be80 fb3d d81f 8c3c
00000090: 9347 3dc0 7559 8cbe 5907 efbc 52ce ee3d
000000a0: d5b6 9b3f 6ea2 a63f 8cc8 9b3f bf10 e33f
000000b0: e4ab 27bf 5994 e33d ca34 d4bd 5f71 b8be
000000c0: 21dc afbe 446b 3ebe 774f 883c bcb9 97bd
000000d0: 9abd bf3f 8bfb 493e ccd8 7c3f fddd 813f
000000e0: be50 03bf d94a 5dbf d339 833d 11c6 fb3d
000000f0: 08ec 02c0 1da7 a9be 4fd4 00bd 6652 bf3e
00000100: c0c0 cf3f d815 ba3e 1b3d abbe a36b 42bf
00000110: c762 24bd 4812 7c3d 1d36 c2bd d30d fa3c
00000120: 368a bf3e da83 823c 3c68 a3bd bbb0 26bc
00000130: e17a 31c0 aa29 fb3f 9876 51bf 3204 6b3e
00000140: eda2 33c0 9f63 063f d5c1 073d c096 433d
00000150: b645 80bd 8fa0 d7be 6972 713d 7ec7 9b3d
00000160: 7c8a b8be 5e15 063f ef24 ecbd 0e0a be3d
00000170: ba28 2abe 536c 2f3e 32ff 893b 46ce 0a3e
00000180: 1e23 63bf 4837 c83e 6d62 6dbf a9c6 893d
00000190: fb87 fa3e c609 70c0 a84f 9d3d 344b 8dbd
000001a0: eab9 423e 8865 453d 2824 55bd 49fd 02bc
000001b0: a1b7 613f b22b ff3c 4481 1fbd c841 e53d
000001c0: f90b 47bf 6256 b5bc 064b 683e dffe 10be
000001d0: e1c1 19c0 0cde 1bbf 3b25 64bd 1718 073c
000001e0: 7f01 27bf 9e15 703e 94bc 053d ac4e 37be
000001f0: 40bf e8bd 67a0 c1bb 94b6 a83e 5fd1 c73d
00000200: 927e 1b3e db97 95be 7a9d 783c 731f 453d
00000210: d8ca 763e 451c 64bf afa3 96be 8897 853c
00000220: df3c 20bf a85d 33bd b43e 633f 5f36 a0bf
00000230: 8af2 1cc0 e804 7cbf c22e 013f 52f4 54be
00000240: 9509 c1be 2db2 a43e d9c0 e03c b0ac 6d3e
00000250: 6792 efbd 6537 8f3f 9652 eabe 54b7 563e
00000260: 6689 783e ba4c 8fbe 1d7b d5bd 96b7 43be
00000270: 8bc5 d8be 91c5 dfbe c499 43bc 55fe 82bc
00000280: df5f d73f fd7b aabf 15f1 debe fdd4 12bf
00000290: f4a4 4b3e 6ab5 623d 88c0 073e 09dd 923d
000002a0: 0083 3d3f bd33 5ebe 5735 f2bc c9cb 403c
000002b0: abb8 36be 68fc 203f a07c 09bf 0813 cfbe
000002c0: 69db d2bc 06c4 84be 0aa2 11bd 587d 6dbc
000002d0: 1d83 41be bbaa b4bd 8e9c 3f3d b57a d23f
000002e0: b113 debd 159a b7be b915 2a3d 5c1f cbbf
000002f0: 8599 8d3d f53f a8be 000c bc3c bd92 cd3b
00000300: 20e7 42bf 6e87 81be 1e8a e9bc 8133 583c
00000310: 4a58 483f bed4 eabe 5b2c 7dbe dd1c 073e
00000320: 2cb1 473f 66e3 5f3e d60b adbd d4c8 373d
00000330: b03b 9e3e 3797 533f 4bb4 01be 306c 683e
00000340: b7d2 963e f964 ea3d fd2d c53f 4dba 7b3e
00000350: 94a4 37c0 4082 12be 8314 c73d fc99 1a3d
00000360: 50d3 d0be 9f77 87be 0564 0ebd 9d5e 79bf
00000370: fd15 a33e a532 f53e 64a0 9fbd 15a6 a1be
00000380: 983c f2be 3ef5 e23d 054a 773c 3d63 a8be
00000390: ad9a d03d 4503 093f 2fae 36bd 97a6 3bbb
000003a0: 4894 04bf f7a4 41c0 6e5c dfbd 1279 8d3c
000003b0: f9f4 69be 3ab5 923f 3433 bdbc b034 3dbd
000003c0: 4e39 00bf 541d eabc 855c c9bc cc97 0fbd
000003d0: e311 573f 62e3 003f 7095 313f cd4d f33e
000003e0: 2896 623e e985 023d 3ff4 1fbd 68d7 c13d
000003f0: e65e 393e c584 52bf 8cf4 50bd f533 a9be

critic.net.0.bias f4 [128]
-0.12759005 -2.3377216 -0.33169872 -1.085999 -3.499133 -0.9433565 -1.4887124 0.1344291
0.19065328 0.37678444 -0.6170337 -2.0588927 -0.850801 -1.1727898 -1.9403008 -1.009055
-0.51135087 -2.3239229 -1.2208844 0.70345163 -1.6280373 -2.0814338 -0.035880953 -0.5340098
-0.6273927 1.0481383 -0.67554635 -1.6507117 -1.7942948 0.6299645 1.2506071 0.38317424
0.39860085 -0.08699476 0.010186758 0.2237644 -0.85664743 0.4435923 0.11373584 0.13302895
0.91238314 0.6746761 -1.0022302 -0.57953626 0.6691806 -0.098101094 1.1019568 -0.37593815
-0.8789447 -2.6582425 -1.7085699 -0.2878534 0.9878005 -3.1466777 0.5325021 -1.0765374
-0.031619485 -2.267625 0.42428496 -2.4470828 -0.47242272 0.2335981 -0.5981201 1.0875962
-1.2407438 -1.2758667 0.18841377 0.3865897 -1.4934715 -0.0049780547 -0.009642535 0.48137772
0.12573403 -0.1938741 0.57058185 -1.4565067 0.18005161 -1.695872 -0.15324377 -0.90201414
0.6427309 -1.4441499 0.4124259 -2.007397 -0.81353563 -0.08915904 0.24404968 0.42857465
1.2365625 0.24175574 0.068136364 -2.5872593 -1.0095217 -0.3982829 0.41887042 -0.31633824
-3.7921703 0.896483 -0.9916064 -1.850849 -1.0527353 -0.8432722 0.5030408 -0.060195114
-0.69872147 -0.9256368 -1.2883283 -0.5178868 0.6170754 -0.90359855 0.3750478 -0.49970052
-1.1419845 -1.9237233 -2.9030125 -1.0834485 -1.1600952 0.42176902 0.8450133 -0.6421644
-0.64399546 0.4577502 -0.061209004 -3.2268229 0.37612322 -0.7279604 -1.1780086 -1.605501
00000000: f7a6 02be 3b9d 15c0 6ad4 a9be 0402 8bbf
00000010: ccf1 5fc0 d07f 71bf 218e bebf c8a7 093e
00000020: 9d3a 433e e4e9 c03e ecf5 1dbf e6c4 03c0
00000030: 18ce 59bf fa1d 96bf c75b f8bf b728 81bf
00000040: e4e7 02bf 27bb 14c0 f145 9cbf 6815 343f
00000050: 8763 d0bf 3636 05c0 e8f7 12bd deb4 08bf
00000060: cf9c 20bf 6529 863f 9bf0 2cbf 854a d3bf
00000070: 74ab e5bf 5a45 213f e513 a03f 6a2f c43e
00000080: 6915 cc3e 4f2a b2bd 5ce6 263c 7f22 653e
00000090: 3f4d 5bbf 881e e33e 56ee e83d be38 083e
000000a0: f191 693f 93b7 2c3f 1449 80bf 7d5c 14bf
000000b0: 6b4f 2b3f 3ae9 c8bd ec0c 8d3f f77a c0be
000000c0: 8502 61bf a520 2ac0 6bb2 dabf 8561 93be
000000d0: 7ee0 7c3f 2b63 49c0 0f52 083f facb 89bf
000000e0: 6f83 01bd c520 11c0 e13b d93e 019d 1cc0
000000f0: 64e1 f1be 5734 6f3e 661e 19bf 5a36 8b3f
00000100: b1d0 9ebf 9a4f a3bf 8aef 403e 16ef c53e
00000110: 132a bfbf f31e a3bb b9fb 1dbc 2477 f63e
00000120: 6cc0 003e ef86 46be a711 123f d06e babf
00000130: 735f 383e 5512 d9bf efeb 1cbe 66ea 66bf
00000140: 038a 243f e7d9 b8bf 7d29 d33e 3179 00c0
00000150: df43 50bf 0499 b6bd 29e8 793e 236e db3e
00000160: ae47 9e3f d18e 773e 148b 8b3d a895 25c0
00000170: 0238 81bf bceb cbbe 2f76 d63e 16f7 a1be
00000180: ebb2 72c0 e97f 653f ebd9 7dbf 9fe8 ecbf
00000190: 08c0 86bf b0e0 57bf 48c7 003f 278f 76bd
000001a0: 69df 32bf 89f6 6cbf f1e7 a4bf 3b94 04bf
000001b0: a7f8 1d3f 3c52 67bf 4406 c03e bfd8 ffbe
000001c0: 8c2c 92bf 913c f6bf f5ca 39c0 71ae 8abf
000001d0: 007e 94bf 1cf2 d73e cb52 583f e364 24bf
000001e0: e3dc 24bf 3c5e ea3e 4bb6 7abd 4484 4ec0
000001f0: 3993 c03e 9d5b 3abf fcc8 96bf 0f81 cdbf

critic.net.3.weight f4 [128, 128]
0.042660117 0.023841748 0.11013706 -0.24203815 0.16309273 0.25758904 -0.044128593 0.09398662
0.46259424 0.49555936 -0.45862758 -0.027978232 -0.28559092 0.012025913 0.2648172 0.06227908
0.062067714 1.0971583 -0.19303297 -0.16502555 0.6458891 1.3503463 -0.43332317 0.32346797
-0.8083532 -0.6885507 -0.09558236 -0.025184698 0.3153954 -0.12601696 -0.02971641 0.35234016
0.35443076 0.1880803 0.23158954 0.19757359 0.0010932032 -0.5060423 -0.09041745 0.0020581034
-0.444993 -0.1524808 -0.19071819 -0.21617264 0.4067727 -1.032397 0.3705071 -1.6242675
-0.3810809 -0.0025194068 -1.453381 -0.58192265 -0.99713296 -0.22018246 0.013197489 0.8702071
-0.107984364 0.09761072 -0.63318026 -0.17677316 0.12632488 -1.3781979 0.39508575 -0.7313345
0.7681484 -0.91550076 -0.028657267 -0.2145751 0.07695466 -0.63091314 0.6281678 -0.60626715
-0.7112112 -3.507021 0.24667701 -0.91279507 0.8785391 0.31699196 -2.9308112 -0.15799287
-0.7957514 0.26441187 -1.0755446 -0.4311803 0.029800797 0.18295567 -0.37018892 0.045248725
0.44811574 -0.9364648 0.106275834 0.25389364 0.5589932 0.13394475 -0.29330498 2.3139727
-1.0140392 -0.12766007 -0.661928 0.4408273 0.60771555 -0.5143186 0.31429526 -0.19052948
0.63339746 0.04652779 -1.0560945 0.19636737 -0.44131732 -0.03563008 0.26305357 -0.65941775
-0.021540686 0.9972185 0.8531929 0.10563484 0.73957497 -0.5222036 -0.4527172 0.20805456
-0.54414564 -0.45903647 0.15815234 -0.24438892 -0.5469945 0.8895051 -0.026712762 1.1919259
0.013959013 0.15865205 0.3185129 -0.157843 0.12394897 -0.02876366 0.6749065 0.10693223
-1.1222154 0.05798561 -0.2137832 0.059860766 -0.29123473 0.05932656 0.7507836 0.12883192
0.80780846 -0.5131378 -0.3186828 -1.6138191 -0.34232977 1.4085081 0.11836036 0.4206904
-1.0366024 -0.80814993 0.20427923 -0.5414431 0.26819864 -0.14801593 -0.06818903 0.2862546
1.5884948 0.16494851 0.30250925 -0.106488004 -0.047970794 1.0296364 0.119346455 0.4452031
-0.33088356 -1.2351636 -0.13127497 -0.29052708 -0.13160938 -0.26410985 -0.42100346 -1.455433
0.19422798 0.23186176 0.5335703 -0.5662968 -1.0502957 -0.032308094 0.48926345 1.3033067
-0.0028348437 0.154001 -1.8585925 -0.5736657 -0.2237353 0.82808477 0.12732793 -0.1771612
-0.19167772 -0.37698448 -0.0024407322 0.5032977 1.1167767 -0.038075157 -1.0150002 -2.2717848
0.05509322 -0.42649564 0.49364784 -0.5452636 0.3992101 1.3274791 -0.9361634 -0.07410058
-1.0707953 -0.16563903 -1.3758955 -0.27464032 0.36767873 -0.6486552 -0.4768224 -0.00573009
-0.018056734 -0.7687813 -1.1191746 0.07173127 0.4790539 -0.2676036 -0.027655154 1.6599607
-0.47754636 -0.74765366 -2.1473658 0.21655935 -0.10035892 0.93902916 -0.3062009 -0.21335901
1.4813546 -0.34091344 -0.56582147 -0.89185476 0.15623757 0.05870045 0.4557785 -1.3316518
0.9318662 -0.18814923 0.506025 -0.87054724 1.1185933 -0.42556643 0.034164287 -1.1695518
-0.7621111 0.036330353 1.1722429 -0.049056977 -0.15964362 -1.7725773 0.9413337 0.81031835
00000000: 60bc 2e3d c54f c33c 8a8f e13d d9d8 77be
00000010: c801 273e b6e2 833e 2fc0 34bd 0f7c c03d
00000020: 27d9 ec3e f5b9 fd3e 3cd1 eabe 9b32 e5bc
00000030: f938 92be 5608 453c 1f96 873e 5918 7f3d
00000040: b73a 7e3d af6f 8c3f 6faa 45be 75fc 28be
00000050: fd58 253f 26d8 ac3f 89dc ddbe 989d a53e
00000060: 3cf0 4ebf dc44 30bf afc0 c3bd 2450 cebc
00000070: 827b a13e 970a 01be d46f f3bc ee65 b43e
00000080: f377 b53e 1f98 403e cf25 6d3e bb50 4a3e
00000090: d049 8f3a fd8b 01bf c92c b9bd 3fe1 063b
000000a0: 1fd6 e3be ed23 1cbe a14b 43be 5c5c 5dbe
000000b0: 8344 d03e 9625 84bf 1bb3 bd3e ffe7 cfbf
000000c0: 091d c3be a21c 25bb 6308 babf e2f8 14bf
000000d0: 1b44 7fbf 8377 61be 483a 583c e4c5 5e3f
000000e0: e826 ddbd 21e8 c73d 1a18 22bf 0604 35be
000000f0: 4f5b 013e ca68 b0bf ae48 ca3e bd38 3bbf
00000100: 60a5 443f 425e 6abf a5c2 eabc 93b9 5bbe
00000110: 689a 9d3d 8683 21bf 9bcf 203f 5334 1bbf
00000120: f011 36bf 0873 60c0 e698 7c3e f0ac 69bf
00000130: f0e7 603f c54c a23e 6992 3bc0 e2c8 21be
00000140: 5db6 4bbf fe60 873e 72ab 89bf aac3 dcbe
00000150: cd20 f43c bb58 3b3e 6789 bdbe ba56 393d
00000160: 6d6f e53e 28bc 6fbf 25a7 d93d 59fe 813e
00000170: 2e1a 0f3f d028 093e 122c 96be 2118 1440
00000180: 09cc 81bf 52b9 02be 1d74 29bf 1eb4 e13e
00000190: 3f93 1b3f 62aa 03bf 4feb a03e 291a 43be
000001a0: 5626 223f ed93 3e3d 1b2e 87bf 8714 493e
000001b0: 58f4 e1be d9f0 11bd f5ae 863e 9acf 28bf
000001c0: 1876 b0bc b649 7f3f da6a 5a3f 1457 d83d
000001d0: c954 3d3f 23af 05bf 8dca e7be 410c 553e
000001e0: 214d 0bbf d406 ebbe b0f2 213e 1741 7abe
000001f0: d507 0cbf 9bb6 633f b9d4 dabc 0791 983f
00000200: 58b4 643c af75 223e 1f14 a33e 98a1 21be
00000210: f5d8 fd3d c4a1 ebbc acc6 2c3f 49ff da3d
00000220: c1a4 8fbf 5282 6d3d fce9 5abe 9030 753d
00000230: b81c 95be 6800 733d 5b33 403f 84ec 033e
00000240: 89cc 4e3f 005d 03bf 642a a3be a091 cebf
00000250: d945 afbe fe49 b43f eb66 f23d bb64 d73e
00000260: 63af 84bf eae2 4ebf 932e 513e 049c 0abf
00000270: 5551 893e 7d91 17be b1a6 8bbd f78f 923e
00000280: cc53 cb3f 43e8 283e 7ee2 9a3e 6216 dabd
00000290: 067d 44bd 20cb 833f ea6b f43d a9f1 e33e
000002a0: 9269 a9be d719 9ebf f26c 06be f7bf 94be
000002b0: 9cc4 06be 6839 87be c48d d7be a14b babf
000002c0: b3e3 463e 2b6d 6d3e 1098 083f d4f8 10bf
000002d0: 1770 86bf 7e55 04bd bd80 fa3e c1d2 a63f
000002e0: c9c8 39bb 70b2 1d3e 5ce6 edbf c1db 12bf
000002f0: de1a 65be 5dfd 533f 4162 023e bf69 35be
00000300: 2a47 44be 1c04 c1be b1f4 1fbb 1ed8 003f
00000310: 8af2 8e3f b2f4 1bbd 87eb 81bf ec64 11c0
00000320: 6ea9 613d a35d dabe 69bf fc3e 6596 0bbf
00000330: 4465 cc3e d6ea a93f 68a8 6fbf 0bc2 97bd
00000340: d20f 89bf 479d 29be 581d b0bf a89d 8cbe
00000350: 6340 bc3e 440e 26bf 1122 f4be 7bc3 bbbb
00000360: b7eb 93bc dace 44bf 1d41 8fbf d8e7 923d
00000370: 8e46 f53e 5703 89be 108d e2bc 9879 d43f
00000380: f580 f4be 3b66 3fbf 716e 09c0 bcc1 5d3e
00000390: fa88 cdbd 3764 703f 5dc6 9cbe c97a 5abe
000003a0: 079d bd3f 358c aebe add9 10bf 9850 64bf
000003b0: befc 1f3e e26f 703d cd5b e93e 9173 aabf
000003c0: c98e 6e3f 31aa 40be db8a 013f 2fdc 5ebf
000003d0: 112e 8f3f d8e3 d9be daef 0b3d e0b3 95bf
000003e0: b719 43bf 23cf 143d 0e0c 963f f8ef 48bd
000003f0: 9e79 23be d0e3 e2bf 3ffb 703f 0671 4f3f

critic.net.3.bias f4 [128]
-1.1161284 -1.5470525 -0.3404083 0.340435 -1.6796376 -2.3649235 -1.9622834 -1.2318565
-1.210761 -1.4785362 -1.3628856 -1.4615645 -0.84935045 -1.305716 -1.1793097 -1.9789845
-1.4382057 -1.5023255 -1.0503998 -0.6761753 0.2568143 -0.6340328 -2.8529518 -0.68655664
-1.2633077 -1.1905643 -1.2325875 -1.3027438 -0.85617 -1.0261316 -1.3233787 -0.922724
-2.2720106 -2.0284512 -1.766806 -0.65105754 -0.6132518 -1.9841971 -1.5989511 -2.010893
-0.7582351 -2.4411905 -1.3671181 -2.0203786 -0.5502016 -0.59229344 -1.8253529 -0.4456791
-1.2723682 -0.9984983 -1.2625631 -0.7912223 -0.38024616 -0.26155475 -2.1407762 -0.4076616
-0.88531697 -1.5938458 -1.7301254 -1.4413846 -0.71726406 -2.130673 -1.4101801 -1.1338538
-0.12566729 -1.8492867 -1.3196146 -2.0055468 -0.6620355 -1.5229945 0.20824902 -1.4929909
-0.5933712 -0.83428067 -1.0315442 -1.4048406 -2.1495965 -2.5160315 -0.71629405 -1.2463108
-1.1247653 -2.3638713 -1.7114174 -0.30792686 -1.1432223 -1.391208 -1.7939317 -1.6797217
-0.98266906 -0.5845789 -1.3688531 -1.4416171 -1.191668 -1.565644 -0.5847119 -2.7216
-0.23035312 -1.1371354 -1.8912207 -1.4175515 -1.0544565 -2.04928 -1.6426896 -1.7260127
-1.8808113 -0.8717501 -0.37648708 -1.4055973 -1.8600484 -0.76373565 -1.4026299 -1.0747733
-0.96085 -0.5056837 -1.1367382 -1.6968471 -1.506397 -0.04754921 -1.475681 -1.6328242
-1.4574664 -1.0248337 -1.5615519 -1.4928067 -0.9788145 -0.40969223 -1.6396357 -1.3502089
00000000: 4cdd 8ebf d105 c6bf ff49 aebe 7f4d ae3e
00000010: 5dfe d6bf e85a 17c0 1a2c fbbf 79ad 9dbf
00000020: 37fa 9abf ad40 bdbf 0973 aebf 8c14 bbbf
00000030: 086f 59bf b421 a7bf 9ff3 96bf 5d4f fdbf
00000040: 2017 b8bf 344c c0bf 8073 86bf d319 2dbf
00000050: 2a7d 833e f94f 22bf c396 36c0 2dc2 2fbf
00000060: 11b4 a1bf 6964 98bf 6dc5 9dbf 4fc0 a6bf
00000070: f52d 5bbf 4858 83bf 7964 a9bf a437 6cbf
00000080: 9f68 11c0 25d2 01c0 b326 e2bf b5ab 26bf
00000090: 12fe 1cbf 2cfa fdbf 6eaa ccbf 79b2 00c0
000000a0: b21b 42bf 773c 1cc0 bafd aebf e24d 01c0
000000b0: 03da 0cbf 8ba0 17bf 2aa5 e9bf 0d30 e4be
000000c0: f6dc a2bf 969d 7fbf ab9b a1bf 8b8d 4abf
000000d0: a0af c2be 81ea 85be 7a02 09c0 05b9 d0be
000000e0: 22a4 62bf 2403 ccbf c074 ddbf 4a7f b8bf
000000f0: 9e9e 37bf f25c 08c0 c880 b4bf 1f22 91bf
00000100: edae 00be 6db5 ecbf 22e9 a8bf e15a 00c0
00000110: 297b 29bf 7cf1 c2bf 3b3f 553e 531a bfbf
00000120: 2de7 17bf 6b93 55bf a409 84bf d1d1 b3bf
00000130: fd92 09c0 a906 21c0 0c5f 37bf 1d87 9fbf
00000140: 4ff8 8fbf ab49 17c0 ba0f dbbf 97a8 9dbe
00000150: 1c55 92bf 1b13 b2bf 8e9f e5bf 1f01 d7bf
00000160: 3390 7bbf f6a6 15bf 9436 afbf e986 b8bf
00000170: 9488 98bf 0667 c8bf aeaf 15bf b22e 2ec0
00000180: b0e1 6bbe a78d 91bf 8513 f2bf 5472 b5bf
00000190: 6ef8 86bf 6727 03c0 a743 d2bf fced dcbf
000001a0: 6dbe f0bf 042b 5fbf eac2 c0be 9dea b3bf
000001b0: 1116 eebf 2e84 43bf 6089 b3bf 2c92 89bf
000001c0: 44fa 75bf 7d74 01bf a380 91bf 4932 d9bf
000001d0: 9ed1 c0bf f6c2 42bd 1de3 bcbf 6200 d1bf
000001e0: 428e babf c02d 83bf efe0 c7bf 4a14 bfbf
000001f0: 9693 7abf 2ec3 d1be 95df d1bf a5d3 acbf

critic.net.6.weight f4 [1, 128]
-0.01716311 -0.016772324 -0.05314911 -0.0622988 -0.01663598 -1.3595079 -0.33596906 0.4277964
0.16067262 -0.15000425 0.17311041 -0.102990985 0.38981438 0.35000268 0.057665147 -0.3038929
0.49051037 -0.039444517 -0.17842011 0.25382963 -0.073386945 0.15568776 -0.21371107 0.1367112
0.22397047 0.23638414 -0.09359366 0.38613713 0.5282086 0.04622643 -0.10897294 0.59439975
-0.4912229 -0.23127069 0.534728 0.07513953 0.3233042 -0.2198865 0.7216834 0.12400145
-0.08314316 -0.84559095 0.913369 0.7953296 -0.14653972 0.123124816 0.15441841 0.033929937
0.31295076 0.23180652 0.6347579 -0.15847576 -0.13343206 -0.067812465 -0.28979814 0.03828487
0.2032381 -1.7563269e-06 1.1041001 -0.19638942 -0.08528506 0.20921254 0.25445583 -0.1055539
-0.05686471 0.6215818 -0.049700536 -0.14793848 0.1401669 -0.024257798 -0.12603723 0.66661006
-0.08840467 0.09415174 0.23372157 -0.10468639 0.292414 0.2533568 -0.0746997 -0.10634029
0.37360814 -0.3344366 0.14606155 0.0042929114 -0.045654517 0.22466314 0.37731025 0.49404186
-0.22993724 -0.14559102 -0.14124174 -0.09421673 0.4019184 0.27074128 0.020865176 -0.7157129
-0.12262575 0.37923723 -1.0262264 0.18057638 0.25871316 1.8022469 -0.22101136 0.29471076
-0.70598584 0.16362797 -0.113486655 0.4953771 -0.6469976 -0.14419383 0.11744601 -0.08453756
-0.13563222 -0.11138119 0.21870917 0.12360396 0.35256082 -0.11319736 0.5668745 0.5372768
-0.17449547 -0.19794092 -0.17148693 0.95412606 0.18683334 0.10229467 -0.22697337 0.034718856
00000000: a799 8cbc 1d66 89bc e2b2 59bd 072d 7fbd
00000010: 2e48 88bc 5b04 aebf 2304 acbe 2108 db3e
00000020: 5d87 243e b79a 19be db43 313e f0ec d2bd
00000030: c095 c73e 8d33 b33e 4a32 6c3d da97 9bbe
00000040: 2d24 fb3e 9390 21bd c3b3 36be f5f5 813e
00000050: e54b 96bd 9d6c 1f3e 13d7 5abe 05fe 0b3e
00000060: 8458 653e af0e 723e 08ae bfbd c4b3 c53e
00000070: ae38 073f ed57 3d3d 342d dfbd 952a 183f
00000080: 9181 fbbe 39d2 6cbe efe3 083f c1e2 993d
00000090: 2188 a53e ed29 61be 3ec0 383f 79f4 fd3d
000000a0: f646 aabd a678 58bf 8dd2 693f b89a 4b3f
000000b0: 820e 16be dd28 fc3d dc1f 1e3e 1efa 0a3d
000000c0: 153b a03e b05e 6d3e 7e7f 223f 7847 22be
000000d0: 6aa2 08be 43e1 8abd 6c60 94be 99d0 1c3d
000000e0: a61d 503e efba ebb5 2753 8d3f 4f1a 49be
000000f0: efa9 aebd d03b 563e 0948 823e a52c d8bd
00000100: f8ea 68bd fc1f 1f3f ca92 4bbd 2f7d 17be
00000110: e987 0f3e 4ab8 c6bc e70f 01be f5a6 2a3f
00000120: 820d b5bd a1d2 c03d b554 6f3e d165 d6bd
00000130: 4ab7 953e fcb7 813e 28fc 98bd f0c8 d9bd
00000140: 9149 bf3e 463b abbe 2991 153e 8dab 8c3b
00000150: 3b00 3bbd 180e 663e cf2e c13e 0ef3 fc3e
00000160: ab74 6bbe d015 15be ada1 10be b3f4 c0bd
00000170: 40c8 cd3e 9a9e 8a3e 72ed aa3c f638 37bf
00000180: 3623 fbbd 622b c23e 635b 83bf 04e9 383e
00000190: 0d76 843e 07b0 e63f cd50 62be 54e4 963e
000001a0: 7dbb 34bf 178e 273e b16b e8bd 11a2 fd3e
000001b0: a2a1 25bf 8ca7 13be 8987 f03d 0722 adbd
000001c0: 2ce3 0abe d21b e4bd 4cf5 5f3e 1324 fd3d
000001d0: da82 b43e 04d4 e7bd b01e 113f f98a 093f
000001e0: f1ae 32be 06b1 4abe 459a 2fbe 9b41 743f
000001f0: 3d51 3f3e de7f d13d b56b 68be 5c35 0e3d
